Deterministic-GAIL/weights/GAIL-100_actor.pth (torch_old, 767283 bytes, 7 tensors)

fc1.weight f4 [300, 29]
000000 a1 42 f0 3e 81 1e 00 3d 91 29 b9 3e 26 3d 2f 3e
       0.46925834 0.03127909 0.36164525 0.1711317
000010 e9 81 1b 3e f0 40 88 3d e0 a2 fb 3c 66 85 86 3b
       0.15186276 0.06653011 0.030717313 0.004105258
000020 21 46 68 ba 50 8a 1b 3b c0 d1 2e 3a bf c6 83 ba
       -0.00088605477 0.0023733564 0.00066688284 -0.0010053738
000030 0f ad 56 bb 53 2c 38 3b ab f3 44 3c e1 69 a3 3c
       -0.003275696 0.0028102591 0.012020986 0.019947948
000040 9a 46 62 3d e4 9c 68 bc 97 52 a0 be bf c3 ea bd
       0.055243112 -0.014197562 -0.3131301 -0.11463117
000050 4d f3 d0 3d 5a 3f 71 bc 50 97 60 3d 19 7c 8d 3e
       0.10202656 -0.014724577 0.054831803 0.27633741
000060 f3 4f 3b 3c 76 03 6a ba 49 5d 4d 3a c6 39 40 bb
       0.011432636 -0.00089269073 0.000783403 -0.002933131
000070 b5 d6 64 3d c0 63 d8 ba 7f 2c ce 3d 99 99 1e be
       0.055868823 -0.001650922 0.10067081 -0.1548828
000080 ed 51 11 be 21 2a bc bd 73 20 25 bd e6 75 d9 bc
       -0.14191408 -0.09187723 -0.04031415 -0.026545476
000090 38 02 ca bc a3 08 16 bd 75 27 3a bd a3 85 4f bd
       -0.024659261 -0.03662933 -0.045447785 -0.050664555
0000a0 8e ce 63 bd f8 bb 84 bd 05 cb a5 bd 37 e4 d0 bd
       -0.055616908 -0.06481165 -0.080953635 -0.101997785
0000b0 9c e3 00 be 05 ec 2c be da 0e 62 be b6 1e 19 3d
       -0.12586826 -0.1688691 -0.22075978 0.037382804
0000c0 07 87 eb 3e e6 fb e4 3d 8f 7b 34 3d 04 30 da bd
       0.46001455 0.11180858 0.044063147 -0.106536895
0000d0 5a 56 f6 3e e1 86 b8 3c 46 4e 12 3d df cb bf 3c
       0.48112756 0.022525253 0.03571918 0.023412643
0000e0 00 25 f6 3c e3 a0 84 3d e9 b8 44 bf 1f 63 82 bd
       0.03004694 0.06475999 -0.7684465 -0.06366562
0000f0 bf 12 4c be 35 e1 b7 bd 02 2c df bd ff 11 7c bd
       -0.19929026 -0.08978502 -0.10897066 -0.0615406
000100 7b 5d 17 bd f0 c2 b6 bc b4 d2 8b bc 97 36 18 bc
       -0.036954384 -0.02230975 -0.017068245 -0.009290359
000110 a1 d0 1b 3b f8 12 17 3c de c1 8c 3c a9 5c 89 3c
       0.0023775476 0.009220831 0.017182287 0.016767817
000120 b6 72 3a 3c f8 e1 1d 3c 9a 60 93 3c 93 0a 12 3e
       0.011379888 0.009636395 0.0179904 0.14261846
000130 42 47 1f 3e 3e 13 3e 3d a0 e5 4c bd 86 d2 17 3d
       0.15554526 0.04640507 -0.050023675 0.037066005
000140 47 84 a5 be 5a 3a 08 bf 21 56 a6 3c ba 89 f2 3c
       -0.32327482 -0.5321404 0.020304741 0.029606689
000150 57 fe 0d 3d 9d 45 fe 3c d1 68 71 bc 31 1d 70 b8
       0.034666386 0.031039054 -0.014734463 -5.7247646e-05
000160 87 d4 0b b9 c9 b1 60 37 8f 71 09 38 f3 53 10 b9
       -0.00013335246 1.3392834e-05 3.2769105e-05 -0.00013764184
000170 1a 58 56 39 c9 6b 11 b8 46 14 e4 b5 30 d5 08 38
       0.00020441451 -3.4671077e-05 -1.6993224e-06 3.2623473e-05
000180 63 15 ac 36 81 44 04 b9 eb 9f 60 b8 63 c3 93 37
       5.128489e-06 -0.0001261402 -5.3554697e-05 1.761475e-05
000190 10 b6 ad 37 06 ca 73 38 4e 9f 24 b8 cd 43 83 b7
       2.0707987e-05 5.8123864e-05 -3.924901e-05 -1.564799e-05
0001a0 b6 62 ec 38 d5 93 d6 38 dc a9 ab b8 37 23 12 b9
       0.00011271743 0.00010231851 -8.185554e-05 -0.00013936764
0001b0 35 97 18 b7 a4 ce ac b7 76 7c 84 b7 07 50 05 b9
       -9.095112e-06 -2.0600222e-05 -1.5793583e-05 -0.00012713681
0001c0 69 e5 84 b7 f8 c4 00 38 0f 4b 78 b7 f1 84 d1 b8
       -1.5842454e-05 3.070102e-05 -1.4799428e-05 -9.990659e-05
0001d0 a6 4f c3 3f dc 5a cf bd 80 08 93 3d 41 ca 6a be
       1.5258682 -0.10124752 0.071793556 -0.22928716
0001e0 bc 8f db bd 4c 08 6d bd 3f 10 05 bd de 43 ab bc
       -0.107207745 -0.05786924 -0.032486197 -0.020906385
0001f0 b1 50 8a ba b4 e5 71 3c d2 63 c9 3c 16 d2 0f 3d
       -0.0010552612 0.014764238 0.02458373 0.035112463
000200 ca fa 3c 3d 11 e3 8b 3d 1c 47 d7 3d e7 f1 32 3e
       0.04613761 0.06830419 0.1051161 0.17475091
000210 31 85 a1 3e f8 e7 99 3e e0 5a 87 bd 8c 5a 8d be
       0.3154693 0.3005979 -0.0660913 -0.27608144
000220 19 9c 67 3e 1b 91 50 3c ff bb 89 3f b0 b4 f3 3e
       0.2261814 0.012729908 1.0760497 0.4759879
000230 3d a1 74 3c 94 37 8e 3c 70 22 b6 3c 1a a9 b1 3c
       0.01493102 0.017360486 0.022233218 0.02168708
000240 42 30 aa bd 30 c5 ac b7 71 12 99 b8 48 56 8e b5
       -0.08309986 -2.059582e-05 -7.2990435e-05 -1.0604936e-06
000250 31 c4 5c b8 33 f1 63 b8 1f d6 fd 38 fb 4a 90 37
       -5.2634805e-05 -5.434565e-05 0.00012103863 1.7201053e-05
000260 04 65 fb b8 60 94 2d 38 11 7d 7e 37 2f 79 1e b8
       -0.00011987428 4.13846e-05 1.5168699e-05 -3.7782997e-05
000270 2b 44 8f b8 68 a2 e6 b8 ab 1d f0 b7 ca f4 1f 36
       -6.8314686e-05 -0.00010997505 -2.8624045e-05 2.3835332e-06
000280 a6 9a 22 39 a7 00 5c 38 eb bc 59 38 21 48 a3 b7
       0.00015507135 5.2452695e-05 5.1912775e-05 -1.9464702e-05
000290 cc b1 34 38 ad f1 8e 39 80 23 f0 38 fe c6 d7 b7
       4.308093e-05 0.00027264413 0.00011450704 -2.572266e-05
0002a0 e0 e0 c4 38 f5 14 0d 38 e9 27 ef b5 14 57 e2 37
       9.3878945e-05 3.3636537e-05 -1.7818503e-06 2.6981848e-05
0002b0 57 3a a9 b9 d6 43 19 36 c4 9f bd be f8 6b 90 bc
       -0.00032277658 2.2838262e-06 -0.37035954 -0.017629609
0002c0 1f e6 19 be dc 0b 40 be 78 5b 1d be 5a 90 8d bd
       -0.1502919 -0.18754524 -0.15366924 -0.069122985
0002d0 e8 e5 2b bd 9c ee e4 bc e7 34 b4 bc e5 b5 84 bc
       -0.041967303 -0.027945809 -0.021997882 -0.016200015
0002e0 f0 fd 9f bb 79 70 bc 3b d9 2e 98 3c 3c 20 cd 3c
       -0.0048825666 0.0057507125 0.018577026 0.025039785
0002f0 14 71 04 3d 71 1c 32 3d 87 58 78 3d cf fa 53 3e
       0.032334402 0.043484155 0.0606313 0.20701145
000300 3f 24 d4 3d 2f 6d a5 3d 4b 2b ef bc 70 f6 f2 3c
       0.10358476 0.08077466 -0.029195448 0.029658526
000310 9d 03 45 3e 6c e4 26 3e 75 e9 cb 39 7c 86 4f 3c
       0.1923966 0.16298074 0.00038893116 0.012666341
000320 52 36 be 3c 9a bc b7 3c 85 e8 e7 3b fb 16 7f 3e
       0.023219261 0.0224288 0.007077279 0.2491111
000330 5a b3 98 3c d0 9e 45 be 2a fd 48 3e da 95 44 3d
       0.018640209 -0.19298863 0.19627824 0.047994472
000340 c2 f9 be 3d 7c 3b a9 3d 3d 20 a2 3d 0f 51 81 3d
       0.09324981 0.08263299 0.07916305 0.06314289
000350 9e 75 42 3d ae 4d 1a 3d 93 9c 08 3d 28 44 04 3d
       0.04747545 0.037671737 0.033352446 0.03229156
000360 30 6d 29 3d 65 15 0f 3d d4 18 76 3c d2 97 8c bc
       0.041363895 0.034932513 0.015020568 -0.017162237
000370 5e ea 6b 3d da 4d 27 3e 5a f8 a7 3d 69 85 9a bd
       0.057596557 0.16338292 0.08201666 -0.07544977
000380 d3 3e 14 bd e7 6f 37 3f d2 c7 8f 3f 96 6a 25 bd
       -0.036192726 0.71655124 1.1232855 -0.04038485
000390 6c 52 e4 bc 14 d3 1e bd 2a 4f e0 bc 7f 4c 9f 3c
       -0.027871333 -0.03877552 -0.027381498 0.019445656
0003a0 aa 93 28 b8 5b 84 5d 38 53 33 0e b8 2b bf d8 b8
       -4.0191844e-05 5.281377e-05 -3.3903238e-05 -0.000103352904
0003b0 5f cb 69 39 ba 6c 4d b8 95 12 2f 38 52 be 23 38
       0.00022296373 -4.897707e-05 4.1740557e-05 3.9039478e-05
0003c0 aa b9 0e b8 fd f1 90 b8 e7 cc ad b8 ab 8e df 38
       -3.402835e-05 -6.911529e-05 -8.287449e-05 0.000106600426
0003d0 7c 07 c1 38 73 60 95 b8 db f3 09 b9 a6 da 09 38
       9.204351e-05 -7.122839e-05 -0.00013156181 3.2866978e-05
0003e0 ea b3 bc 38 22 cb 0d b9 08 64 f2 37 b6 69 1d 38
       8.99805e-05 -0.00013522481 2.8895229e-05 3.7530168e-05
0003f0 4d f0 30 b8 03 db 65 37 4c 0c ec b6 49 a0 d5 37
       -4.2185467e-05 1.3700456e-05 -7.0347796e-06 2.5466217e-05

fc1.bias f4 [300]
000000 04 f8 80 bc 1c 2a 03 3e e4 ea 07 bd f8 97 c5 b7
       -0.015743263 0.12809032 -0.033182994 -2.3554996e-05
000010 c4 d2 fa bd 67 dd 4c b8 f0 1b 50 3c 13 d2 09 3d
       -0.122472316 -4.8843587e-05 0.012701973 0.033647608
000020 1d b7 97 b8 6d 23 c9 bb 00 00 00 00 00 63 3a b8
       -7.2343486e-05 -0.0061382563 0.0 -4.4438057e-05
000030 9f 5e 1b b8 83 9b e2 b7 0c a4 10 b8 08 24 8c bc
       -3.7043003e-05 -2.7013715e-05 -3.4485056e-05 -0.017107025
000040 66 08 2f 3a d8 5c d0 bb b4 22 3c b7 4c dd e3 bc
       0.00066769717 -0.006358724 -1.1213753e-05 -0.027815484
000050 3e c5 de bd fb a6 9e b8 b0 c8 70 3c fd de 8d 3d
       -0.10877465 -7.5651296e-05 0.014696285 0.06927297
000060 d8 df 21 bd 28 5e 52 bd 51 33 40 3d 7f 5a 29 b7
       -0.039520115 -0.051359326 0.04692394 -1.0094255e-05
000070 ab f3 b1 bc 2e 42 24 bd 7b 2c 14 bc 18 42 5f 3c
       -0.021722635 -0.040102176 -0.009043808 0.013626598
000080 00 00 00 00 a7 d5 32 bd 00 00 00 00 e9 c5 d5 bd
       0.0 -0.043660786 0.0 -0.10438139
000090 55 99 aa bc ce dc 00 bd 2a 2b e2 b7 71 31 5c bc
       -0.020825068 -0.031460576 -2.69614e-05 -0.013439522
0000a0 09 5f 12 bd 8c 1b 25 bc 50 3f 0f bd 36 fb 7c b8
       -0.035735164 -0.0100773685 -0.03497249 -6.031544e-05
0000b0 f1 ef 81 3d 69 a7 2e 3d 33 65 20 b7 8c 62 14 bd
       0.06344593 0.042640124 -9.560305e-06 -0.036226794
0000c0 bf 33 02 3d b4 3f 0c bd 00 00 00 00 76 2f c1 bc
       0.03178763 -0.03424044 0.0 -0.023582201
0000d0 71 50 18 bd a7 20 b7 3d 7b 13 fb bc 0e 94 a7 bb
       -0.03718609 0.08941775 -0.030648937 -0.005114085
0000e0 cd 77 57 bd 00 00 00 00 00 00 00 00 b4 91 b6 bc
       -0.052604485 0.0 0.0 -0.022286274
0000f0 84 3a 1f bd b2 8d 9d b7 39 c0 e4 bb f9 25 1f bd
       -0.038874164 -1.878184e-05 -0.0069809225 -0.038854573
000100 00 00 00 00 5a 04 44 bc 22 44 aa bc 34 9f 9c b7
       0.0 -0.011963928 -0.020784441 -1.8670784e-05
000110 5a 7b 72 b8 00 00 00 00 66 84 07 3c 89 75 25 bd
       -5.7812176e-05 0.0 0.008271312 -0.040395293
000120 19 b5 2b b6 17 1d 35 bb 59 12 d9 3c a2 a1 f4 bc
       -2.5586398e-06 -0.0027635747 0.026498007 -0.029862229
000130 00 00 00 00 80 0e ab 3a aa 41 7a 3d 0c fe f7 b6
       0.0 0.0013050586 0.06109778 -7.3907486e-06
000140 1e 49 37 bd 03 fa 23 bd 7d 9b 79 3d 00 00 00 00
       -0.044747464 -0.04003335 0.0609393 0.0
000150 a8 cf f0 3b cc d1 c9 bc 2e c5 ea b7 39 e9 fe bc
       0.0073489733 -0.024636172 -2.7986793e-05 -0.031117069
000160 71 d6 a0 bd 1b 08 02 bb aa 16 49 3b d8 9a cc b6
       -0.078534015 -0.0019841257 0.0030683675 -6.0977e-06
000170 00 00 00 00 81 c8 4a 3d fe d2 2f bc 09 48 7d b8
       0.0 0.04950762 -0.010731457 -6.038699e-05
000180 82 67 fe bc 00 dd 09 b8 17 4f 49 b7 00 00 00 00
       -0.031055216 -3.2869168e-05 -1.1998948e-05 0.0
000190 00 00 00 00 8a c5 9a 3b 4d 6d 72 3b 69 91 66 bc
       0.0 0.0047232555 0.0036991418 -0.014072754
0001a0 d3 a6 56 bd e4 ff 0c bc 14 62 d7 bb 00 00 00 00
       -0.05240519 -0.008605931 -0.006572971 0.0
0001b0 54 99 a5 3b f7 8e 3d b8 0d 3d 7e b8 00 00 00 00
       0.0050536785 -4.5194258e-05 -6.0615177e-05 0.0
0001c0 a7 fa f3 3c 8b 5a 1a b5 e9 5b 4a 3d a9 f3 5e 3b
       0.029782606 -5.750123e-07 0.04940406 0.0034019744
0001d0 97 56 a3 b9 08 cc 25 3d 8e 50 01 bd 22 b7 44 bc
       -0.00031154297 0.040477782 -0.031570964 -0.012006553
0001e0 94 f9 1f bd 00 00 00 00 97 b1 04 3e 54 8b 08 3e
       -0.039056376 0.0 0.1295837 0.133344
0001f0 6a 37 0c 3e a4 10 eb b6 01 2a 2b bc 70 2c 2b b8
       0.13693014 -7.005483e-06 -0.010447026 -4.0810963e-05
000200 00 00 00 00 6a b3 28 bd 00 00 00 00 2c 4d 07 bd
       0.0 -0.041186728 0.0 -0.03303258
000210 c6 db 08 bd 98 4b b7 3c 02 e7 84 bb f3 a5 0f bc
       -0.033412717 0.022374913 -0.0040558586 -0.008767593
000220 a7 7e 54 bd 00 00 00 00 d2 bc 1d bc 00 00 00 00
       -0.051878598 0.0 -0.009627538 0.0
000230 37 b6 e6 bc 78 0f 9b 3d 05 0e 05 3e ff b0 38 b8
       -0.028163059 0.0757131 0.1299363 -4.403386e-05
000240 72 9a 1c bd 17 79 18 3b 89 17 8d bb 86 79 9c b7
       -0.038233228 0.0023265535 -0.004305784 -1.8653238e-05
000250 b0 ca 42 3b 10 81 7c bc b6 2d 52 bb 18 da 4e 3d
       0.0029722862 -0.01541163 -0.0032070703 0.05050096
000260 f5 08 af bb 00 00 00 00 95 6c db b7 10 89 94 3d
       -0.005341644 0.0 -2.6157397e-05 0.07252705
000270 87 79 10 bc e7 5a 8d b8 5e 6d 23 bd 4c 38 3a 3d
       -0.008818037 -6.740336e-05 -0.039899223 0.045463845
000280 b9 22 99 3b 3f 81 a1 3d b3 8e 3c 3d 05 b4 33 3c
       0.0046733287 0.0788598 0.046034526 0.010968213
000290 f2 6e 79 3d ec ea e7 bc 5f bb 58 bc e9 78 24 bd
       0.06089682 -0.028310262 -0.0132282665 -0.04015437
0002a0 ac 26 ec 3d 00 00 00 00 bd 8b 64 bd ce ea d6 3c
       0.115308136 0.0 -0.055797327 0.02623501
0002b0 76 1b 10 b7 cb e1 24 bd ac d8 3f b7 bf 57 1d b8
       -8.589463e-06 -0.040254395 -1.1434935e-05 -3.7513437e-05
0002c0 55 d2 11 bd b4 ec a0 b8 00 00 00 00 66 cd 95 b8
       -0.03560098 -7.673484e-05 0.0 -7.143132e-05
0002d0 9b e8 f7 3c 00 00 00 00 a4 f8 57 3b c1 e9 2b bd
       0.030262282 0.0 0.0032954598 -0.041970972
0002e0 00 00 00 00 88 2d 1e 3d b9 e2 ac 3d 63 fb a5 b8
       0.0 0.03861764 0.084416814 -7.9146375e-05
0002f0 00 00 00 00 5f 60 c4 bb e9 af 60 bc 71 cd 05 bd
       0.0 -0.0059929336 -0.013713815 -0.032666627
000300 2d ee ac b7 61 a1 ea 3c e3 1c 0a 3c 12 38 9e b7
       -2.0614907e-05 0.028641405 0.008429739 -1.8861178e-05
000310 00 00 00 00 ea 6a 68 3d a0 fc 9b 3b 00 00 00 00
       0.0 0.056742586 0.00476034 0.0
000320 78 ca 3b b8 00 00 00 00 a1 28 84 3b d8 f0 35 bc
       -4.4772838e-05 0.0 0.0040331637 -0.011104785
000330 d5 dd 8f bc bc cd 80 ba e5 a1 b4 3b 64 23 5f bc
       -0.017561832 -0.0009826939 0.0055124634 -0.013619278
000340 f0 2d cf 3b 00 00 00 00 7c ea 49 3c e6 d0 26 bd
       0.006322615 0.0 0.012323972 -0.040726565
000350 00 00 00 00 f9 dc 0e bd b3 79 86 bc f0 11 8c b7
       0.0 -0.034878705 -0.016415453 -1.6697653e-05
000360 02 6a 11 b8 00 00 00 00 8e da 72 bc 29 4a b1 b4
       -3.466942e-05 0.0 -0.014822615 -3.3022778e-07
000370 17 55 6b bd b3 2c f3 3b 65 37 08 3e 92 6d 52 3a
       -0.057454195 0.0074211 0.13302381 0.00080271915
000380 71 c4 11 bc a5 f6 1e bd 30 e6 4f b8 19 1c 06 bd
       -0.008896933 -0.038809437 -4.9567025e-05 -0.03274164
000390 00 00 00 00 aa a5 c7 3c e0 e7 ba 3c 00 00 00 00
       0.0 0.024370987 0.022815645 0.0
0003a0 90 16 4a b7 72 76 15 bd 98 33 42 b8 12 85 e1 bc
       -1.20453915e-05 -0.03648991 -4.6301255e-05 -0.027529273
0003b0 00 c3 10 b8 00 00 00 00 48 92 05 bc 8b 5c 12 bd
       -3.4513883e-05 0.0 -0.008152552 -0.035732787
0003c0 00 00 00 00 1e 7a 70 b8 5d d9 aa 3d 2d 52 09 3e
       0.0 -5.733419e-05 0.0834224 0.13410254
0003d0 d9 a3 01 3d c5 aa cd 3c 48 31 05 bd 00 7f 1f bd
       0.031650398 0.025105843 -0.0325177 -0.038939476
0003e0 93 c7 3a 3d c5 d0 f6 bb eb f9 09 bd f2 1f 72 bc
       0.045600485 -0.0075322115 -0.033685606 -0.014778124
0003f0 ab 43 3a 3d 01 2f e7 bb 27 ee dc 3b f3 8a 05 3e
       0.04547469 -0.007055164 0.006742257 0.13041286

fc2.weight f4 [600, 300]
000000 8e 23 b2 3d 29 bd de be 7e b0 98 3d 90 27 fb b8
       0.08698188 -0.43503693 0.07455538 -0.00011975982
000010 26 4b ea bd 0f 11 16 39 12 76 66 be 2d 9b 00 be
       -0.11440115 0.0001431147 -0.22505978 -0.12559195
000020 63 be 42 b8 07 9a d6 bd ca 8a c2 38 f3 d2 a3 b9
       -4.6430516e-05 -0.10478597 9.276492e-05 -0.00031246952
000030 ac 37 73 b8 6c 43 45 37 7f 9c 57 b8 1a 67 81 3d
       -5.7987563e-05 1.1757813e-05 -5.1405743e-05 0.06318493
000040 e0 69 ba bd 2c 9c 0b 3d f1 df 76 35 85 08 f2 bd
       -0.09102225 0.034084484 9.196802e-07 -0.11818031
000050 e7 9e 19 be 80 47 0b 38 b1 43 77 3d 9f 7d ab 3b
       -0.15002023 3.3206772e-05 0.06036729 0.005233481
000060 2f 0b c2 3d 17 23 b3 3d 7c 06 99 be 37 42 ee b7
       0.09474789 0.08746927 -0.2988776 -2.8402645e-05
000070 dc 24 9e 3d 6f 36 fc 3e d5 63 88 3d d0 c4 80 bd
       0.07721874 0.4926028 0.066596664 -0.06287539
000080 9d 1b c7 b8 ef f3 c9 3d 5a 58 80 38 67 ca f0 bd
       -9.494203e-05 0.0986098 6.1199724e-05 -0.11757355
000090 58 58 b4 3d 80 fb 48 bd ac 30 11 38 fb 41 ab 3d
       0.08805913 -0.049067974 3.4616023e-05 0.08362194
0000a0 32 3a fd 3e e1 35 dc bd 55 a6 e7 3e ab da 35 38
       0.49458462 -0.10752464 0.4524409 4.3357413e-05
0000b0 41 70 50 be 31 e5 9b be b1 59 7c b8 cc a3 c1 3d
       -0.20355321 -0.30448297 -6.0165014e-05 0.0945507
0000c0 bd 1e 6b be bb 60 c3 3d 64 a8 ab 38 86 a4 ef 3d
       -0.22960944 0.09539934 8.1852806e-05 0.11701302
0000d0 fc 05 fe 3e 6b cd 39 bd c6 e2 60 3d a6 8b 06 3e
       0.4961394 -0.045361917 0.054903768 0.13139209
0000e0 9b 28 63 3d 2d ca 63 38 6f c6 4b b9 80 3a b6 3d
       0.055458646 5.430931e-05 -0.00019433511 0.08897877
0000f0 c6 28 97 3d 44 1a 60 38 b9 3d 23 3d ae 66 c2 3d
       0.07380824 5.3430223e-05 0.039853785 0.09492241
000100 c8 6a b6 38 78 da 76 3d de af ad 3d d3 5d 2c b8
       8.698326e-05 0.06026694 0.0848081 -4.1095376e-05
000110 3a 86 fd 37 6d a4 17 b8 ec 0b 0b 3e 41 3a 18 3d
       3.0222454e-05 -3.615434e-05 0.13578767 0.03716493
000120 82 d5 89 b6 c2 06 13 be 61 8d e8 39 a8 5b 39 3d
       -4.1077737e-06 -0.14358047 0.00044355824 0.045253426
000130 08 71 1f 38 b2 08 2c 3e ab 5f 89 bd a1 c2 d0 38
       3.8013823e-05 0.16800192 -0.067077 9.954465e-05
000140 82 23 c7 3c 2c c1 fa 3e 5c 8f af bd da 38 ea b8
       0.024308924 0.48975503 -0.085722655 -0.00011168579
000150 47 6c ea bc 6b 8d c8 3d c4 5a 80 38 46 25 7e 3e
       -0.028616084 0.09792598 6.120422e-05 0.24818906
000160 94 d8 48 3d c4 b0 64 bc 9e 0e 9a bd da 24 a2 b8
       0.04903467 -0.01395816 -0.07522319 -7.731626e-05
000170 4b 34 f4 b8 61 93 5e bd 4a ba 48 be 2a 50 e5 37
       -0.00011644567 -0.05433977 -0.19602314 2.7336257e-05
000180 4f e2 91 bd 46 33 68 39 3e 68 c1 b8 a8 7e 7b 38
       -0.07123243 0.00022144345 -9.222374e-05 5.996102e-05
000190 89 83 ac 38 26 4a 27 3e 3e 77 ec 3d 9b fd b0 3d
       8.2260995e-05 0.16336879 0.11546181 0.086421214
0001a0 7f be a5 3d 64 d7 83 3d bd 65 84 3d 62 7b 8b b8
       0.08092975 0.06437567 0.064647175 -6.651018e-05
0001b0 4f 19 d3 bd 54 9a bb b8 72 c2 14 39 37 f8 a7 b8
       -0.103075616 -8.945601e-05 0.00014186816 -8.009414e-05
0001c0 a6 04 49 be d4 7e ec 37 9d 41 6a be 8d ba 53 be
       -0.1963068 2.8192451e-05 -0.22876592 -0.20676632
0001d0 54 8e 9a bc c9 e9 be bd 3d f5 3e 3d d1 68 54 be
       -0.018866695 -0.09321935 0.046620596 -0.2074311
0001e0 ad c6 c2 3d 88 33 e6 b8 e8 f9 e6 be 59 32 e9 be
       0.09510551 -0.00010976853 -0.45112538 -0.45546225
0001f0 06 26 af 3e 37 19 a8 b7 a8 16 b3 3d 21 88 85 b7
       0.34208697 -2.0038902e-05 0.08744556 -1.5918225e-05
000200 30 1d 7a b9 ff 25 95 3d 61 0e c6 38 09 49 4c 3d
       -0.00023852731 0.07282638 9.444054e-05 0.04987434
000210 ad 18 c3 3d e5 fa 55 be 13 21 09 3a fe 59 26 3e
       0.09526191 -0.2089649 0.00052310637 0.16245267
000220 42 be d4 3c 80 92 39 b9 47 4b 87 3d 61 84 ce b8
       0.025969628 -0.0001769755 0.06606155 -9.847503e-05
000230 fc 58 d1 3c 5d a7 07 be af b6 51 be 3d 2a 5e b9
       0.025555126 -0.13247438 -0.20479845 -0.00021187305
000240 b4 bd c2 3d 49 34 1c be 80 26 7e 3d e6 34 4f b8
       0.09508839 -0.1525432 0.062048435 -4.940191e-05
000250 af bf 36 be 75 0e c1 3d ed df aa 3d 72 76 2b be
       -0.17846559 0.094265856 0.08343492 -0.16744402
000260 37 41 9a b9 ad 6e a1 b8 67 e3 c2 b8 ba 60 11 be
       -0.00029421758 -7.697693e-05 -9.292998e-05 -0.14197055
000270 5c 9f f1 bd 28 3b 36 b8 63 4a 04 3f 65 42 06 3b
       -0.117979735 -4.3447275e-05 0.51676005 0.0020486352
000280 8e d9 01 3e 3f 16 56 be df 82 fa bc 05 26 66 3e
       0.12680647 -0.20906924 -0.030579982 0.22475441
000290 7d 65 e8 bc 0a 26 be 3d b0 ff b5 3d 8e 45 4e be
       -0.028368706 0.09284599 0.08886659 -0.2014372
0002a0 d5 25 bb bd fb fd 2c b9 d9 2c c3 3c b4 4f 6a 3d
       -0.09138075 -0.00016497813 0.023825096 0.057204917
0002b0 20 34 0f 39 ec 10 04 3f b5 89 fc b6 8a 38 a9 b5
       0.00013656961 0.5158832 -7.5262165e-06 -1.2607936e-06
0002c0 4f 59 c0 3d 20 ad 2c b8 21 a6 78 38 26 84 6e b8
       0.09392034 -4.116923e-05 5.9282527e-05 -5.6866695e-05
0002d0 41 3d 89 bc 43 51 2c 38 84 f2 0e 3e 35 7f 9a 3d
       -0.016752841 4.1083676e-05 0.139597 0.07543794
0002e0 71 2f 06 39 8d ff 5f be 4c 31 8c be 8f a9 00 39
       0.00012796909 -0.21874829 -0.2738136 0.00012270197
0002f0 35 8f a0 38 3f 4b 01 3d 8e 19 12 be 7b d7 c0 3d
       7.656069e-05 0.0315659 -0.14267561 0.094161
000300 28 5d ad 38 a8 c5 91 3d 04 b9 df 3d d8 76 e5 b7
       8.2666345e-05 0.07117778 0.10923961 -2.7354268e-05
000310 c5 12 a5 b7 12 53 a4 bd 4c c6 82 3d 5c 42 ec 36
       -1.9678273e-05 -0.08023657 0.063854784 7.0410733e-06
000320 19 7d ba 38 0e 9e 9b 38 ff 7a 02 3e 06 b4 64 3d
       8.8924724e-05 7.420416e-05 0.12742232 0.055835746
000330 10 74 98 3d 5e 5b 98 bb f0 22 cf bb 5b e9 2d be
       0.07444012 -0.0046495637 -0.0063213035 -0.1698355
000340 72 92 a9 3c 4b e9 cb b8 4a 2c 56 be db fd a3 3d
       0.020699713 -9.7232485e-05 -0.20915332 0.080074035
000350 a7 c0 7c 36 62 4e c0 3d ce c4 9f 3d f7 ce 24 b7
       3.7663065e-06 0.0938995 0.078012094 -9.8233495e-06
000360 a3 19 1c 38 f9 77 8e b7 02 19 74 3d f4 9a 0a b8
       3.7217174e-05 -1.6983586e-05 0.05959416 -3.3046075e-05
000370 78 4e 46 3d a9 ee 73 be cc 37 e8 be a9 1f 9a be
       0.048414677 -0.2382151 -0.4535507 -0.3010228
000380 10 f8 b1 3d c1 b1 02 3f 29 d5 10 38 e0 3a 7e 3e
       0.08689892 0.5105248 3.4530796e-05 0.24827147
000390 cc 9a 4e b7 86 c8 4d 3b 09 85 ec bd ef 37 c3 36
       -1.2314598e-05 0.003140004 -0.11548812 5.8179644e-06
0003a0 dd b1 d8 3d 13 f2 f8 3e 18 c6 00 b9 0b 89 26 be
       0.105808 0.48622188 -0.00012280827 -0.16263215
0003b0 19 a5 92 38 c2 dc 9c b7 7d b2 4a 3d 2b bd be 3d
       6.992574e-05 -1.8699448e-05 0.049486626 0.09313425
0003c0 da 46 6a 38 c4 5e c2 38 7e 0b 45 be ad fe 8d 3e
       5.5855933e-05 9.268292e-05 -0.19242665 0.27733365
0003d0 30 a5 24 be 6e 9b 72 be 66 fc 7a 3d c0 5b 02 3f
       -0.16078639 -0.23692104 0.061275862 0.5092125
0003e0 c0 a2 ee bb d3 53 23 3d cb 89 c9 3c 46 0e aa be
       -0.007282585 0.039874863 0.024601838 -0.33214015
0003f0 95 bb 18 bc 7a 68 05 3d 1b f5 6f be 28 17 e5 be
       -0.009322067 0.03257034 -0.23433344 -0.4474423

fc2.bias f4 [600]
000000 dd c6 d1 bd 9e c8 cc 3d c7 65 f5 39 4e c7 b8 3c
       -0.10243008 0.09999202 0.00046805872 0.022555973
000010 f1 c0 85 3d f3 f8 57 ba 97 1d de b4 b5 2c c8 3d
       0.06530941 -0.00082386954 -4.1372252e-07 0.09774152
000020 32 14 be ba c6 54 9f bc 7c 36 79 3d 21 1e 0d 3d
       -0.0014501868 -0.019449603 0.060842976 0.03445256
000030 5c f9 3a 3d ee 0c 24 bd 16 10 fe bb 80 ce 0c 3e
       0.045647964 -0.040051393 -0.0077533824 0.13750648
000040 5a 94 03 ba 32 08 9e 3d ac 56 0f bb fe 38 d1 b9
       -0.00050193595 0.07716407 -0.0021871729 -0.0003990605
000050 aa 11 1c 3e 1f 0f 94 bc 25 1f 64 ba 00 00 00 00
       0.15241113 -0.018073617 -0.00087021507 0.0
000060 9d b6 60 ba 80 99 9c b9 9a 50 0c 3a b3 ef a2 bd
       -0.00085721334 -0.00029869005 0.0005352587 -0.07955875
000070 50 d4 80 b9 2c 4f b6 b9 2b b4 e8 3b 95 8f 6f bd
       -0.00024572248 -0.00034772733 0.007101556 -0.05848654
000080 f8 3d 85 3d 22 71 39 ba 2b 6e de 3c 88 e4 0a ba
       0.0650596 -0.0007074048 0.027152142 -0.0005298336
000090 d3 60 34 3e a2 df 26 3e 3e 33 6d 3d 69 30 cf b8
       0.1761506 0.16296247 0.057910196 -9.879546e-05
0000a0 e8 36 1a 3d c3 14 56 3d 40 41 3b bc 59 84 a5 3d
       0.03765002 0.052265894 -0.011429131 0.08081884
0000b0 e2 6b 4f 3d 63 8c ef 3c e1 2b 40 b9 c4 58 83 3d
       0.050639994 0.029241746 -0.00018326893 0.06413415
0000c0 38 54 b6 b9 ad 03 b5 3d 95 50 4f ba d0 b5 52 3d
       -0.00034776493 0.08838592 -0.0007908431 0.05144292
0000d0 c3 87 7d ba 48 c2 1d 3e 3f b2 04 3d a3 3c a7 3d
       -0.0009671414 0.15406144 0.03239655 0.081658624
0000e0 c4 51 32 3d eb b7 b0 3d 67 f1 2f 3d 2f 6b 16 b9
       0.04353501 0.086288296 0.04295483 -0.00014345044
0000f0 66 d4 09 3d 85 d0 7e b9 30 2f de 38 6f cf ab b4
       0.033649825 -0.00024301007 0.00010594574 -3.200216e-07
000100 e9 9a 6e bd 96 7b 8d bc c0 01 e5 bc 01 f2 90 bc
       -0.058253203 -0.017270844 -0.027954936 -0.017693521
000110 2a 08 a4 3d 76 e2 63 3d 5a 48 57 bd b3 18 ca b9
       0.0800937 0.05563589 -0.052559234 -0.00038546845
000120 b1 2a 66 ba c9 b7 b3 3d 18 af 8c b8 a1 20 22 3c
       -0.0008780165 0.087752886 -6.708334e-05 0.009895475
000130 ce ac 4c bb 09 22 ad bd 83 b5 07 bc 9b b7 05 b9
       -0.003123093 -0.08453757 -0.008283022 -0.00012752267
000140 75 e0 53 ba 8b 4b ac bb 39 ff 1d 3d fc 49 69 b8
       -0.0008082458 -0.005258029 0.038573477 -5.5620432e-05
000150 f8 46 94 bd f4 96 83 bd 5e 30 8f ba 2a e5 83 3d
       -0.07240099 -0.064252764 -0.0010924449 0.06440194
000160 b5 32 83 b9 b3 f3 eb 3d 09 7d 26 3e 0a af 16 3e
       -0.00025024047 0.11521091 0.16258635 0.1471521
000170 a6 89 dc 3d d0 20 3a bb bb 2d 86 b9 c9 ff 32 3e
       0.10768442 -0.0028400905 -0.00025592544 0.17480387
000180 b6 bf 1f 3e 90 f0 73 3b 78 50 5c 3d 6e cb 6b b8
       0.15600476 0.0037222244 0.05378768 -5.6217825e-05
000190 16 25 a0 b9 f1 1e 84 3d ed 3f 03 3d bf 3f 18 3e
       -0.0003054521 0.06451214 0.032043386 0.14868067
0001a0 81 a2 20 bd 39 da ab bd 34 da 68 bd 94 71 01 b9
       -0.039217476 -0.08391232 -0.05684872 -0.0001234471
0001b0 d4 5d f1 3d 83 05 cf 3d c7 65 c2 3c 71 3d 2a 3e
       0.117854744 0.10108473 0.023730172 0.16625
0001c0 50 fc 9f 3d e5 68 7f bd 4e 93 f7 b9 94 c7 93 b9
       0.07811797 -0.062355895 -0.00047221262 -0.00028186722
0001d0 d8 7f 5e bc 13 76 d7 3d 31 81 28 bd 37 c4 34 3e
       -0.013580285 0.10520568 -0.04113883 0.17652975
0001e0 a5 6f 82 b8 e0 d2 05 3d 96 31 88 3d cb 6f 0c b9
       -6.2196785e-05 0.03267181 0.06650083 -0.00013393087
0001f0 37 4f 93 b9 c3 ba 1e 3a b0 db 55 3d 46 36 48 3d
       -0.00028097045 0.00060550513 0.052211463 0.048879884
000200 3b 86 13 3d 1b 96 a6 3d 69 68 61 3d 16 28 99 b9
       0.036016684 0.08134099 0.055031214 -0.000292123
000210 40 84 0a b9 2a 87 81 b9 c3 e5 11 ba f7 4d 19 3a
       -0.00013209973 -0.00024705502 -0.0005565548 0.00058481045
000220 01 b0 17 bd fb f1 e0 b9 58 b5 0b bd c9 b9 69 3d
       -0.037033085 -0.000429049 -0.03410849 0.057061944
000230 9b b9 0e 3e c3 12 c5 b9 f5 3e 9e bb 91 88 ee b9
       0.1393799 -0.00037588747 -0.0048292824 -0.00045496647
000240 a6 f6 92 3a 57 c2 11 3d 6a 18 47 ba 66 c7 a5 bd
       0.0011212423 0.035585728 -0.00075948855 -0.08094673
000250 3e 51 01 ba aa cd b8 b9 13 60 a2 b9 b2 a5 e8 b9
       -0.00049330655 -0.00035248447 -0.0003097063 -0.0004437394
000260 d2 c4 b6 3d 80 75 27 b9 f5 26 2b bd f1 ac ef 3c
       0.08924259 -0.00015970133 -0.0417852 0.02925727
000270 84 86 22 3d 26 d2 cb 36 09 50 a4 3d 1f 32 85 3d
       0.039679065 6.074336e-06 0.08023078 0.065037005
000280 e3 3a 11 bd 7a 77 19 be 02 40 b3 3d 69 fe e9 b9
       -0.03545655 -0.14986983 0.08752443 -0.00044630773
000290 81 d3 0d b9 0b 06 78 bb cb ff 20 ba 9e f8 5c 3c
       -0.00013525599 -0.0037845399 -0.0006141632 0.013487009
0002a0 79 61 af 3d 6f 75 b1 b9 e4 14 7c 3d b0 44 46 b9
       0.08563513 -0.00033847566 0.06154336 -0.0001890834
0002b0 d0 21 94 ba 9c 76 ab bd 21 ee 8a 3c 78 00 05 3d
       -0.0011301581 -0.08372232 0.016959252 0.03247115
0002c0 29 fe 17 b9 76 00 a7 bd cd 30 43 3e 46 b8 b7 b8
       -0.00014495164 -0.08154385 0.19061585 -8.7604436e-05
0002d0 45 90 97 3d 0a 69 a6 bc 9d d5 89 b9 77 6f 60 ba
       0.07400564 -0.020313758 -0.0002628983 -0.00085615314
0002e0 b9 82 a4 3d a6 5e 1d 3e fb 4f c6 3d a3 4b 05 b9
       0.08032746 0.15368137 0.09683224 -0.00012712045
0002f0 11 bd 8b 3d 5b 00 21 3e 18 8b 0b 3e 63 9e 05 3e
       0.06823171 0.15722792 0.13627279 0.13048701
000300 78 92 f7 3c 3d c9 bc 3d d0 68 08 ba 49 5c 3e bb
       0.030221209 0.09218071 -0.00052036066 -0.0029046705
000310 b3 ac 9d 3d 25 ee 0b bd 70 9e 59 ba 76 86 29 3d
       0.076989554 -0.03416266 -0.0008301502 0.041387998
000320 f5 14 22 3d 57 ae b2 bc 22 48 87 bc f2 5a 03 b9
       0.039570767 -0.021811647 -0.016513888 -0.00012527013
000330 00 00 00 00 0e 6a c9 bc 80 46 1c bd e5 9b 66 ba
       0.0 -0.024586704 -0.03815317 -0.0008797034
000340 f5 b3 c1 3d 9c 3f c7 bc d1 f3 5c 3d 36 b1 a1 3d
       0.09458152 -0.024322324 0.05394346 0.078951284
000350 31 a8 74 bb b0 93 50 b9 33 80 0f b9 54 27 a1 b9
       -0.0037331695 -0.00019891444 -0.000136853 -0.00030737615
000360 35 a4 a9 39 c3 53 0d b8 23 8c 33 be aa 97 6e b9
       0.00032356536 -3.369503e-05 -0.17533927 -0.00022753948
000370 6e 30 61 3d d8 02 bc ba f0 57 c1 3d c6 14 f7 bd
       0.054977827 -0.0014344109 0.09440601 -0.12064509
000380 6c 99 67 bd f7 19 14 b9 44 71 80 bd 78 f5 70 ba
       -0.0565428 -0.00014124053 -0.06271604 -0.0009191851
000390 86 57 04 3d 92 71 89 3d d1 a5 64 ba d1 46 83 bd
       0.03231003 0.06711115 -0.00087222183 -0.064099915
0003a0 3f b8 9c b9 c4 b2 1a b9 46 a0 35 b9 17 54 85 b9
       -0.00029891913 -0.0001475318 -0.00017321212 -0.0002543039
0003b0 9e 98 80 3d 39 25 fe 3c 09 67 e0 bd da 22 8c ba
       0.062791094 0.031023609 -0.109571524 -0.0010691539
0003c0 49 b7 91 b9 57 71 38 be 04 63 8f 3d 3d 0a ab b9
       -0.00027793113 -0.18011986 0.070013076 -0.0003262329
0003d0 30 c4 28 3e 28 a1 d6 bc 17 3a a3 bd a8 b6 88 bd
       0.1648109 -0.026199892 -0.07970064 -0.06675464
0003e0 13 19 7a b7 95 a3 80 ba b8 17 99 3c db 78 91 3c
       -1.4906999e-05 -0.0009814376 0.018688068 0.017757824
0003f0 78 f7 17 3d ac 3d 83 bd 77 b7 5a ba 1f a8 a5 3d
       0.03710124 -0.06408247 -0.00083433784 0.08088707

steering.weight f4 [1, 600]
000000 00 48 5e 3b 68 06 81 3c 69 44 b2 ba 53 47 c5 bd
       0.0033917427 0.015750125 -0.001360071 -0.09632745
000010 9c 76 d3 3e 0c 1b 68 ba b3 b9 66 3b 4c f3 05 bc
       0.4130143 -0.0008854128 0.00352059 -0.008175682
000020 f2 14 e1 ba c3 64 00 3e d0 63 67 3d b3 40 66 bb
       -0.001717238 0.12538438 0.056491673 -0.0035133779
000030 4a ae a0 3d cc bc cc bd c5 b5 84 3b f5 64 77 3d
       0.07845743 -0.09996948 0.004049989 0.060399015
000040 d5 da 37 b9 ae db dc bb 90 58 d1 ba 02 1c a9 37
       -0.00017533761 -0.006740055 -0.0015971828 2.0159412e-05
000050 90 1e c3 3c 54 a3 d9 3d 01 db ff 3d 48 11 9d b7
       0.023818284 0.106268555 0.124929436 -1.8723906e-05
000060 c4 93 69 ba fb c3 f8 38 a6 02 cf 38 53 b1 dd be
       -0.00089102634 0.00011862066 9.8710225e-05 -0.4329935
000070 ee 9b 23 b9 06 b4 28 39 e2 e8 30 bc c7 2b 63 bd
       -0.0001560298 0.00016088792 -0.010797711 -0.05546167
000080 9a 44 4a bc 7e 46 14 3a 77 1b b1 bd b5 2f 1f 38
       -0.012345457 0.0005656256 -0.08647817 3.7952985e-05
000090 10 74 28 3d 22 02 26 3d 0b a4 ac bc d1 be f6 37
       0.04112631 0.040529378 -0.021074316 2.9414341e-05
0000a0 cb 8a c5 bc a2 f8 5a bc 04 26 2a bd 9e c3 99 3b
       -0.024114033 -0.013364943 -0.04154016 0.004692509
0000b0 6d 41 a8 b9 b6 fb 0b bc 9d 2e 15 b8 67 6a 4d bd
       -0.00032092203 -0.008543899 -3.556778e-05 -0.0501503
0000c0 4b 01 c3 37 d3 20 70 bc 4f 00 0f 39 74 1f d0 3c
       2.3246414e-05 -0.014656263 0.00013637658 0.025405623
0000d0 25 d2 87 3a 86 55 db 3c cb 11 48 3e 88 33 24 bc
       0.001036231 0.02677418 0.19538037 -0.010022052
0000e0 a4 e8 1c 3d ed 30 3b bc ca 8d 25 bc 7c bd 0e 38
       0.0383078 -0.011425239 -0.010104606 3.403191e-05
0000f0 bc 97 0b 3d 92 d6 43 b9 d6 98 2c ba 83 c1 4e 38
       0.034080252 -0.00018676583 -0.00065840536 4.929445e-05
000100 61 d0 a9 bb 9f 2b 61 3d 9e e8 85 3d 37 14 f0 bc
       -0.0051823114 0.05497324 0.06538509 -0.029306514
000110 73 41 c6 3d e6 6a a2 bc 79 5e b8 bc 0e 73 fe 38
       0.09680452 -0.019826364 -0.022505986 0.000121330944
000120 ec a6 05 ba 2c ec 09 3e b8 b8 52 39 fb de 55 bc
       -0.00050984207 0.13468999 0.00020095974 -0.013053651
000130 1c a7 1c 3b 8b 3d 96 be b5 b9 32 3b e8 e2 93 b8
       0.0023903316 -0.2934383 0.0027271335 -7.051771e-05
000140 68 60 51 ba bc 2c 9d 3b 23 50 21 3c f1 38 d9 38
       -0.0007987083 0.0047965925 0.009845766 0.000103579725
000150 8a fb 4f be 77 e6 90 bd 88 03 60 3a 5b 43 cd 38
       -0.20310798 -0.07075208 0.0008545448 9.787708e-05
000160 4e 09 8b b6 e3 fb a4 bd 6c fa 64 3d b9 f5 77 3c
       -4.143606e-06 -0.08055856 0.055902883 0.015134268
000170 f1 df 41 3d 39 67 89 3a df 29 03 38 8e ba 74 3d
       0.047332708 0.0010483033 3.127183e-05 0.059748225
000180 7a e2 b5 3c de e1 87 bd b0 ee d9 bb 1f 5f 6d 39
       0.022202719 -0.066348776 -0.006650768 0.00022637517
000190 a1 64 19 39 af db 5f 3d da 13 83 ba 38 e7 fe bc
       0.00014628704 0.054652866 -0.0010000423 -0.031116113
0001a0 86 85 73 be 05 27 9d be fc aa ae bc 43 85 d0 38
       -0.23781404 -0.30693832 -0.021321766 9.943035e-05
0001b0 54 cd 8c 3d de d5 00 be 6b 8a 24 3e 61 bf 01 3d
       0.06875101 -0.12581584 0.16068427 0.031676654
0001c0 77 0f 05 bc 31 56 8f be 51 bc 8b b9 ec a1 03 38
       -0.008121363 -0.27995446 -0.00026652453 3.1383635e-05
0001d0 ba 66 c9 3a 5c 7c 0f bd c9 09 79 3d 3b 51 0d bd
       0.0015365698 -0.035030708 0.060800347 -0.034501296
0001e0 8b 0e 71 38 43 ab 4d 3c cd 41 37 3c 14 e3 05 b8
       5.747242e-05 0.012553039 0.011185122 -3.1921154e-05
0001f0 61 92 20 b9 68 d9 29 3b a5 18 f8 bb ee eb 53 3d
       -0.0001531332 0.0025916938 -0.007571297 0.051738672
000200 d6 ae 06 3d b6 81 11 3e 50 3b b3 3c 47 f4 21 39
       0.03288158 0.14209637 0.021878868 0.00015445157
000210 15 b3 a9 38 5d 89 f1 b8 ac 25 e5 38 49 6d dc bb
       8.0919046e-05 -0.000115173614 0.00010926588 -0.006726895
000220 1c 08 17 bb c8 f7 02 39 a2 a2 7a bd 36 88 45 3d
       -0.0023045605 0.00012490072 -0.061190255 0.048225604
000230 d3 a4 d4 3d 98 e4 03 3b f9 71 9f 3e f8 88 14 39
       0.10383 0.0020125266 0.31141642 0.00014165405
000240 3f a8 e2 bb 10 fd 4e 3d e7 87 59 3a 2b 33 80 be
       -0.006917029 0.050534308 0.0008298144 -0.25039038
000250 68 c7 2f 39 c9 75 8a 38 bf 35 0c 39 b3 92 3b 38
       0.00016763585 6.602292e-05 0.00013371462 4.47209e-05
000260 59 0a 74 bd 5e bf cd b8 73 1f 9a 3d e4 d9 c4 bd
       -0.05958018 -9.810807e-05 0.0752553 -0.09611872
000270 55 4b 0b 3e ca a3 ad ba a8 46 b5 3d 35 b2 97 bc
       0.13602956 -0.0013247665 0.08851367 -0.018517593
000280 cb 24 2c bc 90 9c b3 bd b0 ce 3d 3e 2a 7f 41 b7
       -0.010506819 -0.08770096 0.18535876 -1.1533304e-05
000290 ec d6 c1 38 28 ad 16 bb 54 8b b1 be 67 09 e8 3a
       9.2429895e-05 -0.0022991393 -0.3467661 0.0017702997
0002a0 42 01 8a bb 0e 4b 29 ba 45 e1 7e 3c e7 b0 e0 b7
       -0.0042115757 -0.00064580224 0.015556638 -2.6785257e-05
0002b0 02 12 38 3a f9 0a 92 be c8 1d fb 3e 7e 7c c9 b7
       0.00070217263 -0.28523996 0.4904616 -2.4019038e-05
0002c0 91 d7 e0 b7 8e 17 85 be 34 4b 3a bd 37 38 d8 37
       -2.6803262e-05 -0.25994533 -0.045481876 2.5775384e-05
0002d0 ba 0a cd bb 2e 62 ac 3b 19 17 19 b9 d7 5c 4f ba
       -0.006257382 0.0052607274 -0.00014599822 -0.00079102576
0002e0 4c 1f bd bc 44 4e aa bd 62 0b 26 3c 65 4c a6 b8
       -0.023086213 -0.08315709 0.01013455 -7.9297264e-05
0002f0 7b 21 d9 bc f5 f5 0b 3d 2a 4c 74 bd 32 6f 6d 3d
       -0.026505223 0.03417011 -0.05964295 0.057967372
000300 eb 82 21 3a 01 d6 71 bc 0e 67 5a b9 cf ca c4 3a
       0.0006161171 -0.014760495 -0.00020828491 0.0015014055
000310 8f ba c2 bd b4 e6 02 bd ca 38 91 3a 8d bc b6 3b
       -0.095082395 -0.031958297 0.0011079547 0.005576676
000320 a4 ee 4f 3a f8 dd 77 3b f3 a1 cf 3d e3 82 53 38
       0.00079319836 0.0037821513 0.10138311 5.0428218e-05
000330 1b d0 5a b9 f0 45 00 ba 81 f9 4c bc 8e f9 86 3a
       -0.00020867625 -0.0004893234 -0.012510658 0.0010297762
000340 ad f5 18 3c ad fb 00 3e 79 e4 b3 3c e2 ce d5 bb
       0.009335917 0.12596007 0.02195953 -0.0065249065
000350 43 ca 0b bd 51 c6 10 38 89 59 66 b8 ae 2d 09 39
       -0.03412844 3.4516972e-05 -5.491966e-05 0.00013082355
000360 b5 5d 67 ba 8b 3c 9e b7 b3 27 1c 3c 5f 74 48 39
       -0.0008825914 -1.886326e-05 0.009530949 0.00019116838
000370 e8 87 03 bc 41 1a 82 bb 40 50 0b bc 09 81 df 3c
       -0.008028008 -0.003970415 -0.00850302 0.027283208
000380 a5 15 97 bd 0e 0b 8c 38 44 7c d0 3d f3 b5 c0 38
       -0.07377175 6.677779e-05 0.10179952 9.189164e-05
000390 b7 03 42 3c c5 84 85 3d 1c 20 71 ba fe b3 f2 bc
       0.011841706 0.065194644 -0.0009198205 -0.029626843
0003a0 94 1b 51 b9 6b 32 0c 39 e2 b6 b2 b8 47 9e fe b7
       -0.00019942067 0.00013370223 -8.521766e-05 -3.0352863e-05
0003b0 ff ee c3 bd f9 da 06 bc 4b 8d 55 3c cc 1a 38 3a
       -0.09567069 -0.008230918 0.013034175 0.0007023036
0003c0 a3 7c 36 38 b0 5f 1c 3b 5b a2 e9 3b 19 c4 44 39
       4.350826e-05 0.0023860745 0.00712995 0.00018765069
0003d0 6a 78 47 3d 1c df 82 3d 32 6d 83 be 2b 51 00 be
       0.04869882 0.06390211 -0.25669247 -0.12530963
0003e0 2e a4 22 39 7f 29 06 bb 24 82 d1 b7 bb cd d4 3e
       0.00015510686 -0.002047151 -2.4975343e-05 0.4156321
0003f0 01 12 1c 3d 3a e4 d1 bd b8 5b 56 ba 3a 0c 16 3e
       0.038103107 -0.10248609 -0.00081771193 0.14653102

acceleration.weight f4 [1, 600]
000000 e4 c7 46 3f 03 d7 90 be 93 e0 e8 bb 7a 5a 35 3e
       0.7764876 -0.2828904 -0.0071068495 0.17710295
000010 b2 7c 32 3f 9f 28 32 3a ff 9d ef 38 70 dd 5a 3f
       0.6972152 0.0006796214 0.00011425837 0.85494137
000020 49 1d ce 3a ff 52 87 3d 6c cf 12 be d4 6f d7 3e
       0.001572528 0.06607627 -0.14336938 0.42077506
000030 84 cc a0 3d 45 96 30 ba 0f 1a 7b 3e 34 82 9e be
       0.07851508 -0.0006736259 0.2452166 -0.30958712
000040 1c f3 f7 b7 e6 19 90 3e 30 14 10 bc 7c 1a 54 38
       -2.9557901e-05 0.2814476 -0.008793876 5.0569404e-05
000050 e1 db ce be 2c 27 69 bb 96 77 6a bd 55 c7 8a b8
       -0.4040213 -0.0035576327 -0.057242952 -6.617481e-05
000060 e9 f9 4e 3a b2 c5 eb 38 0f 40 05 bc 8a b9 72 bd
       0.0007895516 0.00011242497 -0.008132949 -0.059258975
000070 a3 e4 04 37 88 f9 81 b8 2f e6 bb 3e e2 46 e5 3e
       7.921047e-06 -6.197678e-05 0.36699054 0.44780642
000080 a4 c2 e2 be e8 6a 86 3a d5 ba a7 3e 1c f7 92 b9
       -0.44289124 0.0010255249 0.3275973 -0.000280314
000090 fa a7 08 bf 22 b2 a6 be ef 74 9d 3e b4 af 39 39
       -0.5338131 -0.3255778 0.30753276 0.0001770843
0000a0 49 4e 08 3e a7 4f b9 be 64 26 81 3e cd 92 59 3e
       0.13311113 -0.36193582 0.25224602 0.21247406
0000b0 47 01 98 3e 35 a4 2e 3d 6a 45 ea b8 09 ef df bc
       0.29688475 0.04263707 -0.00011170919 -0.02733566
0000c0 9d db e7 b8 cd 40 91 3e b0 86 4b ba 22 0b cf 3e
       -0.000110558445 0.28369752 -0.00077639055 0.4043818
0000d0 7f f5 18 ba ef b8 b2 be 7b 33 82 3e 0b 19 6a 3e
       -0.00058349216 -0.34906718 0.254299 0.22861116
0000e0 86 a0 3d 3e 75 6f 9f 3e 7d fd 71 be de 85 9d b8
       0.18518266 0.31139722 -0.23631854 -7.511278e-05
0000f0 f5 36 49 3e 4b da 21 3b e9 cb b2 39 4f 97 cd 38
       0.1964987 0.0024696763 0.0003410273 9.803345e-05
000100 ad 57 fe 3e 6d 27 85 be 51 07 16 3f 28 75 0a 3e
       0.49676266 -0.26006642 0.58604914 0.13521254
000110 45 fe b5 bd 18 15 d2 be 60 68 13 3f 2b d7 b7 b8
       -0.08886389 -0.41031718 0.5758114 -8.766198e-05
000120 9d 5d 93 39 6d be 6b 3d 77 ae 21 39 58 88 ca 3d
       0.00028107772 0.05755465 0.0001541915 0.09889287
000130 82 ad 22 3d 1b 07 4c 3e 74 c3 57 3d d7 43 04 b9
       0.03971625 0.19924586 0.052676633 -0.00012613773
000140 c4 21 b7 39 7b ec 0c 3c 4a b3 85 be 83 f9 d0 38
       0.00034929637 0.008601303 -0.2611335 9.964688e-05
000150 db 68 6f 3e 86 6c 03 3f 39 84 9a 3b 91 6d 9c 3e
       0.23379843 0.5133747 0.004715469 0.30552343
000160 d3 21 f9 37 9d 70 48 bf 5e 1d c3 be a1 ad a7 be
       2.9698864e-05 -0.78296834 -0.38108343 -0.32749656
000170 4f 4f 38 be e8 66 1f bc c4 4a e0 b8 7b 7d ba be
       -0.17999004 -0.009729125 -0.000106950785 -0.3642386
000180 f0 eb 96 be e1 81 d5 3e 69 34 ec bd 83 f9 bb 38
       -0.2947688 0.41700652 -0.11533434 8.96333e-05
000190 33 72 2e b7 34 3c 85 bd cd 19 b2 3e 7d 08 05 bf
       -1.0397797e-05 -0.065056235 0.3478531 -0.5196608
0001a0 54 fd 0c 3f 08 c9 3a 3e bc af 1f 3f 67 87 be 38
       0.5507405 0.1824075 0.62377524 9.085127e-05
0001b0 19 04 22 bf 12 ec ee be 22 0b 66 be 2d 1d be be
       -0.632875 -0.46664482 -0.22465184 -0.37131634
0001c0 fa 40 2c be e6 b9 25 3c 65 c7 a4 ba 5c 53 b3 38
       -0.16821662 0.010115122 -0.0012571631 8.550912e-05
0001d0 21 eb 84 3e 29 8d ec be c1 66 97 3e cb ec 40 bf
       0.2596064 -0.46201447 0.29570583 -0.7536132
0001e0 1e fd 4e b8 35 88 75 3d c2 26 c1 be bf bb 92 b8
       -4.934996e-05 0.05994435 -0.37724882 -6.996793e-05
0001f0 f0 92 ef b8 ab c9 93 bb e3 a2 bd be 09 f6 55 3e
       -0.00011423777 -0.0045101247 -0.37038335 0.20894636
000200 89 f9 43 3d 24 9d fc bd 39 28 bf be bf 98 5b b9
       0.047845397 -0.1233466 -0.37335375 -0.0002094237
000210 74 84 eb 37 56 e2 22 39 ac 9e 98 3b 71 a7 cc bb
       2.8075861e-05 0.0001553384 0.004657587 -0.0062455465
000220 b5 09 88 3d 3d d7 32 b9 5a a8 73 3e 55 e2 98 3d
       0.066424765 -0.00017055585 0.2379469 0.074650444
000230 2a 26 e9 3e 70 36 d9 bb 0a 48 1f be 0f 41 51 39
       0.4553693 -0.006628804 -0.15554824 0.0001995603
000240 1f 66 03 3e 0b 19 62 3e cf cb e7 39 30 40 67 3e
       0.12831925 0.22079866 0.00044211603 0.2258308
000250 3b 17 00 b8 e1 92 18 b9 54 42 a8 b5 4b 60 22 37
       -3.0539213e-05 -0.00014550566 -1.2536279e-06 9.678372e-06
000260 0c 92 74 be d5 61 27 b5 05 3e 03 3f 02 02 69 3e
       -0.23883837 -6.235471e-07 0.5126651 0.22754672
000270 2f d3 bf 3e 71 4e a0 bb dc 89 ca bd 18 9b b2 3d
       0.37465808 -0.0048921634 -0.09889576 0.08720988
000280 3e e3 23 bf fd b6 5e 3e 4e 33 ba be d4 ad 0b b9
       -0.6401862 0.21749492 -0.36367267 -0.00013320829
000290 d0 b1 23 38 9e b6 9a bc 7c 6d 66 bf 80 68 10 be
       3.902783e-05 -0.018885907 -0.9001081 -0.14102364
0002a0 a2 6e 6f 3e 3b 61 82 ba 29 65 a0 be df 7e 62 b8
       0.23382047 -0.000994719 -0.3132718 -5.4000757e-05
0002b0 6f f7 4e 38 62 a9 4f 3e 65 77 da 3e 2e 80 c6 3e
       4.9344668e-05 0.20279458 0.42669216 0.38769668
0002c0 20 1f d6 b5 a8 a4 62 3e e2 b7 cd be 36 9f bd b8
       -1.5953301e-06 0.22133124 -0.40179354 -9.041878e-05
0002d0 cb 0c 41 3e 37 a5 85 3d 82 06 a2 b7 10 45 26 ba
       0.18852536 0.06525653 -1.9314935e-05 -0.00063426886
0002e0 01 7e 5a 3e c8 b9 e6 3d 6e ad a2 3e cb 89 22 b8
       0.21337129 0.11265904 0.3177294 -3.875214e-05
0002f0 48 1b a4 3e ba 8b b2 be 2a c3 bf bc e8 72 7b be
       0.32052064 -0.34872228 -0.023408491 -0.24555552
000300 20 38 35 3d 2d 70 71 be 8a 4b 7c 37 54 d0 6e 3a
       0.044242978 -0.23577948 1.5037958e-05 0.0009110023
000310 d7 04 88 3e c0 49 42 bf 38 50 fb b9 b7 57 8a 3d
       0.26566193 -0.75893784 -0.00047934218 0.067550115
000320 f8 bf 0d 3e ea 4c 05 3c d3 6a 78 3d e9 8f a7 b8
       0.13842762 0.0081360135 0.06064875 -7.989986e-05
000330 75 7f 33 38 3d c1 9d bc cc 8f 44 bf e6 5c 08 ba
       4.279563e-05 -0.019257182 -0.76781917 -0.0005201831
000340 2c 33 b8 3e a3 ed b0 be 97 8e c6 3e 31 4a 81 3e
       0.3597654 -0.34556302 0.38780662 0.25251916
000350 9f 70 9b bd f2 38 65 38 23 3f fc 38 1a b5 b6 38
       -0.0758984 5.465089e-05 0.000120280565 8.712169e-05
000360 1f ee 20 bc 1b c4 b3 b8 de 44 ae 3f cf e8 17 b9
       -0.0098223975 -8.5719126e-05 1.3614767 -0.0001448721
000370 3c 33 d5 be 14 9a 9c bb b3 f9 78 3e 8f 5f 5b 3f
       -0.4164065 -0.0047791097 0.24314003 0.85692686
000380 ba 48 ac 3e 57 09 9a 38 0f 96 7f 3f 26 43 d5 b5
       0.33649236 7.345032e-05 0.99838346 -1.588928e-06
000390 b7 f8 ac 3d 7c 5a 7d bd 02 b0 21 3a 01 97 20 3f
       0.08445876 -0.06185387 0.000616789 0.62730414
0003a0 6c ad 99 b8 24 2a 09 39 59 98 43 b9 5b 42 49 b8
       -7.327911e-05 0.00013081037 -0.00018653403 -4.7983933e-05
0003b0 ec 7f b2 be ec a1 87 3e 16 8e 42 3f e9 4c 56 b8
       -0.34863222 0.26490724 0.75998056 -5.1093204e-05
0003c0 5c 7f 38 b7 00 67 86 3f 97 41 56 be 5f fe 30 b8
       -1.0996908e-05 1.0500183 -0.20923458 -4.219857e-05
0003d0 6a 49 b0 be e4 ef 1a 3f bb 4c 5f 3e ad a9 33 3e
       -0.3443101 0.60522294 0.21806614 0.17545195
0003e0 af a6 30 39 93 23 7c bb 1c ce 27 3d ec ca 83 be
       0.00016846762 -0.0038473352 0.040968046 -0.25740755
0003f0 80 7a cf 3e ba b5 c0 3e b3 37 21 3a 94 0e c9 bd
       0.40523148 0.37638646 0.00061499624 -0.09817234
