Deterministic-GAIL/weights/GAIL-100_discriminator.pth (torch_old, 765501 bytes, 5 tensors)

fc1.weight f4 [300, 32]
000000 7a 3a b1 be a3 0e 33 bd 50 39 30 be 30 16 c6 3d
       -0.34614927 -0.04371513 -0.17209363 0.09672201
000010 a9 a1 1b 3c 61 d0 9d bc e8 4b 43 bc 0b 24 96 bc
       0.009498992 -0.019264402 -0.011919953 -0.018327734
000020 42 16 0b bc b2 c5 87 3c 3e 22 06 3d 91 6a d7 3c
       -0.008489193 0.01657376 0.0327475 0.026295932
000030 16 90 c0 3c b5 0c d0 3c 35 0e ee 3c 8d 13 f1 3c
       0.023506206 0.025396684 0.029059509 0.029428268
000040 d4 38 16 bc c7 85 b9 bb 3b b3 fc bb 1e 50 b8 3d
       -0.009168822 -0.0056616995 -0.0077117956 0.08999656
000050 2b 52 7e 3d ab 40 47 bd 1a d2 43 bf 4e 1f 26 bf
       0.06209008 -0.048645657 -0.76492465 -0.6489152
000060 3d 6a 45 bc 0e c1 05 bd 07 94 36 bd 60 02 55 bd
       -0.012049255 -0.032654814 -0.044574764 -0.052004218
000070 13 bc f4 3b 30 af ab 3c f1 5c 3a bb e7 b8 f7 3c
       0.0074687093 0.02095756 -0.0028436745 0.030239535
000080 f9 46 f6 3d 4d 6d 41 3e 35 5d 7e 3e fb 33 ef 3e
       0.12025256 0.18889351 0.24840243 0.46719345
000090 88 87 a6 3e c5 fb 27 3e 1b f3 f8 3d 3a 20 f3 3d
       0.32525277 0.16404636 0.12155744 0.11871381
0000a0 2a 2e 03 3e 7c 00 e4 3d d0 67 d2 3d 21 53 c8 3d
       0.12810579 0.11132905 0.10273707 0.097814806
0000b0 fb 72 c8 3d 2a b0 d7 3d 77 24 e0 3d 26 29 b6 3d
       0.09787556 0.105316475 0.10944455 0.08894567
0000c0 96 c3 22 3e 47 ec 6b 3d 73 d3 8e 3c 54 70 81 3d
       0.15894923 0.05759838 0.017434811 0.06320253
0000d0 8e 2c b0 bd c6 15 fb 3d 99 99 7b be e6 10 e7 be
       -0.08602248 0.12260012 -0.24570312 -0.4513008
0000e0 be 24 1d 3e 66 cf 03 3e e8 30 0a 3e da 83 f0 3d
       0.15346047 0.12872085 0.13495219 0.11743899
0000f0 ca ee c6 3d 5c 63 9a 3c 29 9f 0b 3e 05 35 81 be
       0.09713514 0.018846206 0.13634934 -0.25235763
000100 7d 75 65 be 89 5d 12 be db ca 34 be c4 03 19 be
       -0.224081 -0.14293493 -0.17655508 -0.14942843
000110 2d a4 a7 bd 6f 27 34 bd 70 ab d8 bc b1 21 a7 3b
       -0.08185611 -0.04398292 -0.026448935 0.005100452
000120 18 e3 a3 3c aa ed 3a 3c d2 ec 89 3b b2 0e ca b9
       0.020005748 0.011409203 0.0042091394 -0.0003853939
000130 53 a8 e1 ba 96 a6 0b bc d5 d6 24 bd f3 5a a0 bd
       -0.0017216302 -0.008523604 -0.040243942 -0.07829847
000140 40 39 44 be 41 27 5d be 5d a4 9f bd d4 e3 12 3d
       -0.19162464 -0.21597005 -0.07795022 0.035861805
000150 ba b3 2c 3e 3f f6 3f 3d 07 ab c8 3c af 08 05 3e
       0.16865435 0.046865698 0.024495615 0.12991594
000160 1b fb cc 3b 1d eb 45 bb 85 9a 14 3d ea 97 eb 3c
       0.00625552 -0.0030199953 0.036280174 0.028758962
000170 a2 36 59 bd d6 e4 3c 3b 3b 48 5d bc cd c4 1f bc
       -0.053030618 0.002882292 -0.013505991 -0.009751511
000180 03 4c b5 be f7 c3 0c be 6c a8 89 3d b8 b4 28 3e
       -0.35409555 -0.1374663 0.06721577 0.16475189
000190 95 b0 f3 bc 5a 17 9d 3d 1d 24 2d 3d 0d 42 1d 3d
       -0.029747287 0.076704696 0.04227077 0.03839307
0001a0 14 2d 83 3c 42 21 61 3c 9a 25 07 3c 02 e3 44 3b
       0.016012706 0.013740839 0.008248711 0.0030042534
0001b0 d0 aa 10 3c 05 82 38 3b 33 40 14 3b db 88 ec 3c
       0.008829787 0.002815367 0.0022621274 0.028873852
0001c0 92 64 5f 3b b0 ce 69 bd d0 d2 eb 3d ed 1c 68 3e
       0.0034087044 -0.05708188 0.11514819 0.22667284
0001d0 00 8e 8e ba 4e ee 34 3d 94 23 0b bc 95 b5 db 3d
       -0.001087606 0.044172578 -0.008492369 0.107279934
0001e0 f0 d4 8b 3c 54 fe b6 3c 62 e6 12 3d 01 f1 43 3d
       0.01706931 0.02233807 0.03586424 0.04783726
0001f0 f3 9d 1e 3d 78 4a 3d bc 19 84 09 3d 96 04 d9 3c
       0.03872485 -0.011553399 0.033573244 0.026491445
000200 16 1d fc 3e 45 a8 23 3e 58 f0 58 bd 22 f9 1b be
       0.4924094 0.15982158 -0.052963585 -0.15231755
000210 d9 b4 d5 bc 0b 95 e6 bd ff fb 9a bd 38 47 90 bd
       -0.026087211 -0.112588964 -0.07567596 -0.07044834
000220 05 9c 1e bd fb ca f3 bc 29 24 d1 bc f8 37 93 bc
       -0.03872301 -0.029759875 -0.025529938 -0.017971024
000230 29 32 a0 bc 63 bb 16 bc 6f 46 18 bc a0 83 fe bc
       -0.019555168 -0.00919995 -0.009294136 -0.031068623
000240 34 02 3a 3d dd 3d c0 3d 7c a2 34 bd 1f 61 47 be
       0.045412257 0.093867995 -0.04410027 -0.19470643
000250 53 bc 42 3c 47 e6 ac bd 8b e6 cc bd 4d 33 cb bd
       0.01188572 -0.084423594 -0.1000491 -0.09921894
000260 f8 b8 4e bd c3 5b 3e bd cc 2e a6 bd 75 b3 ae bd
       -0.05046937 -0.04647423 -0.081143945 -0.085303225
000270 82 b8 16 bd 15 a8 df 3c ca 46 5d bd 34 5d 9c bd
       -0.036797054 0.027301827 -0.054022588 -0.076349646
000280 d5 a5 30 be 46 83 2b bd 89 c6 65 3e 62 5a 81 3d
       -0.1725076 -0.04187324 0.22439016 0.06316067
000290 be 5f f4 3c bd 29 01 3e ea 75 cb 3d d8 7f d0 3d
       0.02983081 0.12613578 0.099346 0.10180634
0002a0 93 6e b1 3d 33 03 7f 3d 1d 8f 46 3d 95 c7 35 3d
       0.086636685 0.06225891 0.048476327 0.04437979
0002b0 d3 a9 55 3d 83 2f 7e 3d e7 ec 7e 3d 41 8d cd 3d
       0.05216391 0.06205703 0.062237646 0.10036708
0002c0 15 68 13 3e a8 0b ec 3d 2a a5 ae 3d f0 0b 2a 3e
       0.14395173 0.11525661 0.08527596 0.16606116
0002d0 34 64 cd 3c e9 eb 0e 3e b9 e4 16 3e ba 40 26 3f
       0.025072195 0.1395718 0.14735688 0.64942515
0002e0 74 7c e7 3d 93 4a e6 3d 9d b5 17 3e 92 b1 12 3e
       0.113030344 0.11244693 0.14815374 0.1432555
0002f0 c4 ca a8 3d a7 82 27 bd 5b 35 0e 3e 6c 81 cf 3c
       0.082417995 -0.040896084 0.13887541 0.025330268
000300 16 57 c7 bd 7f 02 e7 bd 41 c7 90 be c4 b5 3f be
       -0.09733407 -0.11279773 -0.2827702 -0.18721682
000310 3a 5b 1b be c3 f2 d5 bd f4 90 b9 bd 23 28 37 bd
       -0.15171519 -0.10446694 -0.09060851 -0.04471601
000320 4c cb 26 bd 0f 8e 7b bd 2a 01 99 bd 58 95 a2 bd
       -0.040721223 -0.061414775 -0.07470925 -0.07938641
000330 14 06 a3 bd d4 f3 bb bd cb 04 f7 bd 91 20 15 be
       -0.07960144 -0.09177366 -0.12061461 -0.14563204
000340 44 e2 1f be dd 9d 12 be dc d5 b7 bc 73 71 a9 3a
       -0.15613657 -0.14318033 -0.022440843 0.0012927487
000350 62 1e 7c 3d e9 4e 69 bb 3c eb c8 bd d0 8d d9 bc
       0.061552413 -0.0035600013 -0.098104924 -0.02655688
000360 07 db 25 bd 31 8c 21 bd 98 c3 8d bc 67 55 0d bc
       -0.040492084 -0.039440338 -0.01730518 -0.008626319
000370 73 3e 42 bd c5 1a 52 3d 42 22 ed 3b 5e 81 65 bc
       -0.047422837 0.05129506 0.00723675 -0.014007894
000380 22 09 0b be e6 52 0d be 47 bd a5 be f1 54 43 be
       -0.13577703 -0.13801154 -0.3237097 -0.19075371
000390 04 4a 21 be 75 ee d5 bd f4 f2 b8 bd ae a3 30 bd
       -0.15750891 -0.10445873 -0.09030715 -0.043124847
0003a0 4c f3 1c bd 91 13 6b bd 74 b5 8d bd 61 39 97 bd
       -0.038317963 -0.057391707 -0.06919375 -0.07383991
0003b0 1b 73 94 bd 1d f0 aa bd 05 60 e7 bd 75 89 0d be
       -0.07248517 -0.08346579 -0.11297611 -0.13821967
0003c0 8c 98 23 be 95 4d 30 be eb 25 8c bd d6 e1 e1 3c
       -0.15976161 -0.17217095 -0.0684317 0.027573507
0003d0 70 96 c0 3d ac b5 0f bb 31 f2 70 be 73 56 7e bd
       0.09403694 -0.0021928353 -0.23529889 -0.062094163
0003e0 a0 fa 1e bd 05 58 20 bd 2f 0e 8b bc bc b8 05 bc
       -0.038813233 -0.039146442 -0.016974537 -0.00816172
0003f0 66 26 54 bd b3 9c 2c 3d 9a 8e 0f 3c 22 d6 15 3c
       -0.051794432 0.042141628 0.008762026 0.0091452915

fc1.bias f4 [300]
000000 38 97 39 bd f6 dc 75 3d c9 1e e1 bc f1 e5 8b 3d
       -0.04531023 0.060025178 -0.0274805 0.06830967
000010 78 91 37 bd 10 f8 b4 3d 2e 4b 52 bb 16 7e ff bb
       -0.044816464 0.08836377 -0.0032088268 -0.007797013
000020 57 db d3 bb a5 31 41 3c 37 a6 45 3d dd 0e 99 3d
       -0.0064653563 0.011791621 0.048254218 0.07473538
000030 c3 08 b6 3d 8b 0e 51 3d cb fc 7c 3d e9 e6 87 bd
       0.0888839 0.05103926 0.06176452 -0.066358395
000040 ce bf 70 3d 66 00 2e 3c f6 08 4a bd 86 f9 92 bc
       0.05877667 0.010620212 -0.049324952 -0.017941248
000050 d8 ec 4e bd 27 6a 0f 3b ee 02 58 bb 6f 61 dd 3d
       -0.05051884 0.002188334 -0.003296073 0.108095996
000060 01 31 b7 bc f3 dc d2 bc a5 13 7c bc 9b c3 b2 3b
       -0.022362234 -0.025740122 -0.015385543 0.005455447
000070 05 45 6e bd 54 11 a8 bc 0f 64 4b 3c 47 64 9c bd
       -0.05817129 -0.020516075 0.012413993 -0.07636314
000080 72 12 1b bd c6 e4 66 3d 0a 61 e2 bc 77 d2 2b 3c
       -0.037859388 0.05637052 -0.027634162 0.01048719
000090 90 cc fe 3d 4c 9a 53 bd ca 93 f7 bd 3c 26 9f bd
       0.12441361 -0.05166082 -0.120887354 -0.077709645
0000a0 40 7e a2 3d 71 21 f6 3b 33 6b 5f 3d 27 16 d9 3d
       0.079342365 0.0075113107 0.054545593 0.10599928
0000b0 6f 95 87 3c bc 51 a7 bd 13 5a 1f 3d 75 79 f3 bb
       0.016550748 -0.081698865 0.03890426 -0.0074302503
0000c0 99 b8 33 bd b2 30 a8 bc 7f 06 17 3b 77 65 21 3d
       -0.043877218 -0.020531032 0.0023044643 0.039403405
0000d0 67 67 25 bd 4c 66 10 bd 60 81 37 bd e3 e4 ea bd
       -0.040381815 -0.035253808 -0.044801116 -0.11469438
0000e0 8a 34 c5 3c 61 ff a0 3b 8f 87 57 3d e4 6e ff 3d
       0.024072904 0.004913256 0.052619513 0.124723226
0000f0 46 9c 57 bd 81 ae 3a 3d ea 9d f0 3b fb c8 6b 3d
       -0.05263927 0.045576576 0.0073430436 0.057564717
000100 20 ff 76 3d 74 ed cf bc 33 0c 02 bd b8 25 c6 3d
       0.0603019 -0.025381781 -0.031749915 0.09675163
000110 e2 98 d8 3d 28 9c a7 3c 08 c2 d7 3c 9d 9f cc bd
       0.10576035 0.020460203 0.026337638 -0.09991381
000120 fa d4 c0 bb 47 47 bb 3d 64 0e 2f 3d 43 92 33 3b
       -0.005884764 0.091444544 0.042738333 0.0027400411
000130 3b 76 ef bd 5f f9 b3 bd 3d f1 e2 3d 33 d5 41 bd
       -0.116924725 -0.08787798 0.11081169 -0.047322463
000140 8b bf 84 3c 5d 9e bb 3d 2a 62 a5 bc ff f3 6d 3d
       0.016204616 0.09161065 -0.02018841 0.05809402
000150 70 0a 26 bd eb 35 79 bd 7e e2 c2 bd ae 89 6d bd
       -0.040537298 -0.060842436 -0.09515856 -0.05799263
000160 95 ad 4a bd 4a aa 80 bd 4e 1a 20 bd c5 59 70 bd
       -0.049481947 -0.0628248 -0.039087586 -0.05867936
000170 4d 00 a2 bc 17 43 e3 bd b9 42 4c bc 96 f3 8f 3d
       -0.019775534 -0.11096781 -0.01246708 0.07028882
000180 5a 5a c4 bd 7c b1 59 3d 78 8f 08 be 83 a9 fb b9
       -0.09587546 0.053147778 -0.13335979 -0.00048000747
000190 9c 9c d7 39 09 8b 38 3a 71 4d c3 3d 4e d2 96 bd
       0.0004112468 0.0007039761 0.09536255 -0.07364331
0001a0 43 93 75 bd ea a2 35 3d 6f bf d5 bc e1 e8 28 3d
       -0.059954893 0.04434482 -0.02609226 0.041237716
0001b0 a7 c5 fe bb f1 8f 78 3d 84 a1 5c bc 92 6d 5d 3d
       -0.007775027 0.06068415 -0.013466243 0.054059573
0001c0 07 8b 4e bd 18 bd 80 3d cb db fa bc 2c b3 3a bd
       -0.050425556 0.06286067 -0.030622384 -0.045581028
0001d0 59 1e 3c bc af 6f 88 bc b7 e5 c8 3c f1 65 30 3d
       -0.011481845 -0.016654817 0.0245236 0.04306597
0001e0 a3 f3 01 bd e3 4d 72 3b b5 d9 10 3b 98 af e4 3c
       -0.03172649 0.0036972694 0.002210242 0.02791576
0001f0 f1 8d c1 3b b2 36 54 bd 25 2c 67 3d 27 1c d0 bd
       0.0059068133 -0.051809974 0.056438584 -0.1016162
000200 93 77 d6 3d ae b3 3c 3d 9a 27 d3 3d 21 f5 9b bd
       0.10472026 0.046069793 0.10310288 -0.07615114
000210 c3 63 79 3d 47 c8 97 bd c8 d0 c5 3c c3 74 90 3c
       0.060886156 -0.07411247 0.024147406 0.017633801
000220 65 78 1f bd 54 fb af 3d 88 23 33 3c 73 b8 76 3d
       -0.038933177 0.08592859 0.010933764 0.0602345
000230 97 af fc 3d 9e 31 9e 3d e2 a2 3f bd c4 5c cb bd
       0.123381786 0.077243075 -0.046786197 -0.09929803
000240 59 0f 3e 3c 9f 68 04 3e ab 4d 81 bd 8a db a2 3d
       0.011600339 0.12930535 -0.06313642 0.0795203
000250 94 82 97 bb 03 47 28 3c cd 76 9c 3c 81 be b6 3d
       -0.0046237204 0.010270837 0.019099617 0.089230545
000260 c3 3c 93 3b 77 2c 23 bd 31 99 7e 3d 72 78 35 bc
       0.0044933273 -0.039837327 0.062157813 -0.01107608
000270 ae 5e 29 bd 8b e8 c2 bd 6b b8 f9 bb 16 82 1c 3d
       -0.04135006 -0.0951701 -0.0076208613 0.038209997
000280 db 28 06 3d 31 dc 2d bb 21 ef 99 bb bc a9 69 3d
       0.032753807 -0.002652895 -0.004697696 0.057046637
000290 47 f4 3d bd 9c 8f 94 3c 9f 0d d2 3d e9 fc 12 3d
       -0.04637554 0.018134885 0.10256504 0.035885725
0002a0 90 46 aa 3d 94 0d 7f bd 44 59 7e bd 12 03 1a bc
       0.0831424 -0.06226881 -0.06209685 -0.009400146
0002b0 6b 13 13 3c 2e 7b 62 3d fa b1 a7 bc 1d 7a 13 bc
       0.008976798 0.055293255 -0.020470608 -0.009001282
0002c0 87 43 0f bd 94 73 02 3c 50 3b 02 bd 65 b8 6f bd
       -0.03497651 0.007962126 -0.031794846 -0.05852546
0002d0 ff 3d 2c bc a3 21 9e bc 65 15 97 3c bd 45 ad 3c
       -0.010512828 -0.019303149 0.018442819 0.021151418
0002e0 c7 e6 c8 3b 2b 59 ab bb 29 80 e8 3d a6 c0 01 3e
       0.0061310264 -0.0052291355 0.113525696 0.12671146
0002f0 48 e7 74 bd f3 8c 35 bb b9 1e ee 3c 70 14 95 bd
       -0.05979088 -0.002770242 0.029067384 -0.07279289
000300 2d 4f 8a 3c fb 9a f0 bc e8 62 05 3e d7 d3 e2 3d
       0.016883457 -0.029370775 0.13026011 0.110755615
000310 24 99 04 bc 54 4d 6e 3d f9 42 27 3c 5d a3 b8 bd
       -0.008093152 0.058179215 0.010208839 -0.09015534
000320 67 cf a4 3d 83 c9 84 bd 52 9b a8 bd d5 6a f9 3c
       0.08047371 -0.06483748 -0.0823275 0.03044645
000330 94 bc 8f 3c 86 a1 48 bb dc b1 be 3d cf 20 9f bd
       0.017545976 -0.0030613854 0.09311268 -0.077699296
000340 46 88 18 bd 24 6a dd 3d 73 03 04 3d b8 ed c9 bd
       -0.037239335 0.1081126 0.032229852 -0.098597944
000350 92 26 c5 bc 06 69 8c bd 2f 05 74 bc ae a1 ea bd
       -0.024066243 -0.06855969 -0.014893814 -0.11456619
000360 5b 21 23 3c de 16 2f ba 16 8d 6c bd e8 ca 37 bc
       0.009956683 -0.00066791277 -0.057751738 -0.01121781
000370 6e 03 65 bd e7 61 a9 3b 24 e8 d0 bd 53 50 c1 bd
       -0.055911474 0.0051691416 -0.10200527 -0.09439149
000380 b3 dc 98 bd 2b e8 6f 3d 72 b7 b5 bd 53 73 7c 3d
       -0.0746397 0.058571022 -0.0887288 0.06163342
000390 58 91 1e bc 55 f2 37 3d e6 cc 8c bd 5d b4 03 bd
       -0.009678207 0.04490884 -0.06875019 -0.03215443
0003a0 e5 fb 76 bc 02 af 89 3c 0c 18 55 bd 0d 51 a6 bc
       -0.015074705 0.016807083 -0.052024886 -0.02030232
0003b0 88 76 bc bb e6 bb 0f 3d 64 c9 20 3c af c3 63 bd
       -0.0057514347 0.035091303 0.00981364 -0.05560654
0003c0 80 0e be bd e0 82 1d 3d c9 9b 1a 3d fb 6d 12 3e
       -0.092801094 0.03845489 0.037746225 0.14299767
0003d0 76 61 1e bc d9 62 33 bd 36 22 d0 3b fa 6e 7b 3b
       -0.009666791 -0.04379544 0.0063517345 0.0038365708
0003e0 66 f7 83 3c 16 46 32 bd 5d 13 e4 bb ca 54 6c bc
       0.01610918 -0.04352387 -0.006960316 -0.014424512
0003f0 22 7f 99 bd 04 2b 2e 3d e2 63 9e bd 80 ed 07 be
       -0.07494952 0.04252149 -0.07733895 -0.13274193

fc2.weight f4 [600, 300]
000000 ae cb 8a bb 6d fc c0 3c 03 ac 55 3c d9 43 00 bb
       -0.0042357063 0.023557866 0.013041499 -0.001957169
000010 ed 7e ee 3b 9b c5 80 ba 9a 71 a8 3b fd e6 5d 3a
       0.0072783143 -0.0009824516 0.0051404955 0.0008464901
000020 74 1e 8d bc 9b f9 cd 3b fd a2 8f 3c ac 47 1e bc
       -0.017226435 0.006285859 0.017533774 -0.009660643
000030 53 bd 0c 3d 24 00 06 3c fa 3a 15 3c 80 19 71 3c
       0.03436024 0.008178744 0.009108299 0.014715552
000040 3e 25 44 3b 9d de 77 bc 0c 8f 8a 3b 21 f6 84 bc
       0.0029929425 -0.015128759 0.0042284783 -0.016230645
000050 44 99 42 bc f6 c4 24 bc bc f9 c7 bb 39 19 33 bc
       -0.011877362 -0.010056725 -0.0061027687 -0.0109313065
000060 40 84 80 bb 9b 15 4a 3c 7d db 9b 3c 8f 8c 7b bc
       -0.0039220154 0.012334253 0.019025559 -0.015353336
000070 f5 25 07 3a 1c 92 5c 3b d4 8c b0 3b 1c d1 79 3d
       0.00051554973 0.0033656424 0.005387882 0.060990438
000080 4d 3f a6 3c ae fd eb bc 37 c6 85 bc c6 db b2 3c
       0.020293856 -0.028807487 -0.016329868 0.021833312
000090 02 c7 ba ba 66 6f 6a bb 6c 9f 93 bc a4 df 0a 3d
       -0.0014249983 -0.0035771965 -0.018020354 0.033904687
0000a0 42 f0 20 3c bd e1 72 bb dd a8 12 bc 66 15 3a 3c
       0.009822907 -0.003706082 -0.008951393 0.011357641
0000b0 1e 15 9f bc 0e 73 87 bc 1f 19 a8 3c a6 60 35 bc
       -0.01941925 -0.016534355 0.020519791 -0.011070406
0000c0 f3 25 44 bd 1a c0 30 3b 20 89 11 bb de 89 52 bc
       -0.047887754 0.002696997 -0.0022206977 -0.012850253
0000d0 19 49 88 bc 2d 06 44 bb 33 28 47 bd d8 15 31 bc
       -0.016636418 -0.0029910908 -0.04862232 -0.010808431
0000e0 c3 17 95 bb 51 26 88 bc b4 88 9e bb 62 d9 48 ba
       -0.0045499518 -0.016619833 -0.0048380736 -0.0007661787
0000f0 d0 ec 89 3c 6e 6a b8 3c 33 19 72 bc 09 59 9e ba
       0.016836554 0.022511687 -0.014776516 -0.0012080978
000100 58 32 ca 3c 56 e9 bc b9 75 92 60 3c 5e 35 f5 bc
       0.024682209 -0.00036032003 0.013706793 -0.029932674
000110 79 61 cb bc 37 05 13 3c da 74 5b 3b 90 96 78 bc
       -0.024826752 0.008973411 0.0033486397 -0.015172616
000120 91 6f 5e bb c9 11 7f bb e9 89 81 3c 72 62 e6 bb
       -0.003394101 -0.0038920513 0.015812831 -0.0070307786
000130 20 ab 83 bc c9 c6 13 3b 85 49 99 bc a3 be 11 3c
       -0.01607281 0.0022548905 -0.018711815 0.008895549
000140 58 6d 82 bd f2 c9 5c 3b 3e 05 3f bb 03 a6 89 bd
       -0.06368512 0.0033689705 -0.0029147412 -0.06721117
000150 87 69 49 bc 43 14 75 3b af f8 6b bc fb af ce 3b
       -0.012293226 0.003739611 -0.0144025525 0.0063075996
000160 b5 94 00 3d 6c de 8a bc 20 b4 1c bc 3f 27 80 3b
       0.031391818 -0.016951762 -0.0095644295 0.0039109285
000170 d8 72 b0 3c 24 59 8d 3b 8a 59 46 bb aa 4d 26 3c
       0.021539137 0.004313605 -0.0030265772 0.0101503525
000180 78 e4 43 3b 7b e9 7f bb ee a3 56 bb b4 91 a2 bb
       0.0029890817 -0.0039049077 -0.0032751518 -0.004961217
000190 1e 26 79 3c f8 b9 0d bc b1 96 f5 bc 1c df 55 bc
       0.015206842 -0.008650295 -0.029979082 -0.013053682
0001a0 1c 0a 02 bd b7 b0 95 3c ea a0 9a bc 4d 77 90 bc
       -0.031747922 0.01827274 -0.018875558 -0.017635012
0001b0 db 02 79 bc 4b 5c 2f 3c 3a ed 15 3c da ba 82 3c
       -0.015198435 0.010703157 0.0091507975 0.015958238
0001c0 97 29 92 bc 7a fb 18 bc a1 66 a9 bb 7c d2 02 3c
       -0.017842097 -0.0093373 -0.005169705 0.007984754
0001d0 7d c5 8b 3c 92 db c3 3b 14 cc ab bc 3f 93 5d 3b
       0.017061943 0.0059771026 -0.020971335 0.003380969
0001e0 f1 df a5 bc f3 9f aa bb ec 4f 1e 3c d6 26 9a 3c
       -0.020248385 -0.0052070557 0.00966261 0.018817347
0001f0 3a 97 a5 bc 45 42 57 bc 4d 20 85 3c 05 13 39 bb
       -0.020213712 -0.0131383585 0.016250754 -0.0028240096
000200 f9 96 05 bd 95 ca 5d 3c 7f c6 1c 3c 09 7e a9 b9
       -0.032614682 0.013537069 0.0095688095 -0.00032328095
000210 6f a3 e6 3b 29 7c 0a 3b 0e 7c 8f 3c 47 33 b5 3b
       0.007038526 0.0021131134 0.017515209 0.0055297944
000220 2b 5b 2c 3c d4 68 49 bb 96 3d a1 bc a1 74 fc 3c
       0.010519783 -0.0030732648 -0.019682687 0.030817332
000230 67 17 bc ba 02 df cd 39 75 63 e9 3c 8a 1c 41 ba
       -0.0014350236 0.000392668 0.028489808 -0.00073666184
000240 52 0f 3a bd 3b 80 cc ba 21 6c d1 bc 59 00 1a 3c
       -0.045424767 -0.001560218 -0.025564255 0.009399497
000250 b6 1b 57 3d 97 76 91 bb c2 7e 0e 3c 6f 06 ed bc
       0.05251666 -0.004439186 0.008697214 -0.028933732
000260 2f 26 87 3c c1 61 e1 3b 8f 68 b1 ba d2 34 80 3c
       0.0164977 0.0068781083 -0.0013535189 0.015650187
000270 8b 10 9f bc 5e b6 8e 3d 53 82 b7 bc 56 a0 1f bc
       -0.019417068 0.069683775 -0.02240101 -0.009742817
000280 63 8e 00 3b 9b cf 81 bc 66 ce b4 38 95 af 54 3c
       0.001961612 -0.015846064 8.6215136e-05 0.012981315
000290 e8 84 33 bc 5f dd 9c ba 2d 43 9d bd d7 82 16 3c
       -0.01095698 -0.0011967829 -0.076788284 0.009186468
0002a0 7f 83 f1 bc 84 59 da 3b 3a c3 37 3d 31 ea ec bb
       -0.029481648 0.006663503 0.044863917 -0.007230066
0002b0 d8 89 76 3c 5e ea 87 bc 6d b2 ba 3b 2b f0 6c bc
       0.015047513 -0.016591247 0.0056975395 -0.014461557
0002c0 b8 6a 58 bc a4 60 e8 3b 44 81 86 bb ca 64 3d 3d
       -0.0132090375 0.0070915986 -0.004104765 0.046238698
0002d0 36 65 a5 bb be 92 a1 bc 6f 1a 61 3c 40 cc 86 bb
       -0.0050474657 -0.019723292 0.013739212 -0.004113704
0002e0 06 48 82 bc a7 5e 71 bc 39 0b 3b 3c 06 28 e5 3b
       -0.015903484 -0.0147320395 0.01141625 0.0069932966
0002f0 0e 7c b0 3c ed 72 67 bc 9f 70 ba ba 74 da 44 3b
       0.021543529 -0.014126522 -0.0014224238 0.0030037435
000300 6d 99 71 bc 6c 1f a9 bc c4 7b 5e 3c f8 b2 fc bc
       -0.014746052 -0.020644866 0.013579313 -0.030847058
000310 75 c6 ea ba 62 f0 2b bb 2c ed 53 3b 0a cc 1a 3c
       -0.0017911928 -0.0026235809 0.003233741 0.009448061
000320 de 26 0a 3d 3f f4 19 3c 9f a9 3c bc 64 c0 b1 3c
       0.033728473 0.009396612 -0.01151505 0.021698184
000330 23 2f 56 3c 6c 98 06 bc d5 ac f6 bb 15 8f 70 bc
       0.013072762 -0.008215051 -0.0075279274 -0.014682551
000340 a3 83 da bb 73 7d 83 ba 94 cc d3 bb 40 21 75 3d
       -0.0066685244 -0.0010031894 -0.0064635966 0.059846163
000350 fa 1d 91 bd 2e 8b b6 3a df 6a 85 39 eb 8a 87 bc
       -0.07085796 0.0013926977 0.00025447362 -0.016545733
000360 ab 25 0e bc 2e b1 0d bc bc f8 03 3b 89 f7 76 3c
       -0.008675973 -0.0086482 0.002013727 0.015073665
000370 d7 ed d2 3c 01 52 c4 b9 c8 9a 2b bc 14 79 ad 3b
       0.025748177 -0.0003744513 -0.010473914 0.0052939747
000380 d8 1c af 3b 7a 89 de 3d 6f 17 38 3c 3f 7d 39 bb
       0.0053440146 0.10866065 0.011236056 -0.0028303412
000390 ee c4 96 bc 4d 0f c7 ba 22 97 0d 3c e7 b5 03 bc
       -0.01840445 -0.0015187055 0.00864199 -0.008038974
0003a0 27 b7 45 3c b4 6f 60 bc fa ed 80 bc d5 25 89 3c
       0.012067593 -0.013698507 -0.015738476 0.016741673
0003b0 bd f7 82 3c 2d 9f 8a bc f2 12 62 3b 8d 4f 2b 3b
       0.015987271 -0.016921604 0.0034496156 0.0026139945
0003c0 de fc 4e 3b e9 6f cd 3c 76 32 9e bc 1d 5a 80 3c
       0.0031583826 0.025077777 -0.019311171 0.01566797
0003d0 3b a4 0f 3c 2f bc 51 bc d0 e9 fd 3b db cb 6d bc
       0.008767183 -0.012801214 0.00774882 -0.014513935
0003e0 7d ce 44 3c 10 1c eb 3b 6e e0 55 bc a7 ba 2e 3c
       0.012012121 0.007174976 -0.0130539965 0.010664619
0003f0 74 10 df 3a 34 9a 55 3c 47 32 98 3b 3b 01 ac bc
       0.0017018453 0.013037253 0.0046446654 -0.02099668

fc2.bias f4 [600]
000000 e8 17 06 bd 17 b7 4e bd df 0c 1c 3d f4 33 7f 3c
       -0.032737643 -0.050467577 0.038098212 0.015576351
000010 c8 af d6 bc 9c 8c 05 3d ac 13 3c 3d ac 6b 19 3e
       -0.026206866 0.0326048 0.045917198 0.1498248
000020 c2 1e 29 bd 34 4d d5 3c 18 af 7f bd f8 7b e0 3c
       -0.0412891 0.02603779 -0.06242284 0.027402863
000030 f5 b8 27 3a f2 ba c9 3d 26 fa 68 bd 2d 90 88 bd
       0.0006398105 0.0985011 -0.056879185 -0.06668124
000040 2a 7b 33 bd c2 30 d3 3c 3c bd 26 bc c9 10 c8 3c
       -0.04381863 0.025780085 -0.010176953 0.024422066
000050 0c 93 14 3d 3f 3a 84 bc 95 a8 ce bc 09 18 93 3c
       0.036273047 -0.016141055 -0.02522687 0.017955797
000060 d7 0a 24 3d 84 b2 aa bc 4f 1b a4 3c 8d b2 2d 3d
       0.0400494 -0.020837076 0.020032553 0.042406607
000070 e9 d9 b2 3c 60 47 fe bc 14 02 0f 3d 92 dd d9 3c
       0.021832423 -0.031039894 0.03491409 0.02659491
000080 14 9a 30 3d 51 88 05 bd 62 15 63 3c cf 78 b8 bc
       0.04311569 -0.032600705 0.0138600785 -0.022518544
000090 de 14 f4 3c 7f 9a 80 3c 40 a1 7b 3c 31 56 12 3a
       0.029795107 0.01569867 0.015358269 0.00055823015
0000a0 d3 f1 10 3d a4 2e 3a 3d 47 fc 43 3d 84 42 88 3d
       0.03538687 0.045454636 0.047848012 0.06653312
0000b0 de 22 0c bd 77 12 34 3d 18 a5 94 bc a8 86 04 3d
       -0.03421294 0.043962922 -0.01814513 0.03235498
0000c0 fc 06 34 3d 27 47 b4 3a 37 5d 93 3c 3b 64 62 3d
       0.043951973 0.0013754115 0.017988784 0.05527137
0000d0 27 7d fa 3b 71 02 51 bd c1 d3 c5 3c 5d 9b d5 bc
       0.007644314 -0.05102772 0.024148824 -0.02607506
0000e0 c0 54 38 bd 64 71 7a 3d bf 46 b7 bc bf 86 a6 bd
       -0.0450027 0.061143294 -0.022372602 -0.081311695
0000f0 92 92 d0 ba e2 f1 dd bc 06 df e7 bc de 28 12 bd
       -0.0015912822 -0.027092878 -0.028304588 -0.035683505
000100 31 16 0a 3d 32 9c 0a bd 99 24 98 bc 58 66 18 3d
       0.03371257 -0.033840366 -0.018572139 0.037206978
000110 e5 b2 3c 3d f8 a8 b8 3c d1 3a 39 3d 37 27 d4 39
       0.046069045 0.022541508 0.045222107 0.00040465008
000120 cf 6c 3f bb c5 5f b8 bc 5c bd 09 bd 3f 90 35 b9
       -0.0029209142 -0.022506604 -0.033627853 -0.00017315241
000130 89 8b 02 bd da cb 3a bb e4 67 05 3d 0c ff 2b bd
       -0.031871352 -0.0028502853 0.03256978 -0.04199128
000140 f3 1a 54 3c 71 3a 03 bd e0 c8 40 bd 2c 31 f7 bc
       0.012945878 -0.032038156 -0.04706657 -0.030174814
000150 c4 68 07 bd 93 b8 4a 3d 36 14 46 3d 0e 43 23 3d
       -0.033058897 0.04949243 0.04835912 0.03985887
000160 18 62 83 3c 85 69 89 3d 47 c9 e3 3c 7f 91 07 3d
       0.016037986 0.067095794 0.027805937 0.03309774
000170 c6 05 34 bd e2 d7 f1 3c 2e 82 f1 3c 68 8d 08 bd
       -0.04395082 0.029521886 0.02948102 -0.03333798
000180 df 34 10 bd c0 e4 6b 3d ac 65 5c 3d 95 e2 ed 3c
       -0.03520667 0.0575912 0.0538079 0.029038707
000190 a6 27 19 3b 2f 97 0c 3c 0d 01 a8 3c d8 ab fb bc
       0.002336958 0.008580967 0.020508314 -0.03072159
0001a0 a2 d0 60 3c 85 c5 d7 bc 57 9c 8c 3d 5b e6 68 3c
       0.013721617 -0.026339302 0.06865757 0.014215077
0001b0 f0 85 87 bc ad b9 f5 bd 05 48 86 bb 94 89 e7 3c
       -0.016543359 -0.119983055 -0.004097941 0.028263845
0001c0 d5 a9 ed 3a ca d6 45 bc 83 03 29 3d e0 37 17 3e
       0.0018132279 -0.0120751355 0.041263115 0.14767408
0001d0 96 8c 89 bd 3e 28 29 3b 00 0c f7 bc ef fd 0d 3d
       -0.06716268 0.002581134 -0.03015709 0.034665998
0001e0 45 da fd 3c d9 07 7c 3d 12 85 09 bd bf 92 63 bc
       0.030987868 0.06153092 -0.03357417 -0.013889967
0001f0 15 ea 7b bd dc 19 8e ba c9 4a fe 3c b8 f9 fb 3c
       -0.061502535 -0.0010841447 0.03104152 0.030758724
000200 c9 d8 bc bc d8 6a 7a bc 88 77 1c bd aa 01 0d bd
       -0.02305259 -0.015284263 -0.03819993 -0.034425415
000210 23 24 05 3d 1c 23 14 3d 43 5d b9 3c 72 be 06 bd
       0.032505166 0.036166295 0.022627478 -0.032896467
000220 0d 38 bf 3a 11 5a 07 bd f5 49 10 bd 6b e2 8d 3c
       0.0014588848 -0.03304488 -0.03522678 0.017319879
000230 4b 31 88 3c 59 3c 28 bd aa 79 02 3d 25 71 23 3d
       0.016625067 -0.041073177 0.03185431 0.039902825
000240 35 5e 3a bd bc e8 dc 3c e1 c9 2b 3d d5 c0 ce bc
       -0.0455 0.026966445 0.041940574 -0.025238434
000250 96 6d 35 3d 44 c0 e5 3a 1f 03 74 bc f9 84 04 bd
       0.044293962 0.0017528613 -0.014893322 -0.032353375
000260 c1 ff 1b bd b3 04 f2 3c ba 8a 33 3d ea d1 1c 3d
       -0.038085703 0.029543256 0.04383347 0.038286127
000270 a4 04 c8 bb a1 53 c6 3c 58 24 07 3d ab 42 16 bd
       -0.006104069 0.0242098 0.032993644 -0.036684673
000280 8d f6 8f bd f4 7b 0d bd 1a bc ec bc 1b 54 3f bb
       -0.07029448 -0.03454204 -0.028898288 -0.0029194418
000290 c6 26 2f bd b5 93 fc bc ff 24 a3 3d 52 50 fb bc
       -0.042761587 -0.030832151 0.07966041 -0.030677948
0002a0 91 3c 7f 3c 91 b4 c2 3c d5 8e 2d 3d c0 82 bb 3b
       0.015578405 0.023767741 0.042372543 0.0057223737
0002b0 3c 91 a3 bc e8 b6 73 bc 80 02 90 bc 38 c5 13 be
       -0.019966714 -0.014875151 -0.017579317 -0.14430702
0002c0 77 5f 82 3c 40 ff 48 bd b2 23 b6 3c a3 76 99 bc
       0.015914662 -0.04907155 0.022233818 -0.018733328
0002d0 a8 e4 0f bd bf 27 88 3c bd fe d6 3c 21 e3 03 3d
       -0.035130173 0.016620515 0.026244516 0.03219903
0002e0 ca 49 e5 bb a9 d7 3a 3d e5 8d ce bc 5e 88 b1 3c
       -0.0069973217 0.045615826 -0.025214145 0.02167147
0002f0 b3 95 03 3d d3 56 00 bd 98 c2 8a bc f3 29 96 3c
       0.032125186 -0.031332802 -0.016938493 0.01833055
000300 18 2e d9 bc 30 c9 81 3d 7d 55 6f bd 95 ff 9d bc
       -0.026511237 0.063372016 -0.058431137 -0.01928691
000310 af 65 fe ba bd 5a 0e bb e8 30 4f 3c 55 8a f7 38
       -0.0019408966 -0.0021721565 0.0126459375 0.00011803644
000320 a5 96 48 bb a3 f9 37 bd f2 66 06 3d e2 fd 12 bd
       -0.003060737 -0.044915807 0.03281302 -0.035886653
000330 89 30 25 3d f2 db d8 3c ed 1e cb 3c f0 a0 0e 3d
       0.04032949 0.026472066 0.02479502 0.03482145
000340 cd 39 a2 bd 11 57 16 3d e5 22 2e 3d 9b 87 81 bc
       -0.07921181 0.036704127 0.042513747 -0.015811732
000350 63 07 89 3d da e9 26 bd c4 b4 2f bc d5 f4 0d bd
       0.06690862 -0.040750362 -0.01072425 -0.03465732
000360 1a 8b 90 bd ca b3 c6 bc 7b 86 08 bd 9d 1d ff 3d
       -0.070577815 -0.024255652 -0.033331376 0.1245682
000370 b2 0b ed bc 2a 53 32 bd 2b ab 11 bd 62 49 37 3d
       -0.02893624 -0.043536343 -0.03556363 0.044747718
000380 9d 67 48 3d 40 3d 0a 3d 80 de 10 bd ec 85 02 bd
       0.04892694 0.03374982 -0.035368443 -0.031866
000390 24 ac 11 bc 67 a9 a2 3c 34 da 28 3d 41 d4 4f bc
       -0.008891139 0.019856168 0.04122372 -0.012684883
0003a0 e6 f4 53 bd c0 d7 9b 3d 99 7a 8f bb 55 47 03 bd
       -0.051747225 0.076095104 -0.0043786285 -0.03205045
0003b0 ac 6f 84 3d 1a 8b 31 3d ef 79 ec 3c ea b7 03 bd
       0.06466612 0.04334555 0.028866736 -0.032157816
0003c0 90 2c 0d 3d 03 a6 71 3b e1 4a 1c bc 3c 0c b5 bc
       0.034466326 0.0036872632 -0.009539337 -0.02210056
0003d0 04 39 ab 3c 37 09 17 bd 7c a5 3d bd 24 3e 24 3a
       0.02090121 -0.036874022 -0.046300396 0.0006265363
0003e0 5c 2a 3e 3a 6b 83 94 3b 53 2e ff 3c 8c 53 f9 bc
       0.0007254237 0.004532268 0.031150019 -0.030435346
0003f0 2b cf 01 bd 9b ee 87 3c 26 f5 88 3d 7f cb 63 bd
       -0.03169171 0.016593268 0.06687383 -0.05561399

fc3.weight f4 [1, 600]
000000 12 d3 52 39 36 5e 3f b8 b8 67 c0 ba 30 f1 bb ba
       0.0002010579 -4.562569e-05 -0.0014679348 -0.0014338847
000010 24 52 22 3a 32 88 da bd 39 3b f5 3a 44 d8 0c bc
       0.00061920495 -0.106705084 0.0018709666 -0.008596484
000020 5b 4d 15 3a 55 38 e5 39 e1 d3 d7 3c 04 0a e5 b9
       0.0005695426 0.00043720254 0.026346149 -0.00043685746
000030 e7 83 dd ba 93 2a bf bc 9e cc 10 3a 2e f3 06 3d
       -0.0016900272 -0.02333573 0.00055236544 0.032946758
000040 2e 10 eb 39 0e 35 d6 b9 a3 1f fc 3c 94 e8 8c b8
       0.00044834748 -0.0004085679 0.030776804 -6.719041e-05
000050 17 d9 08 ba 99 ba df 3c 71 68 ca b8 3b 90 cc 3b
       -0.0005220337 0.027310656 -9.651564e-05 0.0062427795
000060 2f 27 9e bb 97 18 ff 3b 90 f0 09 3c 74 43 1a ba
       -0.0048264484 0.0077849138 0.008419171 -0.0005884685
000070 88 7c d1 ba 97 5b 9a 39 81 21 9b ba 62 d7 e8 b8
       -0.0015982548 0.0002944141 -0.0011835546 -0.0001110274
000080 77 90 cd b9 5e 9c 77 ba 2f a7 dc ba 5b ad bd bb
       -0.00039208282 -0.0009445603 -0.0016834493 -0.005788488
000090 13 8a 9b b9 28 50 2f ba ad 7a d5 bc ad 9d 19 3a
       -0.00029666777 -0.00066876644 -0.026059473 0.00058599823
0000a0 ca 31 82 3a e4 f3 2a ba 11 f0 60 bc b3 7b 02 bd
       0.0009933051 -0.0006521328 -0.013729111 -0.03185625
0000b0 f9 8f d7 3d ad 88 c3 b9 cb d0 c9 bb 21 bf c5 38
       0.105255075 -0.0003729513 -0.0061589233 9.4292925e-05
0000c0 01 9f 82 bc 2a a9 f1 bc db c5 e2 b8 3b 92 8a ba
       -0.01594496 -0.029499609 -0.00010813373 -0.0010572145
0000d0 09 47 9f bc 57 6b 63 3c e9 b7 86 ba 81 9e 85 3a
       -0.019443052 0.013880572 -0.0010278198 0.0010194333
0000e0 38 da 98 39 6d 39 af bc 1b 66 17 39 8c ff 93 3c
       0.00029154285 -0.021389687 0.0001443852 0.01806619
0000f0 16 28 d4 3a b1 a3 d2 3d 09 37 72 b7 59 6f 21 3a
       0.0016186263 0.10285128 -1.4437138e-05 0.00061582547
000100 68 a1 1d b9 a7 1e 45 3a 76 ca b3 bc f8 c5 42 ba
       -0.00015032815 0.0007519521 -0.021947127 -0.00074300123
000110 e8 4c 88 ba bf a6 e5 ba 5b 1d 75 ba b9 b3 57 ba
       -0.0010398896 -0.0017521008 -0.00093503826 -0.000822838
000120 66 13 78 3c e3 0a e8 38 8b 6c c8 3c c1 6c dc 3a
       0.015141344 0.0001106465 0.02446582 0.0016817079
000130 7a 3d 8b 3a 40 b8 ba bc 68 5e 3e 3a f8 62 05 b9
       0.001062318 -0.022792935 0.00072619924 -0.00012720737
000140 25 a8 12 ba 6b 71 9c 3a 27 6e b0 b9 7b 1c 97 3a
       -0.00055945135 0.0011935657 -0.00033651406 0.0011528874
000150 62 d0 90 39 c2 ba 58 ba ea 1a 51 3a 86 38 76 b8
       0.00027621078 -0.0008267575 0.0007976728 -5.8703612e-05
000160 58 2f 08 b8 0d 23 03 bd 44 bb 91 ba cf 7e 7e ba
       -3.246902e-05 -0.03201585 -0.0011118432 -0.0009708227
000170 45 e7 e3 39 39 45 b6 3b a7 6e 2f ba e1 cb 9c b9
       0.00043469123 0.005562451 -0.00066922087 -0.0002990654
000180 a1 09 4e b9 c0 cb c7 3a 46 0a 91 bc f0 ed 3d ba
       -0.00019649278 0.0015243217 -0.017705094 -0.0007245233
000190 db a8 81 bc d8 80 c0 39 13 9e 2f ba 39 92 c5 38
       -0.015827587 0.0003671709 -0.0006699275 9.420928e-05
0001a0 17 e6 8f 3c 0d 0d 77 3a b6 b2 1a bd 28 02 20 b8
       0.01756577 0.0009424247 -0.03776809 -3.814898e-05
0001b0 86 97 35 3c f3 e8 c2 b8 0a d9 38 ba b7 ea 88 ba
       0.011083489 -9.294031e-05 -0.00070513843 -0.0010445927
0001c0 db 59 21 3a 14 2f 36 3a 57 d8 1f b9 d5 59 ee bb
       0.0006155052 0.0006949764 -0.00015244015 -0.0072738924
0001d0 88 a1 05 3d aa 17 36 3a a5 a0 81 39 c0 a1 4d ba
       0.03262475 0.0006946275 0.00024724487 -0.0007844232
0001e0 70 a4 0a b9 3d 21 dd bc 31 53 00 3a 64 c7 01 3d
       -0.00013221963 -0.026993388 0.0004895209 0.031684294
0001f0 24 73 dd 3c aa 40 9e 3a 89 58 b1 3c 5d 4e eb b8
       0.027032442 0.0012073715 0.021648662 -0.000112202695
000200 1f 1e c0 3c 09 90 20 3a 24 77 b1 39 b9 54 42 3c
       0.023451863 0.00061249785 0.00033848837 0.01186102
000210 8e 1a 8a ba c4 84 be b9 f2 fb 5c ba b1 76 a9 39
       -0.0010536478 -0.00036338542 -0.0008429877 0.00032322624
000220 95 b5 7e ba 3e 95 e1 3a 16 6b 23 3c ac 36 bf 3b
       -0.0009716389 0.0017210615 0.009974262 0.005835375
000230 4e f0 40 ba b6 f4 11 3a 87 a1 0f b9 78 fa 8a 39
       -0.0007360027 0.0005567776 -0.00013697716 0.00026508025
000240 2a b3 56 ba 61 cd 2d bb da 27 43 bc a9 9e cd 3a
       -0.00081901497 -0.002652012 -0.011911357 0.0015687543
000250 6c d5 da 3a 65 98 c2 ba 87 de f5 3c 89 63 5f b9
       0.0016695685 -0.0014846443 0.030013336 -0.00021304017
000260 29 e9 73 39 b0 3b d9 ba 70 04 3d ba 78 0e c9 b9
       0.00023261145 -0.0016573574 -0.0007210439 -0.00038348488
000270 64 7e 10 3a af a2 e4 ba 17 69 36 3d 4f 86 ad 39
       0.0005511998 -0.0017443503 0.044533815 0.000330972
000280 45 7f 28 3d 9d 1b 67 ba cd 20 0c 3b ad 44 2b ba
       0.041137 -0.00088160654 0.0021381855 -0.0006533366
000290 20 bf 37 ba c0 59 9e 3a 86 ba 5f bc 11 60 b0 ba
       -0.0007009376 0.0012081191 -0.0136553105 -0.0013456364
0002a0 80 40 c2 bd df d8 41 3d 97 ff 51 bc e7 44 b3 3b
       -0.09484959 0.047325965 -0.012817285 0.0054708603
0002b0 c0 37 ea b9 ef 56 d7 3c 54 7b e6 3c aa 01 08 3b
       -0.00044673495 0.02628657 0.02813498 0.0020752945
0002c0 e9 ba 22 ba 47 d7 21 ba de f3 fd ba c8 64 e3 bb
       -0.00062076614 -0.00061737414 -0.0019375046 -0.0069395043
0002d0 ed ce b4 38 55 17 e2 bc 4f e2 03 bb a2 6a 1f ba
       8.621612e-05 -0.027599016 -0.0020123904 -0.0006081258
0002e0 b3 56 12 3a db cf 11 b8 f5 71 96 3a d8 2b 9c 3c
       0.0005582377 -3.4764274e-05 0.0011478054 0.019063875
0002f0 58 d8 84 b9 6c 7b cd 38 c4 5c 8a 3a 10 cc 87 ba
       -0.0002533819 9.798151e-05 0.0010556211 -0.0010360498
000300 48 78 2b b7 b7 12 94 b7 7d 07 fd 39 67 6c b2 3c
       -1.0220399e-05 -1.765169e-05 0.000482615 0.021780206
000310 ce 71 30 ba 44 d4 2b ba 36 c9 f6 bc 79 ac a2 3a
       -0.00067308254 -0.00065547624 -0.030125242 0.001241102
000320 91 1c 61 bc d7 50 46 39 ba ce 9d 39 61 99 e6 3a
       -0.013739721 0.00018912867 0.00030099397 0.0017593318
000330 5b 28 f5 39 b0 9d 8e 39 de a8 a8 ba c5 0b 9c ba
       0.0004676011 0.00027201837 -0.0012867709 -0.0011905363
000340 64 3f 40 3b 51 5d 5d ba a6 97 83 ba 77 23 d8 3c
       0.0029334659 -0.0008444386 -0.0010039702 0.026384098
000350 03 72 06 bd f5 1f df 39 13 29 86 3d 5d c9 f6 bb
       -0.032823574 0.00042557684 0.06550803 -0.0075313286
000360 cd 2e 22 3d 63 62 a6 39 34 e4 ba 39 fe bf a3 bc
       0.039595414 0.0003173529 0.0003564671 -0.01998901
000370 af 3f 90 3a 70 c8 e4 37 43 ac 32 3a 50 01 bb ba
       0.0011005307 2.7273054e-05 0.000681583 -0.0014267359
000380 25 b6 ec b9 1a d3 a7 ba 8e 77 08 3a 9d 8c aa 3a
       -0.00045149136 -0.0012804002 0.00052058033 0.0013011877
000390 7c de f4 38 2a 2f c7 bd a7 62 8d 39 17 14 32 3a
       0.000116762676 -0.09725793 0.00026967117 0.0006793155
0003a0 8c 69 aa 39 db 02 34 3d 1d 93 19 ba be 1d 80 3a
       0.00032503565 0.043948036 -0.00058584084 0.0009774489
0003b0 c3 e5 12 39 d3 99 09 3a 64 aa f8 ba 1b 22 bf b9
       0.00014009238 0.0005249057 -0.0018971679 -0.0003645577
0003c0 14 40 93 37 30 4e 1e 3a 34 5f 84 bc 89 29 8e 3a
       1.7553604e-05 0.00060388725 -0.016158678 0.0010846119
0003d0 4e 48 88 39 f6 a6 35 3a 03 90 bb 3a 21 27 ec bc
       0.00025993813 0.0006929481 0.0014309887 -0.028827252
0003e0 91 bb 09 ba d7 f8 1a 3a a8 92 00 bb c0 37 d9 3d
       -0.0005254085 0.0005911714 -0.0019618664 0.106063366
0003f0 88 d9 49 3a f0 07 39 3b 46 ec 01 bd 64 46 60 ba
       0.0007699956 0.002823349 -0.03171947 -0.0008555411
