Deterministic-GAIL/weights/GAIL_discriminator.pth (torch_old, 765501 bytes, 5 tensors)

fc1.weight f4 [300, 32]
-0.31894398 -0.035883844 -0.13809262 0.094752006 0.001054079 -0.017350515 -0.0075525166 -0.006488195
0.0037943637 0.029360605 0.0466269 0.039961595 0.03719341 0.04030793 0.040401075 0.037736546
0.006303426 0.008881032 -0.0025481842 0.12466769 0.050329708 -0.06094222 -0.7153794 -0.6306483
-0.02265475 -0.045066793 -0.057162 -0.06279299 0.012477865 0.015897859 -0.011061357 0.03797902
0.12418855 0.19638085 0.30764434 0.5139053 0.39805543 0.21523792 0.16578634 0.16400163
0.16813469 0.14729333 0.1371838 0.13109116 0.12862177 0.13367593 0.12964302 0.10491789
0.18809167 0.057805393 0.012822575 0.07135089 -0.093631096 0.14373222 -0.21942198 -0.41634998
0.1773977 0.14972368 0.15980609 0.1363982 0.10101875 0.027527228 0.16828392 -0.27095106
-0.29596984 -0.17323913 -0.202683 -0.13217643 -0.1192497 -0.06806657 -0.043660212 -0.009604932
0.008942406 0.005418108 0.00086583936 -0.0043689706 -0.0065222164 -0.012915389 -0.043481328 -0.082774535
-0.22460008 -0.26728782 -0.09389152 0.053708438 0.1830652 0.035979893 0.04865781 0.08001637
-0.008778572 -0.024224084 0.027777 0.014199552 -0.060628306 -0.00015086978 -0.00412227 -0.021656064
-0.4983743 -0.1417342 0.08745161 0.22133102 -0.02555964 0.0821137 0.043562327 0.0348684
0.009808883 0.008971368 0.0031582215 -0.0057318592 -0.0012165378 -0.00798735 -0.004741435 0.03755312
0.022418462 -0.055049937 0.14952946 0.26343888 -0.028312568 0.05642024 -0.020766202 0.08541613
0.032019917 0.030027822 0.050071105 0.060689572 0.055755716 -0.013636286 0.022410372 0.017608475
0.59713554 0.16178384 -0.06673509 -0.20494594 -0.044289853 -0.129728 -0.08724948 -0.07665691
-0.041983355 -0.034027673 -0.031375512 -0.023471864 -0.025681635 -0.016159367 -0.019331675 -0.05367787
0.021697493 0.079160765 -0.06783221 -0.24000108 0.023447786 -0.108614005 -0.11353134 -0.09198492
-0.07596413 -0.06376427 -0.10913777 -0.10978176 -0.05631335 0.028605113 -0.043940246 -0.06882555
-0.19122685 -0.050487515 0.254981 0.059149787 0.05107098 0.13461684 0.10871498 0.118367225
0.10311731 0.075312905 0.058629982 0.054662395 0.061867382 0.07597339 0.07278273 0.11688776
0.17347834 0.13379726 0.09210533 0.16681384 0.04416924 0.14040317 0.1438127 0.6851982
0.11765408 0.11448455 0.15440573 0.14542544 0.084484324 -0.039672885 0.13382356 -0.010442696
-0.121219665 -0.11852276 -0.29874948 -0.1681353 -0.14206147 -0.09657976 -0.07798153 -0.02659975
-0.021412209 -0.042468287 -0.056981698 -0.06432805 -0.06614 -0.08399311 -0.118835196 -0.14363548
-0.16515602 -0.13493106 -0.014105686 0.010032586 0.05728697 0.02017664 -0.1122469 -0.08794993
-0.02009452 -0.02258411 0.007220989 0.012296099 -0.038479794 0.056576435 0.04621646 -0.0011724352
-0.16431466 -0.14845799 -0.34464693 -0.17398314 -0.15253274 -0.100839384 -0.08144247 -0.028903522
-0.022554547 -0.041927863 -0.054723073 -0.06137258 -0.061348807 -0.077888094 -0.113244176 -0.13725628
-0.1689691 -0.16778032 -0.06077128 0.04481482 0.09096501 0.01850103 -0.24560174 -0.121682815
-0.021359151 -0.02605594 0.0045561916 0.009515686 -0.04484464 0.050533988 0.047166716 0.012425842
00000000: a04c a3be f0fa 12bd 2768 0dbe 570d c23d
00000010: 0629 8a3a ab22 8ebc 1a7b f7bb ed9a d4bb
00000020: dcaa 783b a785 f03c d9fb 3e3d c5ae 233d
00000030: 1e58 183d ee19 253d 997b 253d a391 1a3d
00000040: f88c ce3b bf81 113c 70ff 26bb c651 ff3d
00000050: 8626 4e3d 8d9e 79bd 1b23 37bf 2b72 21bf
00000060: 7496 b9bc f597 38bd b422 6abd 9c99 80bd
00000070: f66f 4c3c 3a3c 823c b23a 35bc e48f 1b3d
00000080: 9156 fe3d 1018 493e 8f83 9d3e 4c8f 033f
00000090: eccd cb3e 5467 5c3e e5c3 293e 0bf0 273e
000000a0: 802b 2c3e 10d4 163e e979 0c3e c33c 063e
000000b0: 6db5 033e 58e2 083e 24c1 043e 31df d63d
000000c0: 1a9b 403e 59c5 6c3d c715 523c 6a20 923d
000000d0: a9c1 bfbd 8a2e 133e 28b0 60be d32b d5be
000000e0: bea7 353e 2a51 193e 35a4 233e f8ab 0b3e
000000f0: ebe2 ce3d c880 e13c 9f52 2c3e 19ba 8abe
00000100: 5c89 97be 9965 31be 228c 4fbe 4259 07be
00000110: 3039 f4bd 7c66 8bbd 0dd5 32bd 015e 1dbc
00000120: 2b83 123c 628a b13b 7ff9 623a 9529 8fbb
00000130: 51b8 d5bb 119b 53bc 7a19 32bd b285 a9bd
00000140: 90fd 65be f3d9 88be 324a c0bd 61fd 5b3d
00000150: 7275 3b3e a75f 133d 694d 473d 9fdf a33d
00000160: 00d4 0fbc 9671 c6bc 978c e33c 3da5 683c
00000170: 6355 78bd cc32 1eb9 1b14 87bb 0f68 b1bc
00000180: eb2a ffbe c522 11be d419 b33d 99a4 623e
00000190: 7362 d1bc 3a2b a83d 696e 323d 2bd2 0e3d
000001a0: 70b5 203c a5fc 123c 2afa 4e3b 52d2 bbbb
000001b0: 3c74 9fba 60dd 02bc 0a5e 9bbb 4dd1 193d
000001c0: eca6 b73c 0b7c 61bd 401e 193e 76e1 863e
000001d0: c2ef e7bc e918 673d e21d aabc a7ee ae3d
000001e0: 5127 033d e8fc f53c 5c17 4d3d a195 783d
000001f0: 1b60 643d bb6a 5fbc f595 b73c a63f 903c
00000200: e0dd 183f aaaa 253e 68ac 88bd 59dd 51be
00000210: 4769 35bd 6bd7 04be dbaf b2bd 4cfe 9cbd
00000220: bdf6 2bbd 9a60 0bbd 9c83 00bd 1148 c0bc
00000230: 4b62 d2bc a660 84bc 765d 9ebc 54dd 5bbd
00000240: f1be b13c 0a1f a23d 9deb 8abd d8c2 75be
00000250: 9215 c03c 0571 debd 1f83 e8bd 9762 bcbd
00000260: 1593 9bbd d796 82bd a083 dfbd 42d5 e0bd
00000270: d4a8 66bd 4555 ea3c b0fa 33bd 69f4 8cbd
00000280: f9d0 43be ffcb 4ebd df8c 823e 0c47 723d
00000290: ce2f 513d ffd8 093e f6a5 de3d 846a f23d
000002a0: 2b2f d33d a73d 9a3d fe25 703d ade5 5f3d
000002b0: a768 7d3d f097 9b3d 1d0f 953d da62 ef3d
000002c0: 4ea4 313e 2602 093e b8a1 bc3d 3fd1 2a3e
000002d0: ceea 343d d9c5 0f3e a343 133e 2669 2f3f
000002e0: 9ff4 f03d e076 ea3d 891c 1e3e 68ea 143e
000002f0: 1e06 ad3d 0980 22bd 0b09 093e d717 2bbc
00000300: 0442 f8bd 10bc f2bd b1f5 98be a92b 2cbe
00000310: 9078 11be 9ccb c5bd c8b4 9fbd b8e7 d9bc
00000320: a868 afbc 3af3 2dbd a465 69bd 6dbe 83bd
00000330: 6974 87bd 9404 acbd de5f f3bd 2e15 13be
00000340: a91e 29be 5e2b 0abe 891b 67bc b75f 243c
00000350: bea5 6a3d 7b49 a53c b4e1 e5bd 181f b4bd
00000360: 439d a4bc 5002 b9bc 0c9e ec3b 9475 493c
00000370: fd9c 1dbd b1bc 673d 794d 3d3d 66ac 99ba
00000380: 1a42 28be 5f05 18be 9075 b0be a328 32be
00000390: 8b31 1cbe e184 cebd 4fcb a6bd 14c7 ecbc
000003a0: 50c4 b8bc 8dbc 2bbd 4d25 60bd d061 7bbd
000003b0: e348 7bbd cb83 9fbd 90ec e7bd e98c 0cbe
000003c0: 3c06 2dbe 9bce 2bbe 4eeb 78bd bf8f 373d
000003d0: dd4b ba3d 798f 973c 067f 7bbe d734 f9bd
000003e0: 63f9 aebc 4473 d5bc 1b4c 953b aee7 1b3c
000003f0: 03af 37bd bafc 4e3d e331 413d c295 4b3c

fc1.bias f4 [300]
-0.040515263 0.053877722 -0.046595212 0.075332195 -0.05332274 0.08388782 -0.0001376198 -0.007443134
-0.0034207173 0.007461574 0.045011677 0.074273825 0.09224803 0.038135234 0.059630897 -0.065597385
0.07964156 0.011949616 -0.055393554 0.004270376 -0.040453047 0.013388958 -0.009602601 0.10342946
-0.017865656 -0.042735446 -0.032951556 0.0019126988 -0.065727115 -0.02163221 0.00804081 -0.07385636
-0.040546674 0.05812448 -0.004572732 -0.0019156745 0.1390294 -0.056394942 -0.13145559 -0.0950586
0.11541597 0.018937869 0.07062443 0.108520284 0.041780856 -0.085929975 0.03351688 -0.011743824
-0.068979375 -0.018974567 -0.006525082 0.047057837 -0.032548323 -0.018743606 -0.069724716 -0.115174934
0.04032965 0.0030892165 0.04183338 0.12458239 -0.02932461 0.067568265 0.022060359 0.06522218
0.05719773 -0.015402447 -0.038127426 0.08841936 0.09706949 0.031756017 0.013390787 -0.07991481
-0.005681277 0.10133259 0.030821916 0.017832914 -0.12294894 -0.09835699 0.1142419 -0.056524992
0.022817526 0.09844013 -0.015324608 0.045667358 -0.027589913 -0.06991476 -0.07479094 -0.06750622
-0.04657974 -0.086310185 -0.02368061 -0.0676253 -0.03911548 -0.103878476 0.00043113154 0.06245583
-0.10496097 0.061795495 -0.1169348 0.010904098 -0.01705328 0.0127606215 0.09307428 -0.06852082
-0.05570457 0.037117925 -0.0034542817 0.039864235 8.439071e-05 0.049840234 -0.0073488783 0.04359075
-0.04441677 0.06487087 -0.013101468 -0.052441303 -0.027605921 -0.015606398 0.010156279 0.0575099
-0.058552973 0.0007124911 -0.011265463 0.009756455 0.024013767 -0.022357449 0.046214886 -0.10938097
0.09523328 0.014936108 0.10608266 -0.08654676 0.08645571 -0.084399216 0.011650826 0.0038967535
-0.051553655 0.097305536 0.027376449 0.0567901 0.121072635 0.08745667 -0.032688152 -0.10853931
0.023581995 0.12981375 -0.05788786 0.056120735 -0.017431112 0.012498087 0.012696259 0.09677
-0.0039036311 -0.05173986 0.084944464 -0.025398443 -0.03617808 -0.10367293 0.0054677445 0.046544116
0.022742605 0.0083073145 -0.003620338 0.027123155 -0.03209645 0.022258317 0.107055075 0.017523902
0.10830016 -0.05273046 -0.054019585 -0.007713096 0.0022180695 0.080610305 -0.019611238 -0.012360411
-0.022346273 0.0026110052 -0.041966565 -0.057656996 -0.007186478 0.0010617318 0.006358531 0.0100539
0.019668255 -0.0023650753 0.11340776 0.14064106 -0.05837826 0.00854254 0.032802604 -0.08303117
0.011607753 -0.023067363 0.13072723 0.10630092 -0.026259253 0.06639649 0.006994426 -0.085252285
0.09450908 -0.065088145 -0.088807 0.047267295 0.007949973 0.009923509 0.08999145 -0.084618635
-0.04335812 0.12073311 0.044599902 -0.1096536 -0.030830324 -0.075312436 0.013341586 -0.12106437
0.0069660447 0.002367877 -0.066546805 -0.012829235 -0.051543128 0.0036122233 -0.100235656 -0.10550417
-0.08561563 0.06965851 -0.115543425 0.07657548 -0.0033810637 0.057869475 -0.07914497 -0.019487431
-0.019459289 0.020075552 -0.042617314 -0.023053579 -0.005564696 0.040218905 0.009318818 -0.04423969
-0.104504414 0.0695048 0.04042011 0.13889219 -0.020083291 -0.067840055 0.007917395 0.010088862
0.0031648292 -0.05180438 -0.004064856 -0.014706138 -0.085012875 0.055598244 -0.06570951 -0.1402642
00000000: 55f3 25bd e3ae 5c3d 9fda 3ebd c447 9a3d
00000010: f268 5abd 61cd ab3d 094e 10b9 89e5 f3bb
00000020: 1d2e 60bb 3880 f43b 2a5e 383d e01c 983d
00000030: 89ec bc3d b133 1c3d 873f 743d ec57 86bd
00000040: 1d1b a33d 52c8 433c 5ae4 62bd 83ee 8b3b
00000050: 18b2 25bd 5c5d 5b3c 3a54 1dbc d3d2 d33d
00000060: ff5a 92bc 5d0b 2fbd 36f8 06bd 86b3 fa3a
00000070: f09b 86bd 0836 b1bc 9abd 033c 0142 97bd
00000080: 4514 26bd ef13 6e3d dbd6 95bb 5f17 fbba
00000090: b95d 0e3e 62fe 66bd 4b9c 06be 15ae c2bd
000000a0: 355f ec3d 9723 9b3c 8ba3 903d e23f de3d
000000b0: 6722 2b3d 0efc afbd ff48 093d 2b69 40bc
000000c0: 0f45 8dbd 8d70 9bbc 5bd0 d5bb b8bf 403d
000000d0: 6451 05bd 318c 99bc d5cb 8ebd d6e0 ebbd
000000e0: b430 253d 7474 4a3b 7a59 2b3d 0d25 ff3d
000000f0: 2a3a f0bc 3b61 8a3d edb7 b43c 3593 853d
00000100: 2b48 6a3d 8c5a 7cbc 812b 1cbd 3615 b53d
00000110: 5ecc c63d 9912 023d 0865 5b3c 60aa a3bd
00000120: 012a babb 7687 cf3d 3e7e fc3c 5516 923c
00000130: a7cc fbbd 646f c9bd a8f7 e93d c086 67bd
00000140: d2eb ba3c fb9a c93d 1114 7bbc b20d 3b3d
00000150: 3e04 e2bc 782f 8fbd fe2b 99bd b340 8abd
00000160: 66ca 3ebd 65c3 b0bd d7fd c1bc 227f 8abd
00000170: 8e37 20bd 3dbe d4bd 7f09 e239 afd1 7f3d
00000180: c7f5 d6bd 461d 7d3d 837b efbd 1aa7 323c
00000190: 52b3 8bbc ed11 513c ba9d be3d a554 8cbd
000001a0: 7a2a 64bd f708 183d 3b61 62bb ae48 233d
000001b0: ebfa b038 4625 4c3d dcce f0bb 378c 323d
000001c0: 5cee 35bd 05db 843d 8aa7 56bc b1cc 56bd
000001d0: d025 e2bc fab1 7fbc 8666 263c 808f 6b3d
000001e0: 3ed5 6fbd 78c6 3a3a c792 38bc 8ad9 1f3c
000001f0: 85b8 c43c f826 b7bc d24b 3d3d 2103 e0bd
00000200: aa09 c33d 94b6 743c de41 d93d 6d3f b1bd
00000210: b10f b13d 7fd9 acbd 1be3 3e3c ad60 7f3b
00000220: ed29 53bd 2048 c73d 9344 e03c bc9c 683d
00000230: eef4 f73d 7c1c b33d 03e4 05bd dc49 debd
00000240: 072f c13c e5ed 043e d21b 6dbd dbde 653d
00000250: b1cb 8ebc c7c4 4c3c f803 503c 5a2f c63d
00000260: 10d4 7fbb 2ded 53bd 5df7 ad3d 6510 d0bc
00000270: 772f 14bd 7952 d4bd c42a b33b 0ba5 3e3d
00000280: b34e ba3c 671b 083c 3143 6dbb 6131 de3c
00000290: 9177 03bd 1357 b63c b13f db3d 498e 8f3c
000002a0: 79cc dd3d e5fb 57bd a443 5dbd 24be fcbb
000002b0: 085d 113b 0417 a53d bfa7 a0bc 5283 4abc
000002c0: 880f b7bc 661d 2b3b 22e5 2bbd be29 6cbd
000002d0: 8c7c ebbb cf29 8b3a 395b d03b 1db9 243c
000002e0: 521f a13c 61ff 1abb 5442 e83d 3604 103e
000002f0: 0b1e 6fbd 02f6 0b3c 065c 063d 3f0c aabd
00000300: 722e 3e3c c4f7 bcbc 5cdd 053e 4cb4 d93d
00000310: a51d d7bc e2fa 873d 7f31 e53b c098 aebd
00000320: fa8d c13d ef4c 85bd 72e0 b5bd 5a9b 413d
00000330: 9b40 023c 3796 223c 704d b83d 894c adbd
00000340: 4998 31bd ec42 f73d 63ae 363d 1192 e0bd
00000350: e08f fcbc 683d 9abd ab96 5a3c 99f0 f7bd
00000360: 6b43 e43b 622e 1b3b b149 88bd b631 52bc
00000370: e31e 53bd 0dbb 6c3b 5a48 cdbd 9212 d8bd
00000380: 3f57 afbd 1fa9 8e3d 08a2 ecbd 9bd3 9c3d
00000390: d694 5dbb 8b08 6d3d c216 a2bd 1ba4 9fbc
000003a0: 1669 9fbc 7c75 a43c 7e8f 2ebd dcda bcbc
000003b0: 0e58 b6bb 94bc 243d f5ad 183c ad34 35bd
000003c0: 6906 d6bd 8858 8e3d 8f8f 253d c139 0e3e
000003d0: b785 a4bc baef 8abd f6b7 013c c14b 253c
000003e0: 0669 4f3b d430 54bd 7c32 85bb 03f2 70bc
000003f0: 3b1b aebd fcba 633d b592 86bd 6ba1 0fbe

fc2.weight f4 [600, 300]
-0.006084086 0.022165798 0.010110278 -0.0028679383 0.005954018 -0.0002903578 0.008409074 0.0038740926
-0.019129336 0.011543877 0.015454107 -0.008340924 0.02530466 0.011179166 0.012859734 0.020525753
0.009770047 -0.011759644 0.00024308394 -0.01629469 -0.00959127 -0.0060769594 -0.011492767 -0.006988062
-0.0059039555 0.00961313 0.01119126 -0.020052055 0.0014168434 0.011542895 0.01178864 0.04504391
0.016243573 -0.030479077 -0.005900442 0.022642778 -0.0023525322 -0.00022465861 -0.013257037 0.01769625
0.014903774 -0.003788702 -0.0017042417 0.009221947 -0.012896529 -0.014314986 0.02339381 -0.010463407
-0.041307103 0.012083423 0.0039637806 -0.011009258 -0.019577475 -5.6834153e-05 -0.041901875 -0.012329526
-0.0038281686 -0.015377594 -0.009926976 0.0011732536 0.014912532 0.018444572 -0.008829309 -0.0018845511
0.023399867 0.0010462017 0.011656871 -0.030129611 -0.014257067 0.011344811 -0.00214299 -0.016882563
-0.0022201769 -0.002877994 0.012451051 -0.0015782934 -0.010421833 0.0018738254 -0.015994128 0.007373466
-0.06280494 0.0011107592 -0.0049157715 -0.053003523 -0.011948831 0.003218233 -0.01561962 0.0056616897
0.026096731 -0.012314969 -0.0064048185 0.003332849 0.0143958265 0.0017463979 -0.002671323 0.007202654
0.0022512898 -0.0033396524 -0.002593474 -0.00077044475 0.01581165 -0.0030450448 -0.031143744 -0.0161151
-0.031240102 0.020246109 -0.019920059 -0.01589434 -0.014563748 0.011927116 0.0130546745 0.01636078
-0.0204752 -0.016270224 -0.0039968896 0.008272549 0.010094509 0.0048569916 -0.01573193 0.0013075591
-0.023531495 -0.008458413 0.003853059 0.015765518 -0.01249934 -0.013029904 0.017911196 -0.0008565863
-0.021501603 0.013621214 0.008392449 0.00039667878 0.004281594 0.0019804747 0.018711181 0.0003325601
0.0067040324 -0.0028306276 -0.013443221 0.030216565 0.0009999424 -0.00017473775 0.037000835 0.00011455843
-0.0415666 0.00024472002 -0.024280556 0.011368842 0.05123009 -0.0010780573 0.0070184353 -0.02785023
0.016590035 0.009919224 -0.003580914 0.009051086 -0.02273563 0.054359727 -0.020370154 -0.0076972325
0.0019129929 -0.013082991 -0.003907397 0.012359479 -0.012066011 0.008080529 -0.065720946 0.012426172
-0.029422965 0.0082302345 0.035438627 -0.011644429 0.015444145 -0.015003634 0.0043200343 -0.00952062
-0.010470102 0.012986488 -0.0016013338 0.035556775 -0.0107760215 -0.020775605 0.01004453 -0.0056695207
-0.010220613 -0.015524862 0.012987934 0.004207904 0.017713984 -0.00826656 -0.007148664 0.0026552663
-0.007227133 -0.023274697 0.013811555 -0.03212156 -0.005959579 -0.002315718 0.009204012 0.0066829817
0.029851422 0.015568029 -0.009847874 0.017085943 0.01143608 -0.0056061773 -0.005089338 -0.011659258
-0.0013468924 -0.0015353651 -0.008622362 0.045959085 -0.060140256 0.0035586073 -0.003240713 -0.008540009
-0.009200612 -0.009434299 0.0018721186 0.01173912 0.024223154 0.0020422137 -0.012762762 0.0042876527
0.0043448033 0.110296205 0.0129296305 -0.00591285 -0.020067686 -0.0033421812 0.010348942 -0.0033655597
0.009265528 -0.010934327 -0.016977623 0.014890051 0.012441961 -0.019978598 0.0026688091 0.0034147438
0.0029202623 0.03236977 -0.015261416 0.017588116 0.0034696364 -0.009022001 0.0097326515 -0.012066266
0.012180775 0.0058029266 -0.016029911 0.01363117 0.0015434376 0.014837863 -0.0035097594 -0.020618314
00000000: 035d c7bb 0c95 b53c 94a5 253c 05f4 3bbb
00000010: ec19 c33b 2a3b 98b9 36c6 093c 7de4 7d3b
00000020: 20b5 9cbc 8822 3d3c 3933 7d3c 5fa8 08bc
00000030: b84b cf3c d228 373c a2b1 523c a025 a83c
00000040: 8c12 203c 86ab 40bc 59e4 7e39 717c 85bc
00000050: b424 1dbc 3b21 c7bb 294c 3cbc 1dfc e4bb
00000060: f875 c1bb 6480 1d3c 8c5b 373c 3544 a4bc
00000070: 60b5 b93a 691e 3d3c 2425 413c f77f 383d
00000080: 3e11 853c 42af f9bc 7f58 c1bb 597d b93c
00000090: f12c 1abb 5692 6bb9 0b34 59bc baf7 903c
000000a0: f52e 743c df4b 78bb dd60 dfba a617 173c
000000b0: f74b 53bc 6789 6abc 60a4 bf3c b66e 2bbc
000000c0: a331 29bd 8df9 453c 9ae2 813b 2d60 34bc
000000d0: f160 a0bc 3561 6eb8 4da1 2bbd c801 4abc
000000e0: 03e2 7abb 4ef2 7bbc c1a4 22bc dcc7 993a
000000f0: b153 743c 1219 973c cea8 10bc 0b03 f7ba
00000100: 14b1 bf3c b420 893a 76fc 3e3c 60d2 f6bc
00000110: 7996 69bc 96df 393c 6871 0cbb 4d4d 8abc
00000120: 6380 11bb ba9c 3cbb 7eff 4b3c bdde ceba
00000130: 56c0 2abc 269b f53a 1e06 83bc 1e9d f13b
00000140: e09f 80bd e596 913a 7b14 a1bb 391a 59bd
00000150: 08c5 43bc fde8 523b 6fe9 7fbc b285 b93b
00000160: d0c8 d53c b9c4 49bc 83df d1bb ed6b 5a3b
00000170: 79dc 6b3c 64e7 e43a 5d11 2fbb 3e04 ec3b
00000180: 608a 133b 12de 5abb 46f7 29bb acf7 49ba
00000190: 6f87 813c 608f 47bb 2a21 ffbc d003 84bc
000001a0: 3eeb ffbc 2bdb a53c 642f a3bc d934 82bc
000001b0: c99c 6ebc f369 433c 46e3 553c 0b07 863c
000001c0: 9bbb a7bc 2249 85bc 57f8 82bb 9689 073c
000001d0: 7163 253c 6627 9f3b 40e0 80bc 6762 ab3a
000001e0: 1fc5 c0bc 2895 0abc 9a83 7c3b b026 813c
000001f0: 08ca 4cbc 617b 55bc 80ba 923c 898c 60ba
00000200: 2124 b0bc 832b 5f3c 7b80 093c 53f9 cf39
00000210: 9d4c 8c3b daca 013b 3148 993c 765b ae39
00000220: 80ad db3b 0d82 39bb f540 5cbc bb88 f73c
00000230: 8010 833a cf39 37b9 308e 173d 173f f038
00000240: bd41 2abd c44d 8039 04e8 c6bc 6144 3a3c
00000250: a5d6 513d 9a4d 8dba e7fa e53b 2a26 e4bc
00000260: d3e7 873c 3e84 223c c5ad 6abb 024b 143c
00000270: 1240 babc 4ea8 5e3d 4fdf a6bc 1139 fcbb
00000280: 64bd fa3a 0b5a 56bc 9f09 80bb 6a7f 4a3c
00000290: 85b0 45bc 3264 043c b498 86bd 2597 4b3c
000002a0: 6e08 f1bc 1bd8 063c 1828 113d 46c8 3ebc
000002b0: 7009 7d3c cdd1 75bc 138f 8d3b 60fc 1bbc
000002c0: ca8a 2bbc 47c5 543c d9e3 d1ba fba3 113d
000002d0: e98d 30bc 9a31 aabc d091 243c 63c7 b9bb
000002e0: 5c74 27bc fe5b 7ebc 58cb 543c 75e2 893b
000002f0: eb1c 913c 7770 07bc 573f eabb fa03 2e3b
00000300: 96d1 ecbb 94aa bebc dc49 623c e691 03bd
00000310: 9248 c3bb 4dc3 17bb 6dcc 163c eafc da3b
00000320: f88a f43c 0c11 7f3c fa58 21bc d2f7 8b3c
00000330: 655e 3b3c 06b4 b7bb 76c4 a6bb 7906 3fbc
00000340: 368a b0ba 4e3e c9ba cf44 0dbc 983f 3c3d
00000350: a155 76bd 8637 693b 2462 54bb 65eb 0bbc
00000360: 2abe 16bc 5192 1abc e061 f53a 7055 403c
00000370: a36f c63c a9d6 053b e71a 51bc 707f 8c3b
00000380: da5e 8e3b fae2 e13d cdd6 533c 95c0 c1bb
00000390: fd64 a4bc 7f08 5bbb 9c8e 293c b990 5cbb
000003a0: 71ce 173c e425 33bc a814 8bbc 67f5 733c
000003b0: 5ed9 4b3c 28aa a3bc 30e7 2e3b e5c9 5f3b
000003c0: df61 3f3b 2a96 043d 050b 7abc f414 903c
000003d0: d762 633b 04d1 13bc b375 1f3c 96b1 45bc
000003e0: e091 473c 7a26 be3b 2951 83bc 4555 5f3c
000003f0: 2c4d ca3a 821a 733c fe03 66bb bde7 a8bc

fc2.bias f4 [600]
-0.029625716 -0.050104868 0.028256642 0.016909758 -0.04284027 0.047026668 0.03048755 0.15049008
-0.013080951 0.01937206 -0.058685012 0.025176479 -0.006226442 0.09960018 -0.04264048 -0.06301412
-0.037447188 0.030072348 -0.015692862 0.020439599 0.03895938 -0.024022214 -0.019143177 0.0148708
0.042509865 -0.021210112 0.005514402 0.031593155 0.019133497 -0.038499665 0.012776852 0.02853691
0.0317611 -0.02985021 0.010378492 -0.0193499 0.029873462 0.012844186 0.023791477 0.009363352
0.03388306 0.036360096 0.049608182 0.06291379 -0.048938762 0.02894782 -0.015083011 0.029704167
0.044749435 0.009842009 0.005717835 0.032841206 0.017944038 -0.048170287 0.021757387 -0.022936046
-0.028417993 0.05765512 -0.026589368 -0.07490069 0.0069788466 -0.041035295 -0.029452246 -0.013507587
0.031571053 -0.035425976 -0.019110031 0.033265814 0.043058548 0.018241607 0.043253634 -0.009919211
0.0021711574 -0.02219429 -0.03887105 0.00760726 -0.032503806 -0.0029856442 0.03136764 -0.036820818
0.010832699 -0.030315308 -0.043855794 -0.026453583 -0.036454156 0.041744094 0.041871823 0.057222743
0.0100250915 0.063455775 0.02914297 0.031227762 -0.035397522 0.026608123 0.024639932 -0.03908832
-0.03216337 0.05170983 0.058170967 0.030526068 -0.0030443436 0.0063675665 0.019179534 -0.026189405
0.01995836 -0.027645707 0.06431022 0.011261964 -0.012909258 -0.13768661 -0.012808688 0.023515752
0.010497304 -0.009525572 0.03402371 0.14681558 -0.063520215 0.011893354 -0.021039763 0.033658404
0.032017723 0.05788445 -0.029671125 -0.021616936 -0.057866815 -0.0006439252 0.0328297 0.02790515
-0.02473031 -0.013779636 -0.04623541 -0.036685623 0.03134414 0.03652778 0.020155683 -0.024296785
-0.009065198 -0.03455933 -0.034526985 0.014244769 0.017306514 -0.033514146 0.028706482 0.022275642
-0.048871208 0.024153214 0.042441204 -0.020206153 0.041870367 -0.007933957 -0.022542484 -0.030612735
-0.034625266 0.030268226 0.049730696 0.0357419 -0.01818638 0.017662095 0.016081575 -0.04621559
-0.064291485 -0.032418568 -0.027874243 -0.011129743 -0.025677523 -0.028447323 0.06805832 -0.029590933
0.028885532 0.020022916 0.04291283 -0.0173446 -0.006124893 -0.023196543 -0.021802343 -0.12590127
0.014579714 -0.042155415 0.019084673 -0.01567646 -0.03602592 0.02440282 0.020109542 0.032016017
-0.0017250414 0.04354969 -0.022204155 0.02308788 0.027748516 -0.029092098 -0.01370864 0.014336189
-0.027672334 0.06524354 -0.058288574 -0.02235165 -0.010199295 -0.011049249 0.020461358 0.00086777017
-0.003406289 -0.027803194 0.027599301 -0.029595599 0.0406162 0.025815507 0.03075002 0.036129504
-0.07245396 0.03382554 0.04646298 -0.02405088 0.06325195 -0.03395108 -0.0022134027 -0.031177314
-0.06558032 -0.025762964 -0.03134112 0.12917206 -0.032475285 -0.050596736 -0.036184844 0.04242502
0.041198615 0.034053013 -0.03225818 -0.033027183 -0.0031281423 0.03329125 0.024039602 -0.0057293475
-0.043126035 0.07277826 -0.012230619 -0.027417583 0.059872977 0.035580274 0.01878449 -0.030078992
0.040558722 0.01185526 -0.010025687 -0.010195283 0.019293884 -0.032628328 -0.035627153 0.009123454
-0.007971978 0.01248557 0.023876304 -0.044830598 -0.029574612 0.014297691 0.063248515 -0.066584624
00000000: a1b1 f2bc c33a 4dbd 797a e73c 5586 8a3c
00000010: 4779 2fbd 099f 403d 07c1 f93c 121a 1a3e
00000020: 7c51 56bc 28b2 9e3c b25f 70bd e73e ce3c
00000030: 2e07 ccbb 2efb cb3d c9a7 2ebd 8c0d 81bd
00000040: 3962 19bd 495a f63c 518e 80bc f270 a73c
00000050: df93 1f3d 3cca c4bc 27d2 9cbc a8a4 733c
00000060: d31e 2e3d d4c0 adbc 28b2 b43b d367 013d
00000070: dabd 9c3c d3b1 1dbd 0056 513c 3dc6 e93c
00000080: ed17 023d 6d88 f4bc 8d0a 2a3c ae83 9ebc
00000090: 31b9 f43c 6c70 523c 58e6 c23c bf68 193c
000000a0: f7c8 0a3d 53ee 143d f331 4b3d f2d8 803d
000000b0: 0374 48bd fb23 ed3c bc1e 77bc 2756 f33c
000000c0: 2f4b 373d 6140 213c ad5c bb3b 8084 063d
000000d0: 60ff 923c 354e 45bd 8c3c b23c 60e4 bbbc
000000e0: dacc e8bc c627 6c3d f2d1 d9bc 8865 99bd
000000f0: cfae e43b a014 28bd d645 f1bc ed4e 5dbc
00000100: a650 013d d41a 11bd a48c 9cbc bc41 083d
00000110: 295e 303d 6c6f 953c b92a 313d 3084 22bc
00000120: fa49 0e3b cdd0 b5bc 4037 1fbd 5246 f93b
00000130: b622 05bd ccaa 43bb 5b7b 003d 6dd1 16bd
00000140: a27b 313c cf57 f8bc 22a2 33bd 2fb5 d8bc
00000150: f450 15bd dbfb 2a3d ca81 2b3d 6562 6a3d
00000160: 4840 243c 1af5 813d 3dbd ee3c 5dd1 ff3c
00000170: fefc 10bd 47f9 d93c afd9 c93c 131b 20bd
00000180: bdbd 03bd b0cd 533d ae44 6e3d ce11 fa3c
00000190: 9c83 47bb 05a7 d03b 661e 9d3c 2a8b d6bc
000001a0: b77f a33c 4079 e2bc 14b5 833d 1a84 383c
000001b0: 5a81 53bc b8fd 0cbe 88db 51bc 1ba4 c03c
000001c0: e2fc 2b3c 2511 1cbc 725c 0b3d d356 163e
000001d0: e316 82bd 58dc 423c 955b acbc 65dd 093d
000001e0: 0425 033d 3f18 6d3d dc10 f3bc 0016 b1bc
000001f0: c105 6dbd 17cd 28ba 6f78 063d 5799 e43c
00000200: 3897 cabc fbc3 61bc 5761 3dbd aa43 16bd
00000210: b762 003d 279e 153d 881d a53c 0d0a c7bc
00000220: 3286 14bc 168e 0dbd 2b6c 0dbd e462 693c
00000230: 64c6 8d3c 2146 09bd db29 eb3c 687b b63c
00000240: 2d2d 48bd f6dc c53c d4d6 2d3d 6087 a5bc
00000250: 4380 2b3d 6dfd 01bc 04ab b8bc 8fc7 fabc
00000260: 39d3 0dbd 12f5 f73c 6ab2 4b3d 1966 123d
00000270: 9afb 94bc 19b0 903c 82bd 833c 8f4c 3dbd
00000280: 41ab 83bd 55c9 04bd 8658 e4bc 8759 36bc
00000290: ab59 d2bc 5c0a e9bc 2962 8b3d af68 f2bc
000002a0: 5aa1 ec3c 1907 a43c 5dc5 2f3d 4316 8ebc
000002b0: 54b3 c8bb ad06 bebc d49a b2bc 43ec 00be
000002c0: c1df 6e3c 28ab 2cbd 7657 9c3c eb6b 80bc
000002d0: ea8f 13bd 6ce8 c73c c4bc a43c 3a23 033d
000002e0: c91a e2ba 2961 323d 7de5 b5bc cb22 bd3c
000002f0: db50 e33c 8d52 eebc 349a 60bc 56e2 6a3c
00000300: 17b1 e2bc 689e 853d 00c0 6ebd cf1a b7bc
00000310: f21a 27bc e907 35bc 949e a73c 127b 633a
00000320: 0c3c 5fbb 86c3 e3bc ee17 e23c 7872 f2bc
00000330: 2c5d 263d 0b7b d33c 77e7 fb3c 88fc 133d
00000340: be62 94bd a68c 0a3d f74f 3e3d 5a06 c5bc
00000350: 3d8a 813d 4a10 0bbd bc0e 11bb 9167 ffbc
00000360: fa4e 86bd da0c d3bc 8c5f 00bd ae45 043e
00000370: ce04 05bd 863e 4fbd 8f36 14bd dcc5 2d3d
00000380: e1bf 283d 2c7b 0b3d 2721 04bd 8347 07bd
00000390: 8501 4dbb 685c 083d b3ee c43c 40bd bbbb
000003a0: eda4 30bd c50c 953d ef62 48bc d79a e0bc
000003b0: 5e3d 753d 9fbc 113d eee1 993c 3868 f6bc
000003c0: e720 263d 903c 423c c742 24bc 1e0a 27bc
000003d0: 350e 9e3c 48a5 05bd c7ed 11bd 8a7a 153c
000003e0: e69c 02bc 4790 4c3c 3d98 c33c 4aa0 37bd
000003f0: 7546 f2bc dd40 6a3c 7088 813d 855d 88bd

fc3.weight f4 [1, 600]
8.73248e-05 0.0008057108 0.0009203243 -0.0003540738 -0.00087312644 -0.105426416 0.00020615247 -0.0072144973
-0.0009845108 0.00047903034 0.024707463 -0.00015531399 -0.00072521874 -0.018516224 -0.001960256 0.031222144
-0.00062737265 0.00054589286 0.025914203 0.0005467555 0.00049343443 0.02634212 -0.0008250642 0.0048356666
-0.0019317298 0.005866045 0.00799006 -4.253985e-05 0.0006707875 -0.00058322464 -0.0003874065 0.0006001405
-2.5587766e-05 -0.00028041482 -0.00086054154 -0.0052310005 0.00053264166 0.0006117994 -0.025179984 0.00011493759
0.0011756069 -0.00044411008 -0.012162263 -0.030133067 0.10404193 0.00073886814 -0.004724047 0.00025089804
-0.014591595 -0.028819202 0.00031005187 -0.0007964479 -0.016448466 0.006054504 0.00017694879 -0.0010837008
0.00014057966 -0.019799763 1.684014e-05 0.01031986 0.00077949365 0.10198945 3.85269e-05 -1.6800022e-05
-0.000113922804 -0.00022695617 -0.020513894 -0.0009356769 0.00025613917 0.0009771811 0.00056370976 -0.00025020455
0.011464685 -0.00042582356 0.021663038 0.0007696812 -0.00071098394 -0.018908823 0.000113768925 -0.00062055775
0.00088075426 -0.0005124468 -0.0010695148 -0.00082184613 3.900519e-06 0.00082189875 0.0008463934 0.000996157
0.0005541796 -0.030298691 0.0009601289 0.0005176753 -0.00027388075 0.0038580613 0.00044000248 -0.00024750896
-0.00051727967 0.0003122345 -0.016673718 0.00053018966 -0.012334481 0.00060356775 0.0006271536 -0.00092803553
0.014666436 -0.00062753336 -0.036166094 -0.0002936645 0.0057995296 -0.00071655784 -0.00025466748 0.00043445945
3.9063514e-05 -0.000598647 0.0012087394 -0.0058294027 0.030899424 0.00015590586 -0.0006935643 0.00073624763
0.00051361986 -0.02530379 -0.0005083817 0.030524084 0.025338497 0.00072539924 0.020086912 0.0001862923
0.019887265 -0.001049415 -0.00035263674 0.010113863 0.0006988423 0.00014153201 0.000102562495 -0.00041466308
-0.0005223411 -0.0006793237 0.008680759 0.0041469946 0.00030134682 -0.00034340465 0.00016421398 1.0103484e-05
-0.00027653002 0.00070847553 -0.010538521 6.584279e-05 0.00026532434 -0.0008072842 0.028920315 -0.00022868192
-0.0009990982 -0.000442113 0.0015278036 0.0015895511 -0.00085194083 7.136418e-05 0.044228684 0.00034047864
0.039722852 -5.93843e-05 -0.00080074865 -0.00027947256 0.0003751642 -0.00033063572 -0.0008654752 -0.00041482103
-0.09437347 0.04191056 -0.011471208 7.6101445e-05 0.0006502027 0.02543066 0.023271764 0.00010353269
0.0010532343 -0.0010088342 0.0010722519 -0.0060003763 -0.0002675173 -0.02658691 0.0006736511 7.855999e-05
2.7216207e-05 -0.00010974718 -0.00058003556 0.017507493 0.00034430175 5.4026375e-05 0.00019869064 0.00014368315
0.00014422824 -0.00026266603 -0.0014080189 0.020070273 -0.00018245066 -6.36438e-05 -0.029121447 0.0007485982
-0.012142224 -0.00011539727 5.1771094e-05 -0.00086600246 0.00079946505 0.0003414122 0.00017939668 0.00016978945
-8.117704e-05 0.0006525497 0.00030150413 0.025465665 -0.031094318 6.19391e-05 0.06578274 -0.0044274298
0.038090065 -0.00045603584 0.0009787065 -0.018679874 0.00013825571 -0.00014600845 -4.5982765e-06 0.0007125929
0.00085683103 5.532836e-05 -0.00091595773 -0.0006107671 0.0009228143 -0.09686593 0.00028841462 8.883742e-05
-0.0006629188 0.023468899 -0.00031195962 -0.00040446193 0.00086953136 0.00078624225 0.00043179974 -0.00045743096
0.00022788903 6.187438e-05 -0.0145884985 0.0010288451 0.00045877427 -0.0001823692 -0.0010788189 -0.028194781
-0.00020023457 0.0002933837 0.0009896202 0.10488725 -0.00047389924 0.0008817768 -0.03000058 0.00037354408
00000000: 2522 b738 5636 533a eb41 713a fba2 b9b9
00000010: 86e2 64ba cee9 d7bd a22a 5839 9767 ecbb
00000020: b30a 81ba 5d26 fb39 4e67 ca3c c8db 22b9
00000030: 9b1c 3eba 56af 97bc a377 00bb 95c5 ff3c
00000040: 4476 24ba 401a 0f3a 064a d43c 2454 0f3a
00000050: d359 013a 6ecb d73c 1f49 58ba 8374 9e3b
00000060: 1932 fdba f437 c03b bee8 023c d16c 32b8
00000070: cad7 2f3a 8be3 18ba d21c cbb9 bf52 1d3a
00000080: 4fa5 d6b7 a404 93b9 f795 61ba d068 abbb
00000090: faa0 0b3a 2a61 203a 4146 cebc a60a f138
000000a0: d216 9a3a 72d7 e8b9 3a44 47bc 9fd9 f6bc
000000b0: ef13 d53d 9ab0 413a 2ecc 9abb f78a 8339
000000c0: 9611 6fbc 3f16 ecbc 758e a239 b7c8 50ba
000000d0: efbe 86bc dc64 c63b 548b 3939 f70a 8eba
000000e0: 9168 1339 1d33 a2bc ed43 8d37 a114 293c
000000f0: ef56 4c3a d8df d03d f297 2138 c6ed 8cb7
00000100: d7e9 eeb8 15fb 6db9 c10c a8bc 3748 75ba
00000110: 6b4a 8639 c214 803a ecc5 133a e32d 83b9
00000120: 60d6 3b3c 1241 dfb9 af76 b13c 6ec4 493a
00000130: 5361 3aba ade6 9abc 3a97 ee38 edac 22ba
00000140: 6be2 663a b955 06ba f62e 8cba 2971 57ba
00000150: 34e1 8236 b174 573a 80e0 5d3a 7b91 823a
00000160: 5d46 113a f634 f8bc 29b1 7b3a 9ab4 073a
00000170: a797 8fb9 87d7 7c3b 22b0 e639 17c4 81b9
00000180: 0d9a 07ba 68b3 a339 5297 88bc 6dfc 0a3a
00000190: 9016 4abc bf38 1e3a 9167 243a 6947 73ba
000001a0: 7e4b 703c 0d81 24ba e622 14bd fbf6 99b9
000001b0: fb09 be3b 62d7 3bba e484 85b9 29c8 e339
000001c0: 21d8 2338 85ee 1cba 906e 9e3a 9304 bfbb
000001d0: ca20 fd3c a97a 2339 50d0 35ba be00 413a
000001e0: 72a4 063a e549 cfbc eb44 05ba a50d fa3c
000001f0: ae92 cf3c b828 3e3a 4f8d a43c 7557 4339
00000200: 9eea a23c 868c 89ba 1ae2 b8b9 9eb4 253c
00000210: 8332 373a 3668 1439 d216 d738 2367 d9b9
00000220: b8ed 08ba a414 32ba be39 0e3c 83e3 873b
00000230: 16fe 9d39 fe0a b4b9 db30 2c39 2282 2937
00000240: 3bfb 90b9 fdb8 393a c3a9 2cbc 1415 8a38
00000250: 3b1b 8b39 ed9f 53ba 4cea ec3c 56ca 6fb9
00000260: 2cf4 82ba 67cb e7b9 9540 c83a 7c58 d03a
00000270: c854 5fba 5aa9 9538 2329 353d 4582 b239
00000280: 6eb4 223d 6813 79b8 55e9 51ba 2c86 92b9
00000290: b0b1 c439 2d59 adb9 0fe1 62ba 567c d9b9
000002a0: e146 c1bd 68aa 2b3d bcf1 3bbc a798 9f38
000002b0: 5d72 2a3a f653 d03c 6da4 be3c b11f d938
000002c0: ae0c 8a3a dc3a 84ba ce8a 8c3a ce9e c4bb
000002d0: 9041 8cb9 cbcc d9bc f697 303a 93c0 a438
000002e0: 5c4e e437 1228 e6b8 870d 18ba e06b 8f3c
000002f0: 6683 b439 619a 6238 9d57 5039 a7a9 1639
00000300: f93b 1739 70b6 89b9 468d b8ba 6a6a a43c
00000310: 3a50 3fb9 8178 85b8 1a90 eebc 933d 443a
00000320: 2ef0 46bc 7001 f2b8 ca24 5938 7104 63ba
00000330: 3193 513a 92ff b239 6e1c 3c39 8209 3239
00000340: 973d aab8 de0f 2b3a 3313 9e39 5f9d d03c
00000350: 83b9 febc 4de5 8138 1ab9 863d f913 91bb
00000360: 5404 1c3d 1818 efb9 f147 803a 8906 99bc
00000370: bcf8 1039 d819 19b9 e54a 9ab6 4dcd 3a3a
00000380: f59c 603a 6010 6838 e21c 70ba e31b 20ba
00000390: 05e9 713a a561 c6bd 5b36 9739 3a4e ba38
000003a0: bac7 2dba d941 c03c 838e a3b9 f60d d4b9
000003b0: 43f1 633a d31b 4e3a 2e63 e239 58d3 efb9
000003c0: 7ff5 6e39 8ec2 8138 9904 6fbc 50da 863a
000003d0: a487 f039 5c3a 3fb9 2867 8dba bef8 e6bc
000003e0: 0ff6 51b9 4bd1 9939 25b6 813a 20cf d63d
000003f0: ae75 f8b9 0a27 673a c7c3 f5bc 3dd8 c339
