Deterministic-GAIL/weights/GAIL_actor.pth (torch_old, 767283 bytes, 7 tensors)

fc1.weight f4 [300, 29]
00000000: c2d8 dd3e 6d56 893c 05b7 c03e a945 2f3e
00000010: f1d4 1e3e 9d6b 853d 2e63 e93c 5532 8c39
00000020: d210 6dbb 8cb0 e03a 098b 053b 4e2a ad3a
00000030: 10de 04ba 35a2 b83b dba3 353c 0c0a 163c
00000040: 041b 833d 79e1 6abc fd42 b0be 926e c6bd
00000050: a00b e43d 9564 adbc f5e4 bd3d aafd 8d3e
00000060: d688 043c 780b a8bb 4ab5 13bb f650 1cbc
00000070: 6b05 773d cc65 a2bc 20aa b83d d3ad 3fbe
00000080: 2b3e 21be 36b3 c9bd 852c 1cbd 0234 b4bc
00000090: 3b54 97bc a527 f8bc be90 21bd 53fb 37bd
000000a0: f299 4bbd 9b7c 71bd 3942 9bbd 84ee c7bd
000000b0: 0bbb febd 5807 32be 051f 7bbe e90e b33c
000000c0: b032 e53e e36b c53d 8ca5 383d c955 a7bc
000000d0: 48ec f23e 22e2 bd3c 9b5e 103d 6774 cc3c
000000e0: 194b 013d 0411 6c3d f511 13bf fdca 9fbd
000000f0: 788b 75be 9628 ccbd 201e c5bd 8df9 44bd
00000100: e39f aabc 9802 bbbb ed3b 81ba 4382 f23b
00000110: 289d 9f3c 82cb d23c 23ea 013d 5b16 ce3c
00000120: aa89 6c3c d16a 873b 8747 87bb b47e c63d
00000130: 7b5a 903d dd00 bc3c 6179 83bd defa 3f3d
00000140: ad86 9cbe 8afe 01bf 9833 033d 011b 2c3d
00000150: 1892 363d 1fc6 273d 8899 93bc 311d 70b8
00000160: 87d4 0bb9 c9b1 6037 8f71 0938 f353 10b9
00000170: 1a58 5639 c96b 11b8 4614 e4b5 30d5 0838
00000180: 6315 ac36 8144 04b9 eb9f 60b8 63c3 9337
00000190: 10b6 ad37 06ca 7338 4e9f 24b8 cd43 83b7
000001a0: b662 ec38 d593 d638 dca9 abb8 3723 12b9
000001b0: 3597 18b7 a4ce acb7 767c 84b7 0750 05b9
000001c0: 69e5 84b7 f8c4 0038 0f4b 78b7 f184 d1b8
000001d0: 6cfd d43f aeb4 c7bd 4961 a83d 2696 88be
000001e0: 72f1 f6bd b15a 6fbd c507 efbc 3034 77bc
000001f0: 8097 0a3c 512d dd3c 38ce 233d 4411 583d
00000200: 5551 873d 6f5a b83d e4b4 023e 5d9f 483e
00000210: 0d24 b53e 62a6 ac3e a1cd 81bd c47f 8fbe
00000220: d211 ef3d b229 2e3c f8b8 923f 2e0d eb3e
00000230: 4001 8f3c 0e23 a93c fbcf a83c 4ba1 b13c
00000240: f978 b0bd 30c5 acb7 7112 99b8 4856 8eb5
00000250: 31c4 5cb8 33f1 63b8 1fd6 fd38 fb4a 9037
00000260: 0465 fbb8 6094 2d38 117d 7e37 2f79 1eb8
00000270: 2b44 8fb8 68a2 e6b8 ab1d f0b7 caf4 1f36
00000280: a69a 2239 a700 5c38 ebbc 5938 2148 a3b7
00000290: ccb1 3438 adf1 8e39 8023 f038 fec6 d7b7
000002a0: e0e0 c438 f514 0d38 e927 efb5 1457 e237
000002b0: 573a a9b9 d643 1936 c208 cabe 3c82 acbc
000002c0: 2f26 14be aae4 2fbe 76ee 10be c9b9 70bd
000002d0: 6a2e 0abd 76b0 b0bc 4a55 8abc 9e8f 52bc
000002e0: a5e8 87bb c0e7 943b 9208 813c fec1 7e3c
000002f0: 0758 ae3c a1eb 093d b387 0c3d 885d 3e3e
00000300: ab49 2e3d 599c 9a3d 5d74 92bc a1d5 0f3d
00000310: 886b 2b3e 7bd5 253e 4e14 a93b 6bec 6e3c
00000320: da45 eb3c e52b e93c 38e6 fa3b b4b7 8b3e
00000330: 2509 c93b 6a5f 3cbe c678 4e3e 04c3 d43c
00000340: 4612 ac3d 9b51 963d 4767 8c3d e904 3b3d
00000350: 5eba d33c ae00 493c b160 cd3b c06a 9c3b
00000360: df6b 9b3c 3fce a53c 04d1 5d3c 0d62 e0bc
00000370: 5a18 2d3d 43b3 043e 20b7 333d 6bcb d8bd
00000380: 6856 14bd 00f4 3d3f cc47 8d3f 38df 47bd
00000390: 8bbd 0ebd 24ab 25bd 72f8 f5bc f1b4 acbb
000003a0: aa93 28b8 5b84 5d38 5333 0eb8 2bbf d8b8
000003b0: 5fcb 6939 ba6c 4db8 9512 2f38 52be 2338
000003c0: aab9 0eb8 fdf1 90b8 e7cc adb8 ab8e df38
000003d0: 7c07 c138 7360 95b8 dbf3 09b9 a6da 0938
000003e0: eab3 bc38 22cb 0db9 0864 f237 b669 1d38
000003f0: 4df0 30b8 03db 6537 4c0c ecb6 49a0 d537
0.43329436 0.016764844 0.37639633 0.17116417 0.15510918 0.06514666 0.028489675 0.0002674038
-0.0036173356 0.0017142459 0.002037706 0.001321146 -0.000506849 0.005634571 0.0110864295 0.009157669
0.06401637 -0.014335983 -0.34426108 -0.09689058 0.1113503 -0.021166125 0.09272186 0.27732593
0.008089265 -0.0051283203 -0.0022538477 -0.009540787 0.0603079 -0.019823931 0.09016824 -0.18718652
-0.15746371 -0.09848635 -0.038128395 -0.021997456 -0.018472781 -0.030292341 -0.039444678 -0.044917416
-0.04970736 -0.058956724 -0.0758099 -0.0976229 -0.12438019 -0.17385614 -0.24523552 0.021857696
0.44765234 0.096397184 0.045079753 -0.020426648 0.47445893 0.023179118 0.035246473 0.024957849
0.03156576 0.057633415 -0.57449275 -0.07802389 -0.23978984 -0.09968679 -0.096248865 -0.048089553
-0.020828193 -0.0057070963 -0.0009859778 0.0074007823 0.019484118 0.025731806 0.03171743 0.025157144
0.014437119 0.0041326066 -0.0041284 0.096921355 0.07048508 0.02294963 -0.064196356 0.046870105
-0.305715 -0.5077902 0.032031626 0.04201794 0.04457292 0.040960427 -0.018017545 -5.7247646e-05
-0.00013335246 1.3392834e-05 3.2769105e-05 -0.00013764184 0.00020441451 -3.4671077e-05 -1.6993224e-06 3.2623473e-05
5.128489e-06 -0.0001261402 -5.3554697e-05 1.761475e-05 2.0707987e-05 5.8123864e-05 -3.924901e-05 -1.564799e-05
0.00011271743 0.00010231851 -8.185554e-05 -0.00013936764 -9.095112e-06 -2.0600222e-05 -1.5793583e-05 -0.00012713681
-1.5842454e-05 3.070102e-05 -1.4799428e-05 -9.990659e-05 1.6639838 -0.09751259 0.08221681 -0.26677054
-0.12057771 -0.0584361 -0.02917851 -0.015088126 0.008458972 0.026999148 0.039991587 0.05275084
0.0660731 0.09001624 0.12764317 0.19592042 0.35379067 0.3372069 -0.06338049 -0.28027165
0.11673321 0.010630058 1.1462698 0.45908493 0.01745665 0.020646598 0.020606985 0.021683356
-0.08616824 -2.059582e-05 -7.2990435e-05 -1.0604936e-06 -5.2634805e-05 -5.434565e-05 0.00012103863 1.7201053e-05
-0.00011987428 4.13846e-05 1.5168699e-05 -3.7782997e-05 -6.8314686e-05 -0.00010997505 -2.8624045e-05 2.3835332e-06
0.00015507135 5.2452695e-05 5.1912775e-05 -1.9464702e-05 4.308093e-05 0.00027264413 0.00011450704 -2.572266e-05
9.3878945e-05 3.3636537e-05 -1.7818503e-06 2.6981848e-05 -0.00032277658 2.2838262e-06 -0.39459807 -0.021058194
-0.14467691 -0.17177072 -0.14153466 -0.05877093 -0.03373567 -0.021568518 -0.016886372 -0.012851624
-0.0041476064 0.0045442283 0.015751157 0.015549181 0.02128221 0.03367198 0.0343091 0.18590367
0.042550724 0.07549352 -0.017877752 0.03511584 0.16740239 0.16194718 0.005159891 0.014582734
0.028719831 0.028463313 0.0076568387 0.27288592 0.0061351233 -0.18395773 0.20163259 0.025971897
0.08401923 0.07339784 0.06855636 0.04565898 0.025845703 0.012268228 0.00626763 0.004773468
0.018972335 0.020239947 0.013538603 -0.027390504 0.04225955 0.12959008 0.043875813 -0.10585674
-0.036215216 0.7420044 1.1037536 -0.048796862 -0.03484873 -0.040446416 -0.030025695 -0.0052705933
-4.0191844e-05 5.281377e-05 -3.3903238e-05 -0.000103352904 0.00022296373 -4.897707e-05 4.1740557e-05 3.9039478e-05
-3.402835e-05 -6.911529e-05 -8.287449e-05 0.000106600426 9.204351e-05 -7.122839e-05 -0.00013156181 3.2866978e-05
8.99805e-05 -0.00013522481 2.8895229e-05 3.7530168e-05 -4.2185467e-05 1.3700456e-05 -7.0347796e-06 2.5466217e-05

fc1.bias f4 [300]
00000000: 76d8 f5bc ccaf ef3d c9e6 34bd f897 c5b7
00000010: 4104 febd 67dd 4cb8 6067 243c 24e5 8e3c
00000020: 1db7 97b8 f008 1bbb 0000 0000 0063 3ab8
00000030: 9f5e 1bb8 839b e2b7 0ca4 10b8 498a babc
00000040: da37 df3b d85c d0bb b422 3cb7 0d5d 82bc
00000050: 8ad3 e9bd fba6 9eb8 9dc5 583a 9d27 683d
00000060: bb15 53bd 03f1 6cbd 1c4d 6b3d 7f5a 29b7
00000070: 6037 54bc 2e42 24bd 7b2c 14bc 7cc5 c83c
00000080: 0000 0000 7759 60bd 0000 0000 b910 e4bd
00000090: a42d c3bc 7104 b4bc 2a2b e2b7 20fd 7abc
000000a0: 095f 12bd e78e 593b 503f 0fbd 36fb 7cb8
000000b0: d21e aa3d 12b1 783d 3365 20b7 f58f 48bd
000000c0: 4106 193d 2e6c 41bd 0000 0000 f80d 38bd
000000d0: 7150 18bd e53a d33d 66ee 0fbd ae21 c8bb
000000e0: 7687 6dbd 0000 0000 0000 0000 637c f0bc
000000f0: 029d 16bd b28d 9db7 39c0 e4bb 74b4 4fbd
00000100: 0000 0000 5a04 44bc 7ded e2bc 349f 9cb7
00000110: 5a7b 72b8 0000 0000 bb6c 923b 8083 3abd
00000120: 19b5 2bb6 889d 993b 5912 d93c 1990 08bd
00000130: 0000 0000 7f9a 9ebc d4e9 743d 0cfe f7b6
00000140: 8a99 4dbd 03fa 23bd 303a 7b3d 0000 0000
00000150: 3a00 ac3b ccd1 c9bc 2ec5 eab7 39e9 febc
00000160: 31d9 48bd 0051 413b 205e ef3b d89a ccb6
00000170: 0000 0000 9c58 2c3d 9d95 19bc 0948 7db8
00000180: d0e5 5bbd 00dd 09b8 174f 49b7 0000 0000
00000190: 0000 0000 24c0 80bc b0bc 9bba 38c0 abbc
000001a0: 2fcd 63bd e4ff 0cbc 4024 d5bb 0000 0000
000001b0: 7e9a 643c f78e 3db8 0d3d 7eb8 0000 0000
000001c0: a6d6 223d 8b5a 1ab5 a9ad 4a3d c145 27bb
000001d0: 6819 093b 6d01 6d3d 21a3 17bd 6e6a 02bd
000001e0: bff8 52bd 0000 0000 3038 f33d 42e2 fa3d
000001f0: b7c3 1d3e a410 ebb6 e7e6 d3bc 702c 2bb8
00000200: 0000 0000 fbfe 6cbd 0000 0000 4229 14bd
00000210: ee07 45bd f310 573d 02e7 84bb 2e04 2fbc
00000220: d490 8dbd 0000 0000 d2bc 1dbc 0000 0000
00000230: f9eb e8bc ad6b 9d3d c9e2 0f3e ffb0 38b8
00000240: 5e86 51bd 2163 0ebc 6497 36bc 8679 9cb7
00000250: cc6c 92ba 9b72 f7bc a2b0 47bc c0e9 393d
00000260: 5009 81bd 0000 0000 956c dbb7 3e38 ab3d
00000270: 6a73 e6bb e75a 8db8 5e6d 23bd 77bd 213d
00000280: a43c e33b 2645 ca3d 67e3 a93c ee3b 513b
00000290: fab9 653d c812 27bd ec37 70bc 4d0e 37bd
000002a0: c9a0 e73d 0000 0000 6c30 98bd 8efa c53c
000002b0: 761b 10b7 cbe1 24bd acd8 3fb7 bf57 1db8
000002c0: c48a 46bd b4ec a0b8 0000 0000 66cd 95b8
000002d0: 9be8 f73c 0000 0000 5dce c739 be7b 25bd
000002e0: 0000 0000 1520 623d c310 e33d 63fb a5b8
000002f0: 0000 0000 5f60 c4bb 1589 02bd 6b45 36bd
00000300: 2dee acb7 f9ca bb3c f5ad 943b 1238 9eb7
00000310: 0000 0000 6434 b33d 8da2 003c 0000 0000
00000320: 78ca 3bb8 0000 0000 0a3b ea3b 7a08 50bc
00000330: d5dd 8fbc 0ec1 bcbb e5a1 b43b 199a 673b
00000340: 5b01 fe3b 0000 0000 e887 173c 759a 6ebd
00000350: 0000 0000 4405 47bd b379 86bc f011 8cb7
00000360: 026a 11b8 0000 0000 8eda 72bc 294a b1b4
00000370: 7486 81bd 5576 8e3a a738 fa3d a0ad 0ebb
00000380: 40d7 b8bc a5f6 1ebd 30e6 4fb8 191c 06bd
00000390: 0000 0000 aaa5 c73c 8060 cd3c 0000 0000
000003a0: fcb4 2dbb 7276 15bd 9833 42b8 8eff 79bc
000003b0: 00c3 10b8 0000 0000 4892 05bc 7dec 5bbd
000003c0: 0000 0000 1e7a 70b8 d83e c63d 5b36 1a3e
000003d0: fff3 063d e8cd 173d 0e82 06bd 007f 1fbd
000003e0: 7ca7 fb3c c5d0 f6bb 2fbd 10bd 0169 a2bc
000003f0: f14a 7d3c 012f e7bb de73 a73a f97e f43d
-0.030010443 0.117034525 -0.044165406 -2.3554996e-05 -0.12403155 -4.8843587e-05 0.010034412 0.017443247
-7.2343486e-05 -0.002365645 0.0 -4.4438057e-05 -3.7043003e-05 -2.7013715e-05 -3.4485056e-05 -0.022771018
0.006812078 -0.006358724 -1.1213753e-05 -0.01591351 -0.11417301 -7.5651296e-05 0.0008269193 0.056678403
-0.051534396 -0.057847034 0.057446584 -1.0094255e-05 -0.012952656 -0.040102176 -0.009043808 0.02450823
0.0 -0.05477282 0.0 -0.11136002 -0.023825474 -0.021974774 -2.69614e-05 -0.015319139
-0.035735164 0.0033196749 -0.03497249 -6.031544e-05 0.0830666 0.060715742 -9.560305e-06 -0.048965413
0.03735948 -0.04722231 0.0 -0.044935197 -0.03718609 0.103139676 -0.035139464 -0.0061075306
-0.057990514 0.0 0.0 -0.029356187 -0.036770828 -1.878184e-05 -0.0069809225 -0.050709203
0.0 -0.011963928 -0.027701134 -1.8670784e-05 -5.7812176e-05 0.0 0.004468528 -0.045535564
-2.5586398e-06 0.0046879686 0.026498007 -0.033340547 0.0 -0.019360779 0.05979331 -7.3907486e-06
-0.050195254 -0.04003335 0.06133479 0.0 0.0052490504 -0.024636172 -2.7986793e-05 -0.031117069
-0.049035255 0.0029497743 0.0073049217 -6.0977e-06 0.0 0.042076692 -0.0093740495 -6.038699e-05
-0.053685963 -3.2869168e-05 -1.1998948e-05 0.0 0.0 -0.01571662 -0.0011881795 -0.02096568
-0.0556156 -0.008605931 -0.0065045655 0.0 0.013952849 -4.5194258e-05 -6.0615177e-05 0.0
0.039755486 -5.750123e-07 0.04948202 -0.0025523754 0.0020919684 0.057862688 -0.037020806 -0.03183978
-0.051506754 0.0 0.11875951 0.122501865 0.1540669 -7.005483e-06 -0.025866939 -4.0810963e-05
0.0 -0.057860356 0.0 -0.03617216 -0.048103265 0.0525064 -0.0040558586 -0.010682149
-0.069123894 0.0 -0.009627538 0.0 -0.028432833 0.07686553 0.14051355 -4.403386e-05
-0.051153533 -0.008690626 -0.011144493 -1.8653238e-05 -0.001117134 -0.030206015 -0.012188109 0.045388937
-0.06300604 0.0 -2.6157397e-05 0.08360337 -0.0070328014 -6.740336e-05 -0.039899223 0.03948733
0.006934719 0.0987647 0.020738317 0.003192659 0.056085564 -0.040789396 -0.01466177 -0.044691373
0.11309964 0.0 -0.07431111 0.024167325 -8.589463e-06 -0.040254395 -1.1434935e-05 -3.7513437e-05
-0.04847218 -7.673484e-05 0.0 -7.143132e-05 0.030262282 0.0 0.0003810999 -0.040401213
0.0 0.055206377 0.110871814 -7.9146375e-05 0.0 -0.0059929336 -0.031869013 -0.044499796
-2.0614907e-05 0.022923933 0.004537339 -1.8861178e-05 0.0 0.08750227 0.007851255 0.0
-4.4772838e-05 0.0 0.0071481513 -0.0126973335 -0.017561832 -0.0057603186 0.0055124634 0.0035339652
0.0077516264 0.0 0.009248711 -0.05825277 0.0 -0.048589006 -0.016415453 -1.6697653e-05
-3.466942e-05 0.0 -0.014822615 -3.3022778e-07 -0.06324473 0.0010869006 0.12217837 -0.002177097
-0.022563577 -0.038809437 -4.9567025e-05 -0.03274164 0.0 0.024370987 0.025070429 0.0
-0.002650558 -0.03648991 -4.6301255e-05 -0.015258683 -3.4513883e-05 0.0 -0.008152552 -0.05369233
0.0 -5.733419e-05 0.09679955 0.15059797 0.032947537 0.037061602 -0.032838874 -0.038939476
0.030719511 -0.0075322115 -0.03533667 -0.01982546 0.015459762 -0.007055164 0.001277562 0.119382806

fc2.weight f4 [600, 300]
00000000: 9b01 ca3d 482b d8be 3b00 cf3d 9027 fbb8
00000010: 8dcf 9ebd 0f11 1639 208c 46be 1fb8 f3bd
00000020: 63be 42b8 9869 c2bd ca8a c238 f3d2 a3b9
00000030: ac37 73b8 6c43 4537 7f9c 57b8 4164 b73d
00000040: 1dbe 40bd 2c9c 0b3d f1df 7635 f285 05be
00000050: 1c54 16be 8047 0b38 2037 fa3d cf41 033d
00000060: 5e38 da3d 0343 eb3d c7c5 99be 3742 eeb7
00000070: 0f18 953d 6f36 fc3e d563 883d 1d67 e4bc
00000080: 9d1b c7b8 98e7 f73d 5a58 8038 2c26 02be
00000090: 1653 c93d 41f8 5ebd ac30 1138 365b d83d
000000a0: 323a fd3e f8a8 77bd 55a6 e73e abda 3538
000000b0: 2be5 51be 7a64 9fbe b159 7cb8 90b8 da3d
000000c0: 36b0 88be 47d5 dc3d 64a8 ab38 d497 1a3e
000000d0: fc05 fe3e ce7d 13bd 48ef 943d c220 3a3e
000000e0: 13bc 543d 2dca 6338 6fc6 4bb9 5720 cd3d
000000f0: efb1 a03d 441a 6038 b93d 233d de7d da3d
00000100: c86a b638 78da 763d 0870 ae3d d35d 2cb8
00000110: 3a86 fd37 6da4 17b8 0e58 3e3e d5c8 b33d
00000120: 82d5 89b6 917b ddbd 618d e839 1f5a 833d
00000130: 0871 1f38 bbe5 4c3e d43c 47bd a1c2 d038
00000140: d46f 723d 2cc1 fa3e e76c 71bd da38 eab8
00000150: 4a9f bc38 6b8d c83d c45a 8038 4625 7e3e
00000160: f821 623d 12f3 b6bb 6fc4 10bd da24 a2b8
00000170: 4b34 f4b8 37b1 7cbd e2bc 4ebe 2a50 e537
00000180: 2bb2 febd 4633 6839 3e68 c1b8 a87e 7b38
00000190: 8983 ac38 6675 5b3e 0276 343e e25d c53d
000001a0: fae0 d53d 64d7 833d 3ef8 8f3d 627b 8bb8
000001b0: 933f aebd 549a bbb8 72c2 1439 37f8 a7b8
000001c0: eaf0 41be d47e ec37 35dc 78be 840f 30be
000001d0: 0d85 b23c 5bf8 f0bd 542c 863d 0363 72be
000001e0: 8a21 da3d 8833 e6b8 b6c1 ddbe 1d2b e5be
000001f0: 4d2a ba3e 3719 a8b7 b676 c63d 2188 85b7
00000200: 301d 7ab9 1ee6 e83d 610e c638 1818 8e3d
00000210: 1954 dd3d 66e8 69be 1321 093a d762 463e
00000220: 222c 823d 8092 39b9 474b 873d 6184 ceb8
00000230: 8f3e dabb 7a52 09be d31e 94be 3d2a 5eb9
00000240: 880e da3d cb7e 0abe fe58 093e e634 4fb8
00000250: e76a 11be 3af4 eb3d cd9e 183e 25c8 1abe
00000260: ab63 b43c ad6e a1b8 67e3 c2b8 9cb7 37be
00000270: 83b2 e6bd 283b 36b8 634a 043f 77d0 973c
00000280: 1dfb 0f3e d774 4ebe e4ea 813c 1bc6 683e
00000290: d74a 55bc 812e d73d 8df1 df3d b6c0 50be
000002a0: d0ca 84bd fbfd 2cb9 6e2c 7c3d 0233 953d
000002b0: 2034 0f39 ec10 043f b589 fcb6 8a38 a9b5
000002c0: 08e3 d73d 20ad 2cb8 21a6 7838 2684 6eb8
000002d0: 413d 89bc 4351 2c38 303b 3e3e 9337 a23d
000002e0: 712f 0639 3e73 5dbe d97c 89be 8fa9 0039
000002f0: 358f a038 3f4b 013d f3c5 2cbe a253 d73d
00000300: 285d ad38 0786 b83d 0f2b 173e d876 e5b7
00000310: c512 a5b7 f758 a4bd eb0f c23d 5c42 ec36
00000320: 197d ba38 0e9e 9b38 1c3b 0c3e 2177 923d
00000330: 1074 983d 819e 813b f022 cfbb 4d82 27be
00000340: 4a42 8d3d 4be9 cbb8 43bd 75be 1863 ec3d
00000350: a7c0 7c36 fb27 d03d cec4 9f3d f7ce 24b7
00000360: a319 1c38 f977 8eb7 0219 743d f49a 0ab8
00000370: 37d8 323d 6bad 4ebe e60a e4be 1025 82be
00000380: e55e c53d c1b1 023f 29d5 1038 e03a 7e3e
00000390: cc9a 4eb7 86c8 4d3b 0374 e3bd ef37 c336
000003a0: d5c3 273e 13f2 f83e 18c6 00b9 35cc 1fbe
000003b0: 19a5 9238 c2dc 9cb7 7db2 4a3d ffb6 cc3d
000003c0: da46 6a38 c45e c238 5f86 51be 4412 923e
000003d0: 92ec 26be 9814 78be 7e2f a33d c05b 023f
000003e0: 15ab 0b3d d353 233d 3b48 373d 98fc 87be
000003f0: a0a7 e03c 7a68 053d 8343 4dbe 5818 dfbe
0.098635875 -0.4222052 0.10107466 -0.00011975982 -0.07754431 0.0001431147 -0.19389391 -0.11900353
-4.6430516e-05 -0.09492797 9.276492e-05 -0.00031246952 -5.7987563e-05 1.1757813e-05 -5.1405743e-05 0.08954669
-0.047056306 0.034084484 9.196802e-07 -0.13039377 -0.14680523 3.3206772e-05 0.122175455 0.03204518
0.106552824 0.11487391 -0.30033705 -2.8402645e-05 0.072799794 0.4926028 0.066596664 -0.0278812
-9.494203e-05 0.1210472 6.1199724e-05 -0.12709874 0.098303005 -0.054435972 3.4616023e-05 0.10564272
0.49458462 -0.060463876 0.4524409 4.3357413e-05 -0.20497577 -0.31131345 -6.0165014e-05 0.10679734
-0.26696938 0.10782867 8.1852806e-05 0.1509698 0.4961394 -0.03600865 0.07272202 0.18176559
0.051937174 5.430931e-05 -0.00019433511 0.10015934 0.07846438 5.3430223e-05 0.039853785 0.106685385
8.698326e-05 0.06026694 0.08517462 -4.1095376e-05 3.0222454e-05 -3.615434e-05 0.18588278 0.0877854
-4.1077737e-06 -0.10814584 0.00044355824 0.064136736 3.8013823e-05 0.2000951 -0.048641995 9.954465e-05
0.05918868 0.48975503 -0.058941748 -0.00011168579 8.9942085e-05 0.09792598 6.120422e-05 0.24818906
0.055208176 -0.0055831755 -0.035343584 -7.731626e-05 -0.00011644567 -0.061692443 -0.2018924 2.7336257e-05
-0.124363266 0.00022144345 -9.222374e-05 5.996102e-05 8.2260995e-05 0.21431503 0.17623141 0.09637047
0.104433015 0.06437567 0.0702977 -6.651018e-05 -0.085082196 -8.945601e-05 0.00014186816 -8.009414e-05
-0.18939558 2.8192451e-05 -0.24302752 -0.17193419 0.02179196 -0.1176612 0.06551424 -0.23670582
0.10650928 -0.00010976853 -0.43311852 -0.44759455 0.36360398 -2.0038902e-05 0.09690611 -1.5918225e-05
-0.00023852731 0.11372016 9.444054e-05 0.06938189 0.10807056 -0.22842559 0.00052310637 0.19373642
0.06356074 -0.0001769755 0.06606155 -9.847503e-05 -0.0066602896 -0.13410369 -0.28929767 -0.00021187305
0.10647303 -0.1352493 0.13412854 -4.940191e-05 -0.14200936 0.11521192 0.14904328 -0.15115412
0.022020182 -7.697693e-05 -9.292998e-05 -0.17941135 -0.11264517 -4.3447275e-05 0.51676005 0.018532021
0.14060636 -0.20161758 0.015859075 0.22731821 -0.0130183315 0.10506917 0.10934744 -0.20386013
-0.06483996 -0.00016497813 0.06156581 0.072851196 0.00013656961 0.5158832 -7.5262165e-06 -1.2607936e-06
0.1054135 -4.116923e-05 5.9282527e-05 -5.6866695e-05 -0.016752841 4.1083676e-05 0.18577266 0.07920756
0.00012796909 -0.21625993 -0.26853064 0.00012270197 7.656069e-05 0.0315659 -0.16872387 0.105139986
8.2666345e-05 0.09009939 0.1476252 -2.7354268e-05 -1.9678273e-05 -0.08024781 0.09475692 7.0410733e-06
8.8924724e-05 7.420416e-05 0.13694423 0.07151628 0.07444012 0.0039556627 -0.0063213035 -0.163583
0.06897409 -9.7232485e-05 -0.23997979 0.11542338 3.7663065e-06 0.10163876 0.078012094 -9.8233495e-06
3.7217174e-05 -1.6983586e-05 0.05959416 -3.3046075e-05 0.04366323 -0.20183341 -0.44539565 -0.254189
0.0963724 0.5105248 3.4530796e-05 0.24827147 -1.2314598e-05 0.003140004 -0.11106112 5.8179644e-06
0.16383298 0.48622188 -0.00012280827 -0.15605243 6.992574e-05 -1.8699448e-05 0.049486626 0.09995841
5.5855933e-05 9.268292e-05 -0.20461415 0.2852956 -0.16301182 -0.24226606 0.07968043 0.5092125
0.034098703 0.039874863 0.04474662 -0.265599 0.02742368 0.03257034 -0.20045285 -0.4357326

fc2.bias f4 [600]
00000000: 3073 d7bd cc84 9b3d c765 f539 0d67 8a3c
00000010: e4fe a33d f3f8 57ba 971d deb4 ebe5 e63d
00000020: 3214 beba c654 9fbc 82ac 763d 2161 733d
00000030: b017 813d ee0c 24bd f2c6 33bc 2ccc 0d3e
00000040: 5a94 03ba 3278 b83d ac56 0fbb fe38 d1b9
00000050: 6566 1c3e 1f0f 94bc 4ee5 d1bb 0000 0000
00000060: 9db6 60ba 8099 9cb9 9a50 0c3a 7a9d c2bd
00000070: 50d4 80b9 34d2 19ba ea6d eb3b d22d 69bd
00000080: 6181 4b3d 2271 39ba 9256 ac3c 88e4 0aba
00000090: 4db7 573e 0d03 3a3e 8512 8d3d 6930 cfb8
000000a0: 4e51 543d c314 563d 7b52 61bc e05d ba3d
000000b0: a45f 5d3d 558e a73c e12b 40b9 ce4a a03d
000000c0: 3854 b6b9 c169 da3d 9550 4fba 0f1a 993d
000000d0: c387 7dba 8c86 213e f6af 333d a327 cd3d
000000e0: 6654 443d 2169 cf3d 6269 3e3d 2f6b 16b9
000000f0: 6696 023d 85d0 7eb9 302f de38 6fcf abb4
00000100: 687b a3bd 967b 8dbc 4573 ebbc b086 fcbc
00000110: 2a08 a43d 76e2 633d 34a6 67bd b318 cab9
00000120: b12a 66ba c9b7 b33d 18af 8cb8 70c3 0abb
00000130: eedf 56bc 0922 adbd bc91 aabc 9bb7 05b9
00000140: 75e0 53ba 8b4b acbb 39ff 1d3d 3969 6db8
00000150: f846 94bd e725 83bd 5e30 8fba a3d8 a83d
00000160: b532 83b9 010b f83d e702 2a3e ffed 123e
00000170: dbd5 cd3d d020 3abb bb2d 86b9 03f7 363e
00000180: a26e 1a3e 0b93 473a 7d40 6a3d 6ecb 6bb8
00000190: 1625 a0b9 5aa3 793d cc23 263d cebd 2d3e
000001a0: 8c0e 5cbd 39da abbd 8f56 5ebd 9471 01b9
000001b0: 22a1 043e fd48 da3d a6a5 ed3c 6e25 323e
000001c0: f5c9 b43d e568 7fbd 4e93 f7b9 94c7 93b9
000001d0: b810 82bc 96a7 ef3d 3181 28bd 7927 493e
000001e0: a56f 82b8 b1e4 fb3c 9631 883d cb6f 0cb9
000001f0: 374f 93b9 c3ba 1e3a b0db 553d 5102 893d
00000200: e236 6a3d 1b96 a63d 6968 613d f791 9db9
00000210: 4084 0ab9 2a87 81b9 c3e5 11ba f74d 193a
00000220: 5495 55bd fbf1 e0b9 584e 32bd 6eb2 943d
00000230: ed42 263e c38c c8b9 f53e 9ebb 9188 eeb9
00000240: 3c7e 84bc 3203 503d 6a18 47ba 66c7 a5bd
00000250: 3e51 01ba aacd b8b9 1360 a2b9 b2a5 e8b9
00000260: a134 e43d 8075 27b9 457f 41bd d07e 153d
00000270: 1048 053d 26d2 cb36 0950 a43d 74cc a93d
00000280: 8c32 05bd e04b 1ebe c8cf bf3d 69fe e9b9
00000290: 81d3 0db9 0b06 78bb 4917 bf39 9ef8 5c3c
000002a0: 7bb1 d93d 6f75 b1b9 e414 7c3d b044 46b9
000002b0: d021 94ba 9c76 abbd 39fb f33b 1f5e 423d
000002c0: 29fe 17b9 7600 a7bd 61fa 643e 46b8 b7b8
000002d0: 6967 b13d f879 0fbd 9dd5 89b9 776f 60ba
000002e0: dc64 b63d 676e 333e 5b8b f13d a34b 05b9
000002f0: 0d1a b63d baad 253e ce14 1b3e 4386 fd3d
00000300: ac4e 3b3d 752e 9c3d d068 08ba 495c 3ebb
00000310: be42 a73d f990 f1bc 709e 59ba 7de9 3e3d
00000320: 7e71 283d d9c5 b4bc 2248 87bc f25a 03b9
00000330: 0000 0000 147f ddbc 2ab9 00bd e59b 66ba
00000340: 6eed d93d 9c3f c7bc ede3 883d 10c3 c73d
00000350: 12c7 15bc b093 50b9 3380 0fb9 5427 a1b9
00000360: 35a4 a939 656a 0db8 26d2 36be aa97 6eb9
00000370: 6e30 613d d802 bcba 888e db3d f1e8 f5bd
00000380: a8ef 85bd f719 14b9 e9ce 81bd 78f5 70ba
00000390: c496 df3c 0c70 303d d1a5 64ba ea75 5ebd
000003a0: 3fb8 9cb9 c4b2 1ab9 46a0 35b9 1754 85b9
000003b0: 8aef 6f3d 7125 1e3d 6011 ddbd da22 8cba
000003c0: 49b7 91b9 0c3e 3abe 68cc 393d 3d0a abb9
000003d0: b9e4 313e 96d6 cabc 173a a3bd d6d8 9dbd
000003e0: 1319 7ab7 95a3 80ba c120 b93c aaa7 6f3b
000003f0: 61e0 283d 7f7b 9abd 77b7 5aba 1fa8 a53d
-0.10520017 0.07593688 0.00046805872 0.016894842 0.08007601 -0.00082386954 -4.1372252e-07 0.11274322
-0.0014501868 -0.019449603 0.06022311 0.0594188 0.06303346 -0.040051393 -0.010972725 0.13847417
-0.00050193595 0.090073004 -0.0021871729 -0.0003990605 0.15273435 -0.018073617 -0.006405509 0.0
-0.00085721334 -0.00029869005 0.0005352587 -0.095026925 -0.00024572248 -0.00058678095 0.0071847336 -0.056928463
0.049683932 -0.0007074048 0.021037374 -0.0005298336 0.21066017 0.18165226 0.06888298 -9.879546e-05
0.05183535 0.052265894 -0.013752575 0.090999365 0.054046288 0.020453611 -0.00018326893 0.07826768
-0.00034776493 0.10664702 -0.0007908431 0.074756734 -0.0009671414 0.15773982 0.04386898 0.10017326
0.04793205 0.101274736 0.04648722 -0.00014345044 0.031881712 -0.00024301007 0.00010594574 -3.200216e-07
-0.07982522 -0.017270844 -0.028741488 -0.030825943 0.0800937 0.05563589 -0.056554988 -0.00038546845
-0.0008780165 0.087752886 -6.708334e-05 -0.0021173619 -0.013114912 -0.08453757 -0.020821445 -0.00012752267
-0.0008082458 -0.005258029 0.038573477 -5.66032e-05 -0.07240099 -0.06403714 -0.0010924449 0.08244445
-0.00025024047 0.12111474 0.1660267 0.14348601 0.10050555 -0.0028400905 -0.00025592544 0.17867665
0.15081266 0.00076131587 0.057190407 -5.6217825e-05 -0.0003054521 0.0609468 0.040561482 0.16966936
-0.05372481 -0.08391232 -0.054281767 -0.0001234471 0.12952092 0.10658453 0.029009651 0.17397091
0.08827583 -0.062355895 -0.00047221262 -0.00028186722 -0.015877113 0.11701886 -0.04113883 0.19643964
-6.2196785e-05 0.030748697 0.06650083 -0.00013393087 -0.00028097045 0.00060550513 0.052211463 0.06689895
0.057181247 0.08134099 0.055031214 -0.00030054126 -0.00013209973 -0.00024705502 -0.0005565548 0.00058481045
-0.052144364 -0.000429049 -0.043531746 0.07260595 0.16236468 -0.00038251848 -0.0048292824 -0.00045496647
-0.016173474 0.050784297 -0.00075948855 -0.08094673 -0.00049330655 -0.00035248447 -0.0003097063 -0.0004437394
0.11142851 -0.00015970133 -0.047240514 0.03649789 0.032539427 6.074336e-06 0.08023078 0.082909495
-0.03251891 -0.15458632 0.09365803 -0.00044630773 -0.00013525599 -0.0037845399 0.00036447708 0.013487009
0.10629555 -0.00033847566 0.06154336 -0.0001890834 -0.0011301581 -0.08372232 0.0074457196 0.047453042
-0.00014495164 -0.08154385 0.22361137 -8.7604436e-05 0.08662302 -0.035028428 -0.0002628983 -0.00085615314
0.08905956 0.17522584 0.11794158 -0.00012712045 0.088916875 0.16179553 0.15144655 0.12379124
0.045729324 0.076260485 -0.00052036066 -0.0029046705 0.08167027 -0.029488074 -0.0008301502 0.04660939
0.04112386 -0.022066997 -0.016513888 -0.00012527013 0.0 -0.027038135 -0.031426586 -0.0008797034
0.10640989 -0.024322324 0.066840984 0.09754002 -0.0091417 -0.00019891444 -0.000136853 -0.00030737615
0.00032356536 -3.3716107e-05 -0.17853603 -0.00022753948 0.054977827 -0.0014344109 0.10720545 -0.12007321
-0.065398514 -0.00014124053 -0.06338293 -0.0009191851 0.02729357 0.043075606 -0.00087222183 -0.05431167
-0.00029891913 -0.0001475318 -0.00017321212 -0.0002543039 0.05857805 0.038609926 -0.1079433 -0.0010691539
-0.00027793113 -0.18187732 0.045360953 -0.0003262329 0.17372407 -0.024760526 -0.07970064 -0.07707374
-1.4906999e-05 -0.0009814376 0.022598626 0.0036568441 0.04122961 -0.07543086 -0.00083433784 0.08088707

steering.weight f4 [1, 600]
00000000: 95e1 c13b 6c50 c23b 6944 b2ba b6e9 c3bd
00000010: c20b ce3e 0c1b 68ba b3b9 663b fae2 f8bb
00000020: f214 e1ba c364 003e 77df 863d 4302 7bba
00000030: 596a 953d ccbc ccbd 4f54 6f3b ea13 7b3d
00000040: d5da 37b9 76b0 84bb 9058 d1ba 021c a937
00000050: 9d11 803c 54a3 d93d 7a64 1d3e 4811 9db7
00000060: c493 69ba fbc3 f838 a602 cf38 028a d9be
00000070: ee9b 23b9 cbd5 c13a 8eb6 fdbb 259d 45bd
00000080: edd0 18bc 7e46 143a b679 e7bd b52f 1f38
00000090: a271 e53c aeea 4f3d 1c33 8abc d1be f637
000000a0: a074 01bd a2f8 5abc 5b4d 47bd a651 fcb9
000000b0: d71a b839 a428 8fbb 9d2e 15b8 9d04 34bd
000000c0: 4b01 c337 cc8d 48bc 4f00 0f39 e034 a93c
000000d0: 25d2 873a d51d b23c cf17 523e 752b f2bb
000000e0: 49b4 393d 1025 2bbc c3d8 ccbc 7cbd 0e38
000000f0: 6a74 d13c 92d6 43b9 d698 2cba 83c1 4e38
00000100: 00ef 05bb 9f2b 613d 8152 913d cea8 93bc
00000110: 7341 c63d e66a a2bc f5b8 8abc 0e73 fe38
00000120: eca6 05ba 2cec 093e b8b8 5239 0830 0abc
00000130: 1b33 1739 8b3d 96be 8dfc 843a e8e2 93b8
00000140: 6860 51ba bc2c 9d3b 2350 213c 612c d938
00000150: 8afb 4fbe efea 83bd 8803 603a 28cd 4b3b
00000160: 4e09 8bb6 459c 94bd f156 653d 7cba 5e3c
00000170: b134 363d 3967 893a df29 0338 7455 6a3d
00000180: dfc1 963c 6197 42bd 6f58 40bb 1f5f 6d39
00000190: a164 1939 d573 933d 7326 c73a 0c40 c8bc
000001a0: 65b2 76be 0527 9dbe b165 62bc 4385 d038
000001b0: 3a10 5e3d 18ae 0cbe c686 2d3e 177d ea3c
000001c0: 80c2 88b8 3156 8fbe 51bc 8bb9 eca1 0338
000001d0: 4310 103c 332a d2bc c909 793d a015 03bd
000001e0: 8b0e 7138 4976 163c cd41 373c 14e3 05b8
000001f0: 6192 20b9 68d9 293b a518 f8bb b31d 733d
00000200: fadd 2c3d b681 113e 503b b33c 5ab6 2139
00000210: 15b3 a938 5d89 f1b8 ac25 e538 496d dcbb
00000220: e552 113c c8f7 0239 2628 3cbd 38c7 243d
00000230: ce2c b83d 14e3 033b f971 9f3e f888 1439
00000240: dfe8 fa38 74e8 5f3d e787 593a 2b33 80be
00000250: 68c7 2f39 c975 8a38 bf35 0c39 b392 3b38
00000260: 3ec0 48bd 5ebf cdb8 f8e8 ae3d 4c3b c8bd
00000270: 8e86 183e caa3 adba a846 b53d e9c4 cbbc
00000280: 68ea 09bb 3715 b1bd ac58 643e 2a7f 41b7
00000290: ecd6 c138 28ad 16bb 8331 bebe 6709 e83a
000002a0: b6e9 26ba 0e4b 29ba 45e1 7e3c e7b0 e0b7
000002b0: 0212 383a f90a 92be 83a6 083f c9e8 2b3b
000002c0: 91d7 e0b7 8e17 85be fbde 1dbd 3738 d837
000002d0: 501d e8ba 15dd 6c3b 1917 19b9 d75c 4fba
000002e0: 1e75 abbc 5e38 9cbd f885 4b3c 654c a6b8
000002f0: c4eb bfbc c155 e43c adf0 52bd 8df5 5e3d
00000300: 59d7 b93a 8a78 41bc 0e67 5ab9 cfca c43a
00000310: e720 96bd 97bb bebc ca38 913a 27a1 643b
00000320: c7b3 ff3a 432a 253c f3a1 cf3d e382 5338
00000330: 1bd0 5ab9 e1ac 433a 587b 93bb 8ef9 863a
00000340: 83bc 163b adfb 003e fe05 9f3c 9e37 7abb
00000350: 7eeb e6bc 51c6 1038 8959 66b8 ae2d 0939
00000360: b55d 67ba 6a47 9eb7 e801 2e3c 5f74 4839
00000370: e887 03bc 411a 82bb 7d13 0fbb 1c06 e33c
00000380: a6f9 8cbd 0e0b 8c38 f3d3 c03d f3b5 c038
00000390: d1fe 073c 6e42 473d 1c20 71ba a2ea f0bc
000003a0: 941b 51b9 6b32 0c39 e2b6 b2b8 479e feb7
000003b0: 8887 9abd 48ed a0bc b204 803c cc1a 383a
000003c0: a37c 3638 2481 73ba bc71 943b 19c4 4439
000003d0: 3ec5 2c3d 29a2 8f3d 326d 83be dcbd f6bd
000003e0: 2ea4 2239 7f29 06bb cecf f13b bd36 093f
000003f0: 5331 193d cc19 b2bd b85b 56ba 3a0c 163e
0.005916784 0.005929997 -0.001360071 -0.09566061 0.40243345 -0.0008854128 0.00352059 -0.007595417
-0.001717238 0.12538438 0.06585591 -0.0009575227 0.07295675 -0.09996948 0.0036518758 0.06129829
-0.00017533761 -0.004049356 -0.0015971828 2.0159412e-05 0.015633399 0.106268555 0.1537036 -1.8723906e-05
-0.00089102634 0.00011862066 9.8710225e-05 -0.42488104 -0.0001560298 0.0014788447 -0.0077427095 -0.048245568
-0.009327156 0.0005656256 -0.113025114 3.7952985e-05 0.028008286 0.050760917 -0.016870074 2.9414341e-05
-0.031605363 -0.013364943 -0.048657756 -0.00048126018 0.00035115212 -0.0043688584 -3.556778e-05 -0.043949712
2.3246414e-05 -0.012240838 0.00013637658 0.020655096 0.001036231 0.02174274 0.20516895 -0.0073904344
0.04533795 -0.010445848 -0.025005704 3.403191e-05 0.025568206 -0.00018676583 -0.00065840536 4.929445e-05
-0.0020436645 0.05497324 0.070958145 -0.018024828 0.09680452 -0.019826364 -0.016933898 0.000121330944
-0.00050984207 0.13468999 0.00020095974 -0.008434303 0.0001441952 -0.2934383 0.0010146067 -7.051771e-05
-0.0007987083 0.0047965925 0.009845766 0.000103556325 -0.20310798 -0.064412944 0.0008545448 0.0031097624
-4.143606e-06 -0.072563685 0.055991117 0.013594266 0.044483844 0.0010483033 3.127183e-05 0.0572104
0.018402992 -0.047507647 -0.0029349586 0.00022637517 0.00014628704 0.071998276 0.0015193954 -0.024444602
-0.2409149 -0.30693832 -0.01381819 9.943035e-05 0.054214694 -0.13738286 0.16945943 0.0286241
-6.521214e-05 -0.27995446 -0.00026652453 3.1383635e-05 0.00879294 -0.025654888 0.060800347 -0.032003045
5.747242e-05 0.009183475 0.011185122 -3.1921154e-05 -0.0001531332 0.0025916938 -0.007571297 0.059354495
0.04220388 0.14209637 0.021878868 0.00015422088 8.0919046e-05 -0.000115173614 0.00010926588 -0.006726895
0.008869861 0.00012490072 -0.045936726 0.040229052 0.08992921 0.0020124363 0.31141642 0.00014165405
0.000119643046 0.054665044 0.0008298144 -0.25039038 0.00016763585 6.602292e-05 0.00013371462 4.47209e-05
-0.04901146 -9.810807e-05 0.08540529 -0.09776935 0.14895079 -0.0013247665 0.08851367 -0.024874168
-0.0021044258 -0.086466245 0.2229945 -1.1533304e-05 9.2429895e-05 -0.0022991393 -0.3714715 0.0017702997
-0.0006367223 -0.00064580224 0.015556638 -2.6785257e-05 0.00070217263 -0.28523996 0.53379077 0.002623128
-2.6803262e-05 -0.25994533 -0.03854273 2.5775384e-05 -0.0017708931 0.0036142517 -0.00014599822 -0.00079102576
-0.02092987 -0.07627939 0.012422077 -7.9297264e-05 -0.023427851 0.027872922 -0.051499058 0.054433394
0.0014178558 -0.011808524 -0.00020828491 0.0015014055 -0.073304944 -0.02328281 0.0011079547 0.0034886093
0.0019508534 0.010080877 0.10138311 5.0428218e-05 -0.00020867625 0.00074644206 -0.0045007877 0.0010297762
0.0023000545 0.12596007 0.019412037 -0.0038180123 -0.028188463 3.4516972e-05 -5.491966e-05 0.00013082355
-0.0008825914 -1.8868323e-05 0.010620572 0.00019116838 -0.008028008 -0.003970415 -0.0021831684 0.027712874
-0.06883554 6.677779e-05 0.09415426 9.189164e-05 0.008300499 0.048647337 -0.0009198205 -0.029408757
-0.00019942067 0.00013370223 -8.521766e-05 -3.0352863e-05 -0.07545382 -0.019644395 0.015627239 0.0007023036
4.350826e-05 -0.0009288958 0.0045301598 0.00018765069 0.042180292 0.070133515 -0.25669247 -0.120479316
0.00015510686 -0.002047151 0.0073795086 0.5359915 0.037400555 -0.086963266 -0.00081771193 0.14653102

acceleration.weight f4 [1, 600]
00000000: 8e3f 5d3f 9f92 89be 93e0 e8bb 7ed4 323e
00000010: e4cd 633f 9f28 323a ff9d ef38 6d6d 543f
00000020: 491d ce3a ff52 873d 30c7 c3bd ea61 ca3e
00000030: 6b6f 813d 4596 30ba 55f5 853e bbef 99be
00000040: 1cf3 f7b7 30cf 933e 3014 10bc 7c1a 5438
00000050: 2697 d4be 2c27 69bb 0b5e 90bd 55c7 8ab8
00000060: e9f9 4e3a b2c5 eb38 0f40 05bc bfee 6abd
00000070: a3e4 0437 9ebb 87bb 1f5b a93e 2201 3f3f
00000080: 566e e4be e86a 863a dd61 a53e 1cf7 92b9
00000090: e755 10bf 93ef 9abe 8160 a13e b4af 3939
000000a0: 8cdd 2c3e a74f b9be 8006 a93e 80aa 4a3e
000000b0: 4e04 933e 699f 153d 6a45 eab8 99ae 30bd
000000c0: 9ddb e7b8 8fd6 9c3e b086 4bba 856d e43e
000000d0: 7ff5 18ba 829e b6be a940 843e 2f59 813e
000000e0: 0ca0 923e e65b 9e3e 1474 91be de85 9db8
000000f0: a25c 343e 4bda 213b e9cb b239 4f97 cd38
00000100: 3683 033f 6d27 85be 6891 183f ba0b 1a3e
00000110: 45fe b5bd 1815 d2be c128 163f 2bd7 b7b8
00000120: 9d5d 9339 6dbe 6b3d 77ae 2139 fbca d03d
00000130: a670 753d 1b07 4c3e 9b00 233d d743 04b9
00000140: c421 b739 7bec 0c3c 4ab3 85be de01 d138
00000150: db68 6f3e f1ce 5c3f 3984 9a3b 22df 923e
00000160: d321 f937 cdd7 40bf 19c0 c4be d67d acbe
00000170: 26df 15be e866 1fbc c44a e0b8 9f5a bdbe
00000180: 2e41 96be 9e8c fe3e c772 02be 83f9 bb38
00000190: 3372 2eb7 7e56 1abd 7312 a93e 92d0 08bf
000001a0: 11b9 0d3f 08c9 3a3e f50e 233f 6787 be38
000001b0: 535b 2cbf cf01 edbe ef2f 7ebe dc76 c6be
000001c0: c08a 3cbe e6b9 253c 65c7 a4ba 5c53 b338
000001d0: 8ae0 923e e40d f2be c166 973e 7c1d 3fbf
000001e0: 1efd 4eb8 c47e 613d c226 c1be bfbb 92b8
000001f0: f092 efb8 abc9 93bb e3a2 bdbe e800 843e
00000200: 3b0f 1d3e 249d fcbd 3928 bfbe bf98 5bb9
00000210: 7484 eb37 56e2 2239 ac9e 983b 71a7 ccbb
00000220: d3c3 753d 3dd7 32b9 a9a5 713e 2faf 523d
00000230: 952a e03e 7036 d9bb 0a48 1fbe 0f41 5139
00000240: 5ab2 053e 60fb 8f3e cfcb e739 3040 673e
00000250: 3b17 00b8 e192 18b9 5442 a8b5 4b60 2237
00000260: cfe0 81be d561 27b5 317c 0a3f 2ed3 893e
00000270: 5710 db3e 714e a0bb dc89 cabd 0f76 953d
00000280: 04f5 2fbf a4ee c13e cf82 dfbe d4ad 0bb9
00000290: d0b1 2338 9eb6 9abc 80f4 8bbf 8068 10be
000002a0: 5ec2 593e 3b61 82ba 2965 a0be df7e 62b8
000002b0: 6ff7 4e38 62a9 4f3e 669b e13e c7fa b53e
000002c0: 201f d6b5 a8a4 623e afba c1be 369f bdb8
000002d0: 7b4d 2e3e f2b7 583d 8206 a2b7 1045 26ba
000002e0: 213d 5d3e 99c5 b43d d841 a53e cb89 22b8
000002f0: d3b7 a33e 8d7f b6be 11f8 2bbd 4b91 6dbe
00000300: 1b0e 223d b7e4 5bbe 8a4b 7c37 54d0 6e3a
00000310: ab61 8b3e 6074 4cbf 3850 fbb9 d20a 813d
00000320: c152 bd3d 78bf 423c d36a 783d e98f a7b8
00000330: 757f 3338 8385 81bc 8fb9 50bf e65c 08ba
00000340: 2493 b03e a3ed b0be 111a ee3e 9a20 8e3e
00000350: 12d3 b6bd f238 6538 233f fc38 1ab5 b638
00000360: 1fee 20bc 1bc4 b3b8 8efd b63f cfe8 17b9
00000370: 3c33 d5be 149a 9cbb d504 773e ad06 6b3f
00000380: 40e2 3c3f 5709 9a38 4346 873f 2643 d5b5
00000390: bcca ae3d 6f60 73bd 02b0 213a 1128 213f
000003a0: 6cad 99b8 242a 0939 5998 43b9 5b42 49b8
000003b0: 51d1 b1be 27c2 e83e ba24 503f e94c 56b8
000003c0: 5c7f 38b7 f2dc 953f 3eac 4cbe 5ffe 30b8
000003d0: d1b6 b5be ff78 1e3f bb4c 5f3e a31d 333e
000003e0: afa6 3039 9323 7cbb 9a61 fa3c 21fc 63be
000003f0: 8f56 ec3e cacb 233f b337 213a 940e c9bd
0.864251 -0.26869676 -0.0071068495 0.17463872 0.8898604 0.0006796214 0.00011425837 0.8297947
0.001572528 0.06607627 -0.095594764 0.39527828 0.063200794 -0.0006736259 0.26163736 -0.30065712
-2.9557901e-05 0.2886901 -0.008793876 5.0569404e-05 -0.41521567 -0.0035576327 -0.07049187 -6.617481e-05
0.0007895516 0.00011242497 -0.008132949 -0.057356592 7.921047e-06 -0.0041422388 0.33077332 0.74611104
-0.4461543 0.0010255249 0.32301226 -0.000280314 -0.56381077 -0.30260906 0.3151894 0.0001770843
0.16881388 -0.36193582 0.33012772 0.19791603 0.28714222 0.03652898 -0.00011170919 -0.04313526
-0.000110558445 0.30632445 -0.00077639055 0.44614807 -0.00058349216 -0.35667807 0.25830582 0.25263354
0.2863773 0.30929488 -0.28408873 -7.511278e-05 0.17613462 0.0024696763 0.0003410273 9.803345e-05
0.51372087 -0.26006642 0.5959687 0.15043536 -0.08886389 -0.41031718 0.58655936 -8.766198e-05
0.00028107772 0.05755465 0.0001541915 0.101949655 0.059921883 0.19924586 0.0397955 -0.00012613773
0.00034929637 0.008601303 -0.2611335 9.9662444e-05 0.23379843 0.8625327 0.004715469 0.28685862
2.9698864e-05 -0.75329286 -0.3842781 -0.33689755 -0.14635906 -0.009729125 -0.000106950785 -0.369832
-0.29346603 0.49716657 -0.12739097 8.96333e-05 -1.0397797e-05 -0.03768014 0.33021888 -0.53443253
0.55360514 0.1824075 0.636947 9.085127e-05 -0.6732685 -0.46290442 -0.24822973 -0.38762558
-0.18412304 0.010115122 -0.0012571631 8.550912e-05 0.28686935 -0.47276223 0.29570583 -0.74654365
-4.934996e-05 0.055052534 -0.37724882 -6.996793e-05 -0.00011423777 -0.0045101247 -0.37038335 0.2578194
0.15337841 -0.1233466 -0.37335375 -0.0002094237 2.8075861e-05 0.0001553384 0.004657587 -0.0062455465
0.060001206 -0.00017055585 0.2359835 0.0514366 0.43782488 -0.006628804 -0.15554824 0.0001995603
0.13056317 0.2812147 0.00044211603 0.2258308 -3.0539213e-05 -0.00014550566 -1.2536279e-06 9.678372e-06
-0.25366828 -6.235471e-07 0.5409575 0.2691893 0.42785904 -0.0048921634 -0.09889576 0.072979085
-0.6873324 0.3787738 -0.43654487 -0.00013320829 3.902783e-05 -0.018885907 -1.093399 -0.14102364
0.21265551 -0.000994719 -0.3132718 -5.4000757e-05 4.9344668e-05 0.20279458 0.44063872 0.3554289
-1.5953301e-06 0.22133124 -0.3783774 -9.041878e-05 0.17021744 0.0529098 -1.9314935e-05 -0.00063426886
0.2160535 0.08826751 0.32276797 -3.875214e-05 0.31976184 -0.3564419 -0.04198462 -0.23199956
0.039564233 -0.21473967 1.5037958e-05 0.0009110023 0.27222952 -0.79865074 -0.00047934218 0.06300892
0.092443 0.01188647 0.06064875 -7.989986e-05 4.279563e-05 -0.015810734 -0.8153314 -0.0005201831
0.3448726 -0.34556302 0.46504262 0.27759248 -0.08926977 5.465089e-05 0.000120280565 8.712169e-05
-0.0098223975 -8.5719126e-05 1.4296129 -0.0001448721 -0.4164065 -0.0047791097 0.24122937 0.9180706
0.7378273 7.345032e-05 1.0568317 -1.588928e-06 0.08534762 -0.059418138 0.000616789 0.6295176
-7.327911e-05 0.00013081037 -0.00018653403 -4.7983933e-05 -0.34730008 0.45460626 0.8130604 -5.1093204e-05
-1.0996908e-05 1.1708052 -0.1998758 -4.219857e-05 -0.3549104 0.61903375 0.21806614 0.17491774
0.00016846762 -0.0038473352 0.030564118 -0.22264148 0.4615979 0.6398283 0.00061499624 -0.09817234

brake.weight f4 [1, 600]
00000000: 014c ee3d f712 0d3e 7e5b b23b 5f2e ec3e
00000010: cade 39be 6eb6 283a 717c 743c b302 20bf
00000020: 52b7 553b 9aaf 20be c97a 653e 2e49 84be
00000030: 66d6 14be 19c4 bd3e 15d8 7cbf 98e4 933d
00000040: c67b 9e39 8db8 69bf 7566 34bc ecc3 c638
00000050: 0b6e 003c 833d 3bbe 257c 1a3e 4e39 f536
00000060: a802 8e3a cfcc 3839 a472 48ba f526 34be
00000070: fef0 e0b8 ef09 073c 2e43 9bbf e963 f1bf
00000080: 16e0 f53d 7144 83ba a570 053f 48ad aa37
00000090: 4bd8 36bf 2741 92bd 7eda 78bf d312 0b38
000000a0: 62c1 123e f83e b5bd c8b7 05be 8b4f 66bf
000000b0: f319 9cbf acc7 1d3e 1235 da38 e76b 0abe
000000c0: 3d6e efb8 9d1f 42bf 05d8 a139 682d 88bf
000000d0: 62c0 3139 6fa6 95bc 71fd 5d3d 0ca7 34bf
000000e0: 984d c6ba 4059 45bf eb5f bbbf d61e 1739
000000f0: 0277 73bf 3abc 7ebb 15d0 a739 04cf 0739
00000100: 0ffe 0dbd 595b ee3d 011a 903e a21d 443d
00000110: 5683 82bf f03b f6bd 46ab 763c f879 98b9
00000120: a11a da39 ae7e 74bf 3495 57b9 55ff e53d
00000130: 557c 90bf 5bd2 43be c177 84bf a8d9 d038
00000140: 9631 543a d68e b33b 0f93 abbc def1 2cb9
00000150: f03f 47be bb24 b5bf 70dc a1ba 0d09 90bd
00000160: 586f 83b9 1965 223e 62bf 053d 270b 2b3d
00000170: 7fec 253e 2193 beba adf2 8638 2786 113c
00000180: e319 0b3d d996 c63e 0cfc 27be 5d97 32b8
00000190: d0b2 9b38 f545 1d3e e299 76bd cf48 0cbe
000001a0: f4cc a83d f8b3 2ebe 0f07 ca3c f7a1 4f38
000001b0: c41e 1fbc 9bbc 0d3e 1ee1 a6be ceaf 42bd
000001c0: f017 c2bd aa93 51be 0dda 863b e54b 07b8
000001d0: 3077 d43e 7269 2ebd 66f2 893d 9ff2 22be
000001e0: 24a0 0838 5d8a 8abf 4d06 04be f57f 2439
000001f0: 07bc 7a39 8815 0dbc 7cc0 d4bd 9d1d 8ebe
00000200: 1fbc 6bbe ceb5 4ebf cb5d 24be 7d70 9c38
00000210: 22ad fb38 bd59 abb7 3dae 6dbb 4828 723c
00000220: e511 f13d d1be bcb8 94c1 b73e d622 43be
00000230: 8d5b 18bf 97cb 37bb 3d29 0ebf f8a9 acb6
00000240: 0f38 f13d 2dbc 19be 3421 1fba 4328 52be
00000250: ae94 0039 9605 0139 531d e538 76f3 1b39
00000260: 46ca f6bd f1c5 d937 e85c 743e fe07 0c3f
00000270: 85ee ef3e be9a 253b 4b1b 87bf fa54 26bf
00000280: 36c6 6fbf 65e3 c43e 1326 253e 5421 8539
00000290: a4e5 aab8 ca72 743b b7a2 5f3e 6762 4bbe
000002a0: e86b f0bd e00a 5dba 1e03 6cbe 998e 82b7
000002b0: 7af6 1d39 8187 4dbe cf56 56be e353 89be
000002c0: 97e1 0939 50b3 5bbe 74d7 d9be 9962 2637
000002d0: a163 8abf 08fb 86bf 8e0d 7bb8 a615 60ba
000002e0: 7cd2 53bf 396f e1be a8a9 9ebf dc65 3238
000002f0: 7b16 72bf 1bb8 b8bc ef5f dabe 7b98 9e3d
00000300: 827f 8cbe ab46 083e c9fa 0839 f9a6 b83b
00000310: 7c0b 67bf dba9 86be 26ad 53ba fb09 97bf
00000320: c4a5 7fbf 4502 3ebe 10d2 3bbe 438b 1239
00000330: b7a9 cab8 168b 2cbe 01a8 29bf 32a6 47ba
00000340: 7c5a 16bf 9d69 653e a485 8cbf d861 51bf
00000350: 5ab9 753c 0728 3138 bffe bb38 26f6 82b7
00000360: 9a27 733b e781 83b8 d4ec 60bb 7459 32b8
00000370: 97aa 1ebe 4c89 8a3b 28f8 0abf 401c 1c3e
00000380: f621 13be 1f4a 2837 773a 8f3d 1500 f4b8
00000390: 5db4 87bf c4b1 3b3e d6c9 363a 9ee3 ad3d
000003a0: c986 9db8 f3a5 4c38 d9f8 3c39 8df4 0a38
000003b0: 3ab8 a53d 1406 8ebe 3b82 143e ebb3 fa37
000003c0: 5c47 7038 b303 673d 53df 663d 97fc 9338
000003d0: 93be 9ebd 75d4 853e 79a7 4fbe ccaa 44be
000003e0: db84 24b7 8cbb c9bb 3467 63be 4bd4 0ebf
000003f0: 4a29 31be 8fcb 953e fd50 6d39 0f2f 4cbf
0.1163559 0.13776766 0.0054430356 0.46129128 -0.18151394 0.00064358755 0.014922247 -0.6250412
0.0032610488 -0.15691987 0.2241012 -0.25837082 -0.14534912 0.37063673 -0.98767215 0.07221335
0.00030228327 -0.9129723 -0.011010756 9.477869e-05 0.007838736 -0.18285184 0.1508642 7.30824e-06
0.0010834532 0.00017623905 -0.00076464773 -0.17592986 -0.00010726041 0.008242114 -1.2129877 -1.8858615
0.120056316 -0.0010014904 0.52125007 2.034627e-05 -0.71423787 -0.07141333 -0.9720839 3.3157714e-05
0.14331582 -0.08849901 -0.13058388 -0.8996512 -1.2195419 0.154082 0.00010404935 -0.13517724
-0.000114169416 -0.7582949 0.0003086926 -1.0638857 0.00016951704 -0.018267838 0.05419678 -0.70567393
-0.0015129326 -0.7708931 -1.4638647 0.0001441197 -0.95103467 -0.0038869516 0.00032007755 0.00012951723
-0.034666117 0.11638517 0.2814484 0.047879823 -1.019633 -0.12023151 0.015055483 -0.00029082573
0.0004160004 -0.955058 -0.0002055958 0.11230341 -1.1287943 -0.19123213 -1.0349046 9.9587545e-05
0.0008094547 0.005479674 -0.020944146 -0.00016493301 -0.19457984 -1.4151834 -0.0012349021 -0.07032976
-0.00025069225 0.15858878 0.03265322 0.041758683 0.16203497 -0.0014539697 6.43482e-05 0.008882082
0.033960234 0.38786963 -0.16404742 -4.2579475e-05 7.4242824e-05 0.15358718 -0.060205348 -0.1369965
0.08242217 -0.1706084 0.024661569 4.9503487e-05 -0.009711925 0.13841479 -0.32593626 -0.04753094
-0.09477222 -0.20466486 0.004115349 -3.225719e-05 0.41497183 -0.04258103 0.06735687 -0.15912865
3.257407e-05 -1.0823475 -0.12893029 0.00015687926 0.00023911904 -0.0086110905 -0.10388276 -0.27756968
-0.23020981 -0.8074616 -0.16051404 7.459612e-05 0.00012000861 -2.0426576e-05 -0.0036267184 0.014780112
0.11770991 -9.000081e-05 0.35889876 -0.19056258 -0.59514695 -0.0028044933 -0.55531675 -5.1457864e-06
0.117782705 -0.1501319 -0.00060703163 -0.20523171 0.00012262419 0.0001230448 0.00010925033 0.00014872648
-0.12050299 2.596059e-05 0.23863566 0.54699695 0.46861663 0.0025269235 -1.0555204 -0.64973414
-0.9366182 0.38454738 0.16127805 0.00025392568 -8.1490056e-05 0.0037299865 0.21839415 -0.19861756
-0.117393315 -0.00084321015 -0.23048064 -1.556361e-05 0.00015064506 -0.20071222 -0.20931552 -0.26821813
0.00013149377 -0.21455121 -0.4254719 9.917328e-06 -1.0811654 -1.0545359 -5.9855687e-05 -0.0008548148
-0.8274305 -0.4403017 -1.2395525 4.253337e-05 -0.9456555 -0.022548726 -0.42651317 0.07743927
-0.2744103 0.13308208 0.00013063395 0.005635139 -0.902519 -0.26301464 -0.00080748124 -1.1799921
-0.99862313 -0.18555553 -0.18341851 0.00013975524 -9.6637224e-05 -0.16849932 -0.6627198 -0.00076160126
-0.5873182 0.2240357 -1.0978284 -0.8178992 0.014997805 4.2237367e-05 8.964305e-05 -1.561183e-05
0.0037102462 -6.270763e-05 -0.0034320848 -4.2521817e-05 -0.15494762 0.004227793 -0.54284906 0.15245152
-0.14368424 1.0030838e-05 0.06993573 -0.00011634842 -1.0601918 0.18329531 0.0006972825 0.0849068
-7.511449e-05 4.8791942e-05 0.0001802178 3.312952e-05 0.08091779 -0.27739012 0.14502804 2.9886103e-05
5.7286918e-05 0.056400012 0.056365322 7.056555e-05 -0.07751193 0.26138654 -0.2027873 -0.19205779
-9.806095e-06 -0.0061563905 -0.22207338 -0.55792683 -0.17300907 0.29256865 0.00022632252 -0.79759306
