GAIL/weights/GAIL_actor.pth (torch_old, 767283 bytes, 7 tensors)

fc1.weight f4 [300, 29]
000000 8c d4 09 be 07 74 90 3d a8 83 f0 3d 2b c2 38 3e
       -0.13459986 0.070533805 0.117438614 0.18042819
000010 74 74 cb 3d 7b 21 03 3e 8a 62 f7 3d 92 a2 e4 3d
       0.09934321 0.1280574 0.12079342 0.1116382
000020 ae 70 e0 3d 45 24 db 3d 5f f9 d6 3d 46 5c d3 3d
       0.10958992 0.10700277 0.104967825 0.10320334
000030 58 53 d1 3d f3 8c da 3d da 39 f5 3d 5d 0c 12 3e
       0.10220975 0.10671415 0.11973925 0.14262529
000040 c1 e9 14 3e f8 ae 24 3e 6f 89 23 3e 03 0f ae 3d
       0.14542295 0.1608237 0.15970396 0.08498957
000050 8e 9c 03 bc f8 85 a5 3d e8 4e d5 be 65 ef 94 bc
       -0.008032931 0.08082193 -0.41661763 -0.018180558
000060 4f 7a 99 3b aa c3 7e 3b 20 dd 87 3d 6a b3 83 3d
       0.00468377 0.003887395 0.06633973 0.06430705
000070 84 96 89 bc 4f 51 99 3d 12 c1 61 3d ca c9 91 bd
       -0.016795404 0.074862115 0.055115767 -0.07118566
000080 4f 77 5c bd 12 81 50 bd ef 2f 12 bd 6e 25 de bc
       -0.05382472 -0.05090434 -0.035690244 -0.027117457
000090 db 00 cb bc 56 6f c9 bc 11 76 b5 bc 15 15 a7 bc
       -0.024780681 -0.024589222 -0.022151025 -0.020395795
0000a0 b1 68 9c bc 75 bd 90 bc e8 e7 89 bc a4 fd 78 bc
       -0.01909289 -0.017668465 -0.016834214 -0.015197191
0000b0 af 7b b1 bb cd ed 11 3c cc 88 32 3d a9 c8 4d 3e
       -0.0054163556 0.008906794 0.04358749 0.20096077
0000c0 c8 96 1f 3e b8 59 a1 3c e9 c5 66 bd b9 a1 3a be
       0.15584862 0.019696102 -0.056341086 -0.18225755
0000d0 5b ca 85 3c 25 87 89 bc f9 fe ba bc f0 55 2f bd
       0.016331842 -0.016788075 -0.022826659 -0.042806566
0000e0 fc 8b 26 bd 3a 50 df 3d 80 22 87 be c7 df 00 bd
       -0.040660843 0.10903974 -0.2639351 -0.03146341
0000f0 28 63 16 3c a8 b9 d4 3d c3 50 f4 3c 98 97 bb 3c
       0.009178914 0.103869736 0.029823666 0.022899434
000100 e9 15 e2 3b e3 5c 85 bb 40 82 13 bc c6 50 1d bc
       0.0068995846 -0.004069911 -0.009003222 -0.009601777
000110 14 a5 26 bc dd d5 1f bc d3 6e 19 bc bc 72 6d bb
       -0.010171194 -0.009755579 -0.009364801 -0.0036231717
000120 a1 98 4e 3c c6 32 31 3d 23 8c 98 3d 6b 73 e9 3d
       0.012609632 0.043261312 0.07448604 0.11398967
000130 5c 94 a2 3d e2 d4 db 3c fb 2a 0f 3b f0 55 21 bd
       0.079384536 0.026834909 0.0021845687 -0.039388597
000140 05 54 93 bc 32 e5 f0 bd c0 b0 b5 bc 67 6f c5 bc
       -0.0179844 -0.117624655 -0.022179008 -0.024100972
000150 c8 30 02 bd 40 b5 fb bc 12 b8 f0 3c 5a f8 6c be
       -0.031784803 -0.030726075 0.029384647 -0.23141614
000160 5d 9b 11 bc 42 15 27 bc 94 75 c1 3d ab d9 54 3d
       -0.008887139 -0.010197939 0.094462544 0.051965397
000170 6d 8f 4a 3d 1d 23 12 3d dd a4 d5 3c 40 a4 bd 3c
       0.049453188 0.035678018 0.02607959 0.02314961
000180 39 e7 c3 3c 7c c2 d2 3c c7 77 e4 3c 85 74 fb 3c
       0.023913966 0.025727503 0.027889146 0.03069521
000190 35 ab 20 3d c5 02 6b 3d 95 75 b5 3d ec 84 fa 3d
       0.039225776 0.057375688 0.088603176 0.12232384
0001a0 33 a9 28 3e de 59 ba 3d b9 fc 2c 3c 08 88 25 bd
       0.16470794 0.09099172 0.010558301 -0.040412933
0001b0 30 4c 67 bc b6 c0 0c be e6 76 f2 bd 14 be a5 3c
       -0.014117286 -0.13745388 -0.11839084 0.020232238
0001c0 21 19 8e 3c 9a 51 93 bb d9 35 9f bb 24 2c 3a 3d
       0.017345967 -0.0044958116 -0.004858714 0.045452252
0001d0 3e 3f 87 3e e3 da 7b 3e 38 55 c0 3d 5e 60 92 3e
       0.26415437 0.24595217 0.09391254 0.28589147
0001e0 5b d3 ca 3d f8 50 5b 3d 21 e9 52 3d a0 a3 5d 3d
       0.09903594 0.053544015 0.05149186 0.054111123
0001f0 3e bc 73 3d ae 4a 75 3d db 44 7a 3d 12 a0 7c 3d
       0.059505694 0.059885673 0.061100822 0.061676092
000200 b1 e9 80 3d 77 ed 88 3d c9 b7 8d 3d 36 79 96 3d
       0.06294573 0.06685918 0.0691982 0.07347338
000210 d8 a7 8a 3d 28 77 95 3d df 78 0d 3e fe d5 b9 3d
       0.06770295 0.07298118 0.1381564 0.09074019
000220 47 ff 37 bd d9 4d 06 bd ec 53 dc 3e 7d 71 c0 3d
       -0.044921186 -0.032789085 0.43032777 0.09396646
000230 f0 2c 53 bd de f1 28 bd 1d d6 6d bd 50 c0 77 bd
       -0.051556528 -0.041246288 -0.058065522 -0.060486138
000240 48 e9 52 bd b9 06 15 35 3c e9 0a b8 01 b9 c3 b6
       -0.051492006 5.551661e-07 -3.311898e-05 -5.83299e-06
000250 02 3f e6 38 42 b3 d9 b8 39 ea f4 35 6d aa 0c 39
       0.00010978991 -0.00010380756 1.8247584e-06 0.00013414929
000260 5d b0 de b7 e0 44 1d 39 8e 54 e2 b5 43 46 d7 b8
       -2.6546588e-05 0.00014998345 -1.6862921e-06 -0.00010265086
000270 a5 ad be b8 40 fe 8d b8 14 43 5c 37 b4 f9 4e b9
       -9.09225e-05 -6.770762e-05 1.312864e-05 -0.00019738713
000280 6e 49 37 38 e3 8c cf 37 03 2c 5d b7 d3 28 36 37
       4.3698987e-05 2.4741928e-05 -1.3182874e-05 1.08575505e-05
000290 46 fc ff b8 2f c0 d7 b6 c0 16 26 b9 9b dc b1 b8
       -0.00012206337 -6.4298724e-06 -0.00015839469 -8.481109e-05
0002a0 6a f3 68 35 e9 f2 c6 38 48 6e d6 b8 43 3d 07 b9
       8.678095e-07 9.486621e-05 -0.00010224857 -0.00012897425
0002b0 4d 18 e3 b8 31 fd 80 b8 e7 f9 ca 3d 1c f8 55 3d
       -0.0001082873 -6.150676e-05 0.09910946 0.05223857
0002c0 14 c8 99 bd 9b 79 7f bd b6 fa 6e bd d1 16 27 bd
       -0.07508865 -0.06237183 -0.058344565 -0.040793244
0002d0 3a 1d f4 bc 1a f6 d2 bc ef e6 c5 bc d6 ea aa bc
       -0.029799093 -0.025752116 -0.02415797 -0.020863932
0002e0 d0 ff 99 bc 81 b8 85 bc b3 df 69 bc 3b 16 49 bc
       -0.018798739 -0.01632333 -0.014274525 -0.012273367
0002f0 dd 34 24 bc 35 76 57 3a 5b f5 97 3c d6 22 43 3d
       -0.010022369 0.00082192133 0.018549612 0.047640644
000300 10 76 4c 3e 9c 04 ee 3d 4d b8 13 bc f4 0c 5a bd
       0.19966912 0.11621973 -0.009016109 -0.05323501
000310 09 ab 97 be 14 fe ff 3c 8e b6 53 bc 32 20 9e bc
       -0.29622677 0.031249084 -0.012921942 -0.019302461
000320 b5 84 1e bd 04 31 25 bd e8 5c d5 3d 9c 0f bb 3e
       -0.038700778 -0.040329948 0.10418111 0.36535347
000330 11 0e 93 3d 7d a7 64 3e 72 a0 ec 3d f3 e2 b9 3d
       0.07180417 0.22329517 0.1155404 0.0907649
000340 17 31 21 3d 3a bc b3 3c b7 b6 73 3c 9a 50 3a 3c
       0.039353456 0.02194034 0.014875106 0.011371756
000350 5d 30 fc 3b 7a 73 8d 3b e6 85 d5 3a 20 82 83 ba
       0.007696195 0.0043167444 0.0016290515 -0.0010033287
000360 d4 dc 9e bb 35 50 4b bc ed 58 04 bd ce 00 8e bd
       -0.004848102 -0.01240926 -0.03231137 -0.06933747
000370 ea 16 cc bd 36 bd 1b be fc 3d 43 bd 0e f4 9b bd
       -0.09965308 -0.15208897 -0.047666535 -0.07614909
000380 42 ac c1 bc 89 7a 55 be d5 d8 a8 3e 41 bb d5 3b
       -0.02364171 -0.20847525 0.3297793 0.0065225665
000390 f8 2b ad ba aa 3d 74 bc 73 e1 3f bc c4 22 45 3d
       -0.0013211956 -0.01490728 -0.011711466 0.04812886
0003a0 92 53 a7 3d 1c fd 8c 3c e6 a5 26 bd f3 64 8f 3c
       0.08170237 0.017210536 -0.040685557 0.017504191
0003b0 20 09 4b bb 56 43 a1 bb 23 f0 4b bc eb a3 9b bc
       -0.003098078 -0.004921357 -0.01244739 -0.01899906
0003c0 7b 16 b0 bc f6 fc a0 bc 32 52 8a bc c2 37 51 bc
       -0.021495095 -0.019651871 -0.016884897 -0.012769641
0003d0 b8 cd 0a bc 7b f0 50 3a e1 0c 9d 3c cd 2e 74 3d
       -0.008471899 0.00079704047 0.01917118 0.059614945
0003e0 88 c7 f0 3d ce f8 3f 3e 87 57 fe 3d b1 fe 9c bc
       0.117568076 0.18747255 0.12419038 -0.019164415
0003f0 55 1f 27 bd 51 26 20 bd b9 11 2f be 2a b7 41 be
       -0.040801365 -0.03909904 -0.17096604 -0.18917528

fc1.bias f4 [300]
000000 c2 73 a3 3d 37 1e 8b 3d 77 b5 85 bb f6 66 eb ba
       0.079810634 0.067928724 -0.00408047 -0.0017959762
000010 53 ad d5 3d 07 02 0d b8 d6 a7 72 3d 0d 90 51 bc
       0.104334496 -3.3618908e-05 0.059242092 -0.012790692
000020 c4 5b bd 3a 19 b0 4e 3d 1f e1 e0 bc d4 dd af b8
       0.0014446904 0.05046091 -0.027451096 -8.385969e-05
000030 e6 35 94 b8 4a 10 ec ba 76 38 c5 3d 62 a7 50 3c
       -7.067229e-05 -0.0018010226 0.0962991 0.01273522
000040 e3 72 77 3c 14 f0 ac 3b f2 bc f1 bb b3 55 bf 3d
       0.015103075 0.005277643 -0.0073772604 0.09342518
000050 eb 09 bb 3d c2 71 dd 3d e1 26 ea bb bc 2f 6c bc
       0.09132751 0.10812713 -0.007145748 -0.014415678
000060 2b 6d bd 3d 83 da 7a b8 43 fb 9e 3d ee 67 c5 b9
       0.09249338 -5.980815e-05 0.07762768 -0.00037652202
000070 8c 37 13 3d bb 5f 11 ba 2b 90 91 3b 3c 6e 4e 3d
       0.035941646 -0.0005545576 0.004442235 0.050398096
000080 c8 16 c5 bb 67 c2 bd 3c 5c 13 5c 3c 6c 03 b0 3d
       -0.0060146786 0.023163987 0.01343235 0.08594403
000090 b8 a2 34 bc f7 c9 df ba 7f a8 d3 3c 98 57 e3 3b
       -0.011025123 -0.001707374 0.025837181 0.006937932
0000a0 d3 56 7e 3c 4d 48 16 bd dc 6e 77 3c 22 f9 f4 b8
       0.01552363 -0.036690045 0.0151021145 -0.00011681231
0000b0 11 7d d3 3c 38 a0 79 b8 0f dd 39 bc 48 d3 17 bd
       0.025816472 -5.951544e-05 -0.011344208 -0.037066728
0000c0 32 22 9e b8 75 5d 44 3d 72 05 8b 3c e2 3e 58 bc
       -7.5403965e-05 0.04794069 0.01697037 -0.013198586
0000d0 6d ee b9 3c 3d 58 85 b8 47 9f e7 3b d7 21 bb 3d
       0.022696698 -6.35837e-05 0.007068548 0.09137314
0000e0 57 aa 75 3d 67 bb be 3d 7e 22 b4 3c 7f 91 b4 3c
       0.0599769 0.09313088 0.021989103 0.022042034
0000f0 7b 13 4d 3d 59 9c ad 3b 15 66 84 bc e5 31 77 3c
       0.050067406 0.005298179 -0.016161958 0.015087579
000100 19 31 78 b8 71 6d 37 bd e6 89 a9 3d 6d 0c cb 3d
       -5.9173533e-05 -0.044782106 0.08278255 0.099144794
000110 28 ee 96 3b f6 73 e1 ba 20 01 ff bb 32 19 11 bc
       0.004606027 -0.0017200697 -0.0077821165 -0.008856105
000120 5e d5 70 3c fb 16 83 bb 9c 06 a0 3d 90 1d b3 3d
       0.014699308 -0.004000542 0.07813761 0.08745873
000130 14 46 f1 3c 96 84 19 3d fd 26 88 b8 cc b5 e3 ba
       0.029452361 0.03747996 -6.4922475e-05 -0.0017372905
000140 c7 65 e2 3c 59 eb b0 3c c5 e2 a4 b8 8f a9 c4 bc
       0.027636422 0.021596598 -7.8623685e-05 -0.024006633
000150 5c d1 41 bd 87 4c 75 3d ea e6 7f bc 3d f9 5d 3d
       -0.0473188 0.059887435 -0.015619019 0.05419277
000160 8b e6 be 3d db ad b9 3c d5 93 01 3d 5b c8 e6 b5
       0.09321316 0.022665909 0.031635124 -1.7194646e-06
000170 a5 8c 86 bc ad 30 1e b8 7b 19 d8 3d c8 3b 77 bd
       -0.016424486 -3.771547e-05 0.10551735 -0.060359746
000180 0f 66 aa 3c a4 b6 66 3d b2 0a 4d 3d d0 0d 11 3d
       0.020800618 0.056326523 0.050059028 0.035413563
000190 44 b1 cf 3d 6f a5 e0 3c b5 5c df 3c 4f b4 0b 3d
       0.101412326 0.027422635 0.027265886 0.034107503
0001a0 3f bc ca 3c 6f 74 83 bc a1 fd 93 bc 3c 71 27 3d
       0.024747966 -0.01604673 -0.018065276 0.040879473
0001b0 7c a4 3f bd 9f 99 8d b8 42 76 23 3d db 95 4f 3a
       -0.046787724 -6.752018e-05 0.0399077 0.00079187535
0001c0 0c 7c ac 3c ab 6c 84 bc 88 89 6b b8 ff 90 68 3d
       0.021055244 -0.016165098 -5.6156452e-05 0.056778904
0001d0 f3 9b 1e 3d fe 15 ae bb 31 48 b4 3d 34 0c d9 b8
       0.038722944 -0.0053126803 0.08802832 -0.00010349639
0001e0 ed f5 f0 3c 88 bf 48 3d b9 60 1e 3d f3 c8 4e 3c
       0.029414142 0.049010783 0.03866646 0.012621152
0001f0 66 f2 56 b8 98 39 72 bb 96 94 25 3e 8d 9a 13 3c
       -5.1247327e-05 -0.0036960598 0.16169962 0.009009016
000200 fe 61 fd 3b 38 89 3f bd 02 cb ae 3d 2a 82 49 3c
       0.007732629 -0.04676172 0.085348144 0.0122991
000210 36 14 c8 3b da 0f 8c 3d 1d 16 31 b8 c5 ed 2b 3b
       0.006105925 0.06838961 -4.2220683e-05 0.002623425
000220 04 5a 10 3c ae 36 98 3d 71 da ea 3c ad 3d dc b8
       0.008810524 0.07432304 0.028668614 -0.000105019055
000230 d9 97 8c b8 3c cb 18 3d 74 8d dc 3d 5b 20 ac 3c
       -6.704004e-05 0.037303194 0.107691675 0.021011522
000240 e5 37 d6 bb ea 40 ad 3d 73 e1 5d 3d 62 3a ee b7
       -0.006537425 0.08459647 0.054170083 -2.8398998e-05
000250 34 65 93 b8 a6 d8 74 3c ed 06 3d 3c 5f ef 17 b8
       -7.028357e-05 0.014944231 0.011537296 -3.6224137e-05
000260 23 e3 b2 3d b3 a8 c4 3d a6 87 bf 3d 04 00 7d b8
       0.08734729 0.09602489 0.09352045 -6.0319915e-05
000270 aa 72 b3 3b 98 c2 c2 bc e2 7f 87 bd eb 57 05 b9
       0.0054763155 -0.02377443 -0.066161886 -0.0001271662
000280 7f 86 ed 3d 32 c2 6d 3d ba 04 91 3d e7 c3 ce 3c
       0.11597919 0.058046527 0.0708098 0.025239898
000290 bc 42 6e 3b 28 c2 1c 3d 3a f5 8b b8 79 94 41 b8
       0.0036355695 0.0382711 -6.6737135e-05 -4.615306e-05
0002a0 22 35 43 bd 96 00 dc bc 0b f2 03 b9 df f8 60 bb
       -0.047658093 -0.026855748 -0.00012583302 -0.0034328026
0002b0 48 18 49 3d 75 69 c9 3c 32 26 99 3d 83 07 fd bc
       0.049095422 0.024586419 0.07477988 -0.03088737
0002c0 81 dc ca b8 00 17 dc 3d d4 99 1c b8 ce 6e 80 b8
       -9.673183e-05 0.107465744 -3.7336562e-05 -6.1241546e-05
0002d0 c5 5b f0 3c b5 a8 fb 3b 75 75 73 3c 72 e3 a3 3c
       0.029340634 0.0076800236 0.014859547 0.020005915
0002e0 f0 d7 1b bc 03 57 d9 ba ec 9e 35 3c db 4f e7 3c
       -0.009511933 -0.0016581718 0.011085253 0.02823632
0002f0 e0 c9 d7 3c a6 4b 03 3d 51 dc ad bc dd a2 19 b8
       0.026341379 0.032054566 -0.02122322 -3.662972e-05
000300 02 f1 4e 3d 3f c6 e0 3d 9d 99 74 bd ad 5e 92 3c
       0.05052281 0.109753124 -0.05971681 0.01786741
000310 f5 9f 64 3b e4 f6 97 3d 5e 32 a8 3d 8a b6 e3 3c
       0.003488538 0.074201375 0.08212732 0.027797002
000320 cf b4 bd 3c 0e 43 31 bd fe ff 7c bb a1 d2 8a 3c
       0.023157505 -0.04327684 -0.0038604732 0.016946139
000330 14 48 e9 bc 38 24 86 3d f7 c5 b8 3d 47 38 5c 3d
       -0.028476752 0.06549877 0.09022134 0.053764608
000340 ab 57 d2 3c 92 b6 86 b8 d4 18 9d b8 8b 1e 8f 3c
       0.025676569 -6.423624e-05 -7.490968e-05 0.017470619
000350 3b f0 57 bc df d1 be 3d 22 6d e6 bb 3b 55 4e 3d
       -0.013179834 0.093173735 -0.0070320526 0.05037425
000360 6a b3 74 3d 2d e1 db 3d 3a ff f2 3b 50 f8 f3 bb
       0.059741415 0.10736308 0.0074156793 -0.0074453726
000370 90 4b ef 3c ab 9e d1 b8 74 52 2d 3d 6f 94 ba 3a
       0.029210836 -9.995451e-05 0.04231496 0.001423491
000380 ab d1 6f bc 3c de 99 3c 1b fc 97 3c 7b e2 19 bc
       -0.014637391 0.018782727 0.01855283 -0.009392376
000390 86 e2 b0 3d ff 9f 18 3d 49 1f b0 bc 9b 22 f7 3c
       0.08636956 0.03726196 -0.021499293 0.030167868
0003a0 45 3e ba 3c 41 1c 5f 3c 4a 25 ed 3c a8 fc 7f b8
       0.02273477 0.013617576 0.028948445 -6.1032042e-05
0003b0 22 e6 81 3d 99 0a 61 3e 46 0e 3a 3d a3 7d 28 3d
       0.063427225 0.21976699 0.04542377 0.04113544
0003c0 93 31 3a 3c 22 84 aa bb b9 24 c6 3c 5f 7b 1e ba
       0.0113643585 -0.0052037397 0.024187433 -0.00060456054
0003d0 35 41 69 3b ae 16 36 3d 55 38 bc 3d 63 21 74 3d
       0.0035591845 0.044455223 0.09190432 0.059602153
0003e0 49 e4 21 bd be 69 91 b8 49 61 f1 3c e8 1c 10 3d
       -0.03952435 -6.933835e-05 0.029465334 0.035183817
0003f0 19 7f d2 bc 41 bc d6 b8 8c 8d 5e 3d db 72 fa 3c
       -0.02569537 -0.0001023938 0.05433421 0.030572345

fc2.weight f4 [600, 300]
000000 14 61 3a be 3c 49 8c bc b5 85 b2 3d 3e 1b ad 3d
       -0.18201095 -0.017124765 0.08716909 0.08452462
000010 61 91 d5 be 01 e0 d9 38 1b e6 15 be 6e 98 3f 3d
       -0.41712478 0.0001038909 -0.1463856 0.046776228
000020 30 ad 22 3e db ef 0e 3e 16 b4 27 3d 7a 4e 4a b8
       0.15886378 0.13958685 0.040943228 -4.823364e-05
000030 b8 6e 07 38 38 1b 9b 3d ce 3d 8e bd 6c d4 9a 3d
       3.2289623e-05 0.07573551 -0.06945382 0.075600475
000040 9b 2a a6 3d 62 62 0a bd 72 48 19 3c fe 2b 05 be
       0.08113595 -0.03378523 0.009355651 -0.13005063
000050 44 f2 e8 bd 28 b0 93 be 48 7c cd 3c c5 46 c3 3d
       -0.113743335 -0.28845334 0.025083676 0.095349826
000060 12 12 e7 bd 90 9b bf 38 54 00 0b bc 65 fb dd 3c
       -0.112827435 9.1365655e-05 -0.008483965 0.027097413
000070 2a 85 bb 3d a5 3a 1c bd d8 67 7e 3e fb 2c 59 bd
       0.091562584 -0.038141865 0.24844301 -0.053021412
000080 c6 7f cc 3d d2 6a e1 3d 03 56 3e be 04 b4 12 bc
       0.09985308 0.110067025 -0.18587498 -0.008954052
000090 8d 27 fa 3d 32 7d b1 3d 2c 54 6c 3e 20 a0 29 3e
       0.12214575 0.08666457 0.23078984 0.16564989
0000a0 19 0f fc bd 69 4b a6 3d a3 30 c8 3d 95 36 f5 b7
       -0.12307567 0.08119852 0.09774902 -2.9231693e-05
0000b0 bf a0 c1 3d a8 99 b0 38 08 de ef 3d b0 9b 2c 3e
       0.09454488 8.420955e-05 0.11712271 0.16856265
0000c0 63 47 01 b8 c8 b0 b9 bd d6 7a 67 3e 85 37 04 3e
       -3.082248e-05 -0.090669215 0.22605452 0.12911804
0000d0 80 54 a0 3d 2b f4 c4 b7 17 01 99 3c 0a 92 c6 be
       0.07828617 -2.347872e-05 0.018677277 -0.38783294
0000e0 3c 26 bf bd b0 4c 74 bd 07 a2 bf 3d 4f 3d 53 be
       -0.093334645 -0.059643447 0.09357076 -0.20628856
0000f0 36 19 8d bc b6 09 07 3e be 78 0e 3e 48 83 df 3d
       -0.017223936 0.13187298 0.13913247 0.10913712
000100 b0 5f 2e b9 70 b4 1a 3e bb 5a 08 3e bc 1e d0 be
       -0.0001662958 0.15107894 0.13315861 -0.40648448
000110 79 d9 b7 bd ab 2b c5 3c e8 38 c5 3d 84 c0 82 3d
       -0.089770265 0.024068674 0.09629995 0.06384376
000120 e6 42 37 be 35 fd 81 bd 3f a4 28 3b aa 94 b3 be
       -0.17896613 -0.063471235 0.0025732664 -0.3507436
000130 de 84 5c 3e 25 60 67 3e d7 55 3b b9 10 87 05 3e
       0.2153506 0.2259527 -0.00017865688 0.13039804
000140 71 53 11 3e 7b 66 12 be 04 5e a9 b8 88 68 21 3d
       0.14191987 -0.14296906 -8.07606e-05 0.03940633
000150 8c 23 e0 3d 09 65 b2 bd 00 0c 10 3e ab 32 be 3c
       0.1094428 -0.08710677 0.14067078 0.02321752
000160 0e 28 d6 be 63 2d b4 3d a6 4a 8c be b4 2a 3c b7
       -0.41827434 0.08797719 -0.27400702 -1.1215616e-05
000170 03 df 14 3e 5a 56 36 b9 4e ad 8b be 6d cb 05 3d
       0.14538197 -0.00017389041 -0.27280658 0.032664705
000180 70 78 1f 3e 62 59 3a bc 45 3f a5 3e 11 cb 11 3e
       0.15573287 -0.01137385 0.32274833 0.1423762
000190 33 90 d4 bd fd 96 1d be 60 dc 9f 3d 2d 09 67 3e
       -0.10379066 -0.15389629 0.07805705 0.22562094
0001a0 6f 58 ac 3d 75 cc fa 3c 64 f6 5d 3d 03 74 1a 3e
       0.08415305 0.03061507 0.054190055 0.15083317
0001b0 ec 11 7e 3d 94 16 06 39 46 dc 97 3c 76 f6 f6 3d
       0.06202881 0.00012787647 0.018537652 0.120587274
0001c0 ae a6 b0 3d 1c 9a 15 3e 0f 7d 62 b8 14 9b 4a be
       0.086255416 0.1460957 -5.399907e-05 -0.1978572
0001d0 8f 2b 87 bc ef fa b9 3d 42 d7 f6 3d e1 23 4e b7
       -0.016500263 0.09081065 0.12052776 -1.22869105e-05
0001e0 64 2c 77 3e d7 28 bb bc da a2 f7 3c 0a 2b 38 3d
       0.24138027 -0.022846622 0.03022902 0.04496292
0001f0 1d 9e 03 b8 ec 1d 00 3e 1d e4 c6 3b 48 9a f1 3d
       -3.138009e-05 0.12511414 0.0060696737 0.11797005
000200 fe 23 a5 3d 65 92 0f 3e 04 80 21 3d 52 25 2a 3e
       0.080635056 0.14020689 0.039428726 0.16615799
000210 fb e4 2a 3e 8d eb f8 bd b9 2e 9d b8 49 77 9b 3d
       0.16688912 -0.12154303 -7.495046e-05 0.07591111
000220 9d d0 ec 3d c8 73 e1 3d 7c 48 53 3e ee 3f a2 37
       0.11563227 0.11008412 0.2063312 1.9341674e-05
000230 5e 99 c0 38 cc 34 e4 3d e4 98 8e be 0e 58 5b 3d
       9.18384e-05 0.11142883 -0.2785102 0.053550772
000240 25 73 c6 3d a5 4a 97 3d 47 fb 7b bc 94 57 12 b9
       0.09689931 0.07387284 -0.015379733 -0.0001395627
000250 48 ba 69 b8 5a a8 f0 3c e1 a6 4d 3e 12 2a b4 38
       -5.5725017e-05 0.029377151 0.2008319 8.590905e-05
000260 7d f2 01 3e 5a 7a f6 bd 74 90 75 bd 71 41 f2 b8
       0.12690158 -0.120350555 -0.059952214 -0.00011551649
000270 3a ab c3 3d d3 58 bb 3d fe 3d f1 3d f8 e2 68 38
       0.09554143 0.09147801 0.11779402 5.552449e-05
000280 35 a9 ee be 0c 63 05 3e b2 fd a8 b9 63 b0 a5 3d
       -0.4661347 0.13026065 -0.00032232475 0.08090284
000290 c2 e4 9f 3d b4 eb 6d 3e 13 43 91 b8 b0 3e 64 38
       0.07807304 0.23234445 -6.926632e-05 5.441782e-05
0002a0 db 1b bb 3c 44 a3 77 3d 71 87 c2 38 d0 b2 b4 3d
       0.022840431 0.060458437 9.275869e-05 0.08823168
0002b0 b8 d5 8d bd a1 f4 40 3e cf 07 06 bb 14 b4 8e 3d
       -0.06925529 0.18843319 -0.0020451432 0.06967941
0002c0 b3 33 1d 38 ed a3 04 be 63 f6 95 b8 a6 77 e6 36
       3.7479866e-05 -0.12953158 -7.150767e-05 6.868463e-06
0002d0 f1 35 4a be 5c 1d d2 3d 0d 00 9d 3d e1 8a 0a 3e
       -0.1974714 0.10259506 0.07666025 0.1352954
0002e0 01 80 1d 3d f5 eb be 3c 99 30 24 3d ae 9a 48 3d
       0.038452152 0.023305872 0.04008541 0.04897564
0002f0 36 38 3b 3d 66 4a ad 3d 5d 62 b8 3d 41 15 38 37
       0.045707904 0.08461456 0.09003136 1.0972203e-05
000300 c9 39 05 bd d5 ad e6 bc 3c 8d ec 3d 20 77 94 3d
       -0.03252581 -0.028159061 0.11550376 0.07249284
000310 77 4b 09 3e ce 14 2d be 90 a9 a1 3d 6c 21 73 be
       0.13407694 -0.16902468 0.078936696 -0.23743218
000320 82 6d 6e 3e df 8d 2d 3d 7d 8b ae 3d 40 60 9f 3d
       0.23283961 0.042371627 0.08522699 0.0778203
000330 7a 93 4b 3b cc 97 14 be bd 08 b1 3d cc 43 14 bb
       0.0031063245 -0.14511031 0.08644245 -0.0022623418
000340 6c db 55 3e 9e 99 0b 38 14 62 9e 37 50 85 97 3d
       0.20884484 3.328325e-05 1.8880739e-05 0.07398474
000350 ab 52 58 3e de b7 e0 bd d9 a7 d4 3c 0d 13 a9 bd
       0.21125285 -0.1097257 0.025958942 -0.08255587
000360 57 ec 83 bc 73 db 8f be 7a 64 1b 3e 58 da c6 3c
       -0.016103907 -0.28097114 0.15175048 0.024274036
000370 ed 12 cf 3d 20 24 0d 39 32 05 62 3e 5f 3d 58 3d
       0.10111032 0.00013460265 0.22072294 0.052792903
000380 68 df da 3d fe 6f 7f 3e 5e f5 5d 3e c5 d6 d9 3c
       0.106871426 0.24945065 0.21675631 0.026591668
000390 5c 03 98 3d e2 bb f7 bd 63 e4 c8 3d 3d 98 be 3d
       0.07422516 -0.12096383 0.09809186 0.09306381
0003a0 53 14 c5 3d ce f6 59 3e 75 4a 54 be 4d f7 d8 37
       0.09623017 0.21285555 -0.20731528 2.5864365e-05
0003b0 ae 13 df bc ee 26 36 3c c0 03 bc bb ba 45 ad bd
       -0.027231064 0.01111768 -0.0057377517 -0.08460565
0003c0 cc 3a 1a bd aa c4 06 3d b2 71 64 3e 10 55 e6 bc
       -0.03765373 0.032902397 0.22308996 -0.028116733
0003d0 6a 96 b5 3d 8d 67 e6 bb 3a 30 04 be e6 d5 1b be
       0.0886658 -0.007031387 -0.12909022 -0.15218315
0003e0 21 f8 25 3e 25 90 02 39 0d 75 a7 3d 8f 64 4d 3e
       0.16207935 0.00012451464 0.081766225 0.20057891
0003f0 92 d9 99 3d 4d bf 2d b8 4e a3 1f be 13 05 77 3e
       0.07512201 -4.1424577e-05 -0.1558964 0.2412303

fc2.bias f4 [600]
000000 c7 da 9d 3c 3b 61 38 bd ba 8b 41 bc 08 d0 cf b9
       0.01926936 -0.0450146 -0.011813099 -0.00039637112
000010 c7 75 f4 bb 40 47 09 bd 56 ff 44 3d f7 11 3c 3d
       -0.007460329 -0.033515215 0.04809507 0.04591557
000020 db 5d 61 3c d8 6f 5c 3c bf c5 84 ba 8e ad 9c 3c
       0.013755287 0.0134544 -0.0010129734 0.019125726
000030 7f 15 c5 bc 12 83 75 bc 66 18 c7 3c 26 e1 38 ba
       -0.024058102 -0.014984863 0.024303626 -0.00070525927
000040 8e e4 f7 bc 69 20 07 ba 05 66 f8 bb f1 3a 42 3d
       -0.03026035 -0.0005154671 -0.007580521 0.047419492
000050 0c 17 b2 b9 dd 33 09 ba ae 01 2e 3d db d8 31 3e
       -0.00033967977 -0.00052338635 0.04248207 0.1736788
000060 54 c8 c2 bd ee aa 3f 3d 8b 47 08 ba 62 19 82 3d
       -0.09510866 0.04679387 -0.0005198649 0.06352498
000070 a4 83 02 3e 78 d9 8e bd 81 d9 34 3d 4e 0f cd bc
       0.1274553 -0.069750726 0.04415274 -0.025031712
000080 60 ee d7 3d a4 19 1c 3d e5 b4 37 3d ce 5d 70 b9
       0.10543513 0.03811039 0.04485025 -0.00022923129
000090 6d a0 80 3b 34 b8 87 3a ab d7 b4 3c c3 4e 06 3c
       0.0039253742 0.001035458 0.022075495 0.008197489
0000a0 3f 62 c6 bc e4 2f 69 bd f7 80 18 b9 54 d5 1b bd
       -0.02421677 -0.056930438 -0.00014543893 -0.038045242
0000b0 9d 1d f5 b9 80 5f 85 bc 33 09 48 3c 5c d9 e6 bd
       -0.00046752105 -0.01628089 0.0122092245 -0.11271927
0000c0 fd a7 45 ba 69 9c ff 37 33 d2 77 ba e2 80 53 ba
       -0.0007539986 3.0471203e-05 -0.00094536244 -0.0008068216
0000d0 80 9d ca b9 40 fd af 3d 71 0d f2 bc 58 8d 8e bc
       -0.0003864579 0.085932255 -0.029547425 -0.017401382
0000e0 f9 5c 13 bd d2 44 09 bd c9 10 18 bd 5e 84 1d 3d
       -0.035977338 -0.033512898 -0.037125383 0.038456313
0000f0 19 83 a2 3d 98 f6 da bd 1c f0 00 3d 5d 60 e6 3d
       0.07935161 -0.10691565 0.031478986 0.112488486
000100 e0 95 20 bd 20 a9 08 3e 4e 87 54 ba 77 48 9c 3c
       -0.039205432 0.13345766 -0.000810732 0.019077523
000110 5c a3 95 3c 8d ae f4 bc 62 2e 16 bd 38 ec 09 bd
       0.018266372 -0.029868389 -0.036665328 -0.03367254
000120 eb e3 49 ba 1a 25 ab bd 05 07 c9 bc 56 69 f5 bc
       -0.0007701504 -0.08356686 -0.02453948 -0.029957455
000130 a4 83 b8 ba 89 c7 55 b9 23 3e 0e bd 48 fa d3 3c
       -0.0014077318 -0.00020387596 -0.034727227 0.02587618
000140 dd f0 98 b9 4d 01 83 bd 1b c2 1a bd ea b1 5b 3d
       -0.00029171156 -0.063967325 -0.03778277 0.05363647
000150 35 2e 71 bc 52 b1 55 bd 9d 3e 86 b9 64 8d 91 bd
       -0.014720489 -0.05217106 -0.00025605122 -0.07107046
000160 b2 d1 16 bd 9a 7f ec b9 38 14 ec bc aa 64 fa bc
       -0.036821075 -0.00045108498 -0.028818235 -0.030565578
000170 67 8c cf bd 13 3f 15 bd 0e ea 80 3d 49 87 03 bd
       -0.101342015 -0.036437105 0.062946424 -0.03211144
000180 4d a8 b6 3d db 43 3d 3d 80 c8 46 3d aa ab 38 3d
       0.089188196 0.04620729 0.048531055 0.045085587
000190 8b 9c 26 ba 98 e2 da 3d 5b db 13 bd cc 66 70 3d
       -0.0006355724 0.106877506 -0.036097866 0.058691785
0001a0 88 bf 0f 3d 93 92 21 bb a4 03 39 3d 47 b3 0f 3c
       0.035094768 -0.0024654015 0.045169488 0.00877077
0001b0 46 1c de bd 80 54 1a 3e e1 9e e2 3d 78 8c 0c bd
       -0.108452365 0.15071297 0.1106546 -0.03431365
0001c0 72 24 73 bd 82 6a de 3d e2 72 b4 bc 93 70 1a be
       -0.05936093 0.108601585 -0.022027437 -0.15082006
0001d0 91 ca c2 b9 24 4f 76 ba 70 92 9a bd c5 7f 2f 3e
       -0.00037153487 -0.0009395948 -0.07547462 0.17138584
0001e0 30 4d b3 bd bf 53 7b bd b6 10 99 3c 58 46 b3 3d
       -0.08754957 -0.061359163 0.018684726 0.087536514
0001f0 19 9a 9d 3d 98 76 1b 3c 68 b7 63 3d f7 0b 3d 3b
       0.076954074 0.009488724 0.05559483 0.0028846243
000200 24 eb db 3b de 55 5a 3b 34 73 57 ba eb 43 be b9
       0.0067113806 0.003331534 -0.0008218766 -0.00036290227
000210 e5 70 2b bb 2f f1 2a 3b 5f a4 01 ba 1f eb 3b b9
       -0.002615982 0.0026083698 -0.00049454527 -0.00017921299
000220 2f 39 83 bc dd f9 c9 bd a9 ff 59 bd 43 00 10 bd
       -0.016018478 -0.09862111 -0.053222332 -0.0351565
000230 87 e0 87 bd e0 56 cf bd 02 af 66 3d b2 6b d4 bd
       -0.06634622 -0.10123992 0.056319244 -0.10372104
000240 aa f9 89 3c ef f1 91 bc 92 7a 39 ba 14 2f 16 bc
       0.016842682 -0.017815558 -0.00070754543 -0.009166498
000250 dd 89 66 bc e7 cc 99 bc 0c e7 43 bd a4 27 a5 3a
       -0.014070955 -0.018774463 -0.047827765 0.0012600315
000260 36 32 68 bd da 74 2e 3d 84 c9 b8 3c be b7 b7 b8
       -0.05668851 0.042591907 0.022557028 -8.760345e-05
000270 76 fa 9b 3b ea 90 10 3e e1 e6 e4 3b aa 0c 6e bd
       0.004760082 0.1411778 0.0069855307 -0.058117546
000280 0c 47 d7 b9 26 ec 8f bc d6 49 7a 3c d9 44 82 bd
       -0.0004106093 -0.017568659 0.015276393 -0.06360788
000290 31 79 89 3c 96 f8 c0 bd f6 3d 72 3d 45 a8 92 3d
       0.016781421 -0.09422414 0.05914112 0.07161001
0002a0 25 4f 5c 3d e8 d5 e7 bd 19 5d 3f 3d 1e c9 26 3d
       0.053786416 -0.11320096 0.046719644 0.040719144
0002b0 87 41 01 ba b1 36 10 3d 68 32 66 ba c9 34 56 bd
       -0.0004930724 0.035208408 -0.0008781315 -0.052296434
0002c0 33 a1 d2 bc 9d cc 3b bd 70 0c f6 bc a0 cd 9a b9
       -0.025711631 -0.04584943 -0.030035228 -0.00029526372
0002d0 ba f6 c3 3d 76 c9 a2 bd 26 e5 f7 3b 10 d7 35 3d
       0.09568544 -0.07948582 0.0075651584 0.044394553
0002e0 5a 55 e7 3c f5 94 8e bd f4 ad df bd f0 62 a3 3b
       0.028238941 -0.06962005 -0.10921851 0.0049861595
0002f0 70 c4 20 3b 43 2b a4 b9 88 fe 67 3c 14 05 4d ba
       0.0024531148 -0.0003131275 0.014159806 -0.0007820886
000300 4b 7c e6 bc 93 98 18 ba a3 89 60 bd 14 e6 f4 b7
       -0.02813544 -0.0005821075 -0.05481876 -2.9194205e-05
000310 c6 26 6d ba 5d e6 e4 b9 91 f7 4b bc bd 42 be b9
       -0.000904661 -0.00043659183 -0.012449161 -0.00036289348
000320 3f 54 ff 3c 24 b0 0f bd 1d 58 7e bc 51 ce 3d bd
       0.031168101 -0.03508009 -0.0155239375 -0.046339337
000330 9b 1e 29 bc 48 98 aa b9 61 5b 38 3d a3 4a e3 3b
       -0.010322238 -0.00032538385 0.04500902 0.0069363876
000340 15 e9 c6 3c 7e e1 0b ba 21 b4 0a 3d 04 bd 16 bd
       0.024281064 -0.000533603 0.03386319 -0.036801353
000350 5f 5c 80 bd 86 41 e5 3d 2c de b9 b9 f4 b9 01 be
       -0.062676184 0.11194138 -0.0003545148 -0.12668592
000360 f4 14 44 3d e9 26 80 bc b2 13 1b ba 8a 72 2b 3d
       0.047871545 -0.015643554 -0.00059157156 0.04185728
000370 00 00 00 00 f4 a2 c1 3d 4b 7b fb bb 83 58 2f bd
       0.0 0.09454909 -0.00767461 -0.04280902
000380 95 f3 1e bd c7 2b 69 bd 06 81 41 3d 66 60 42 bd
       -0.038806517 -0.056926515 0.047242187 -0.047455214
000390 4d af 78 bd 47 1a 37 bd 72 5b cf bc 62 2b 58 ba
       -0.060714055 -0.044702794 -0.02531216 -0.00082462106
0003a0 22 21 ba 3d 38 26 04 ba 98 86 1b bd 8b a9 13 3e
       0.09088351 -0.00050410954 -0.037970155 0.14420144
0003b0 50 53 53 bb 42 12 0d bc c2 ae 95 bd 5a 46 cc bc
       -0.0032245703 -0.00861031 -0.07308723 -0.02493589
0003c0 d0 d8 31 3e 0a 68 5c ba 50 c4 d7 bc 1f 0c c8 ba
       0.17367864 -0.0008407837 -0.026338726 -0.0015262401
0003d0 17 b7 86 bd 9a 8b 8a 3d 36 35 9d 3c d5 a2 96 3b
       -0.0657789 0.06764908 0.019190412 0.004597048
0003e0 54 67 91 3d 0f 56 da 3d c7 2c 01 ba fe 07 53 3d
       0.070997864 0.106609456 -0.0004927632 0.051521294
0003f0 5c 0b c6 3d 93 62 86 3a f1 e1 44 bd f0 8f 34 3d
       0.096701354 0.0010252766 -0.048067037 0.044082582

steering.weight f4 [1, 600]
000000 d8 78 99 bc 74 bb 5d bd eb 6f 24 bc 9b 8f 11 39
       -0.01873438 -0.054133847 -0.010036449 0.00013881775
000010 98 94 59 3c 48 18 ce bc f8 1a 38 39 12 af 4e bd
       0.013280056 -0.025158063 0.00017557654 -0.05045993
000020 b6 6f c3 bc f9 1d 36 3b ac 5a be b9 9c ea f2 38
       -0.023856979 0.0027788861 -0.0003630718 0.000115831586
000030 3a 96 39 3c 72 fb 2c 3c 8c 0c 8d ba ca 62 42 3a
       0.011327321 0.010557996 -0.0010761186 0.00074152334
000040 ae 4c 03 3e b6 5b d6 38 c2 dd ce 3d 75 f0 86 bb
       0.1282222 0.00010221398 0.10100891 -0.00411802
000050 c2 be c3 38 07 d0 b5 3a ce f3 9a 3d 95 ba 6c 3d
       9.333856e-05 0.0013871201 0.07566033 0.057795126
000060 96 04 d6 bb a4 44 4f ba c6 14 ce 37 d6 24 b8 bc
       -0.0065313084 -0.00079066516 2.4566787e-05 -0.022478502
000070 5a 91 85 bd e3 94 65 3d a5 d0 4f bd a7 c5 cb 3d
       -0.06521864 0.056050193 -0.05073609 0.099498086
000080 04 72 14 3c 3f 33 de bb 00 07 8d ba 65 03 30 b9
       0.009060387 -0.0067810114 -0.0010759532 -0.00016785933
000090 64 8a 08 bc f6 2d a9 bb e0 0e 95 39 ab a6 73 bd
       -0.008333776 -0.0051629497 0.00028430577 -0.05948512
0000a0 ca fa 71 3b 18 af 46 3c f0 0f 33 39 6a a7 80 bc
       0.0036923164 0.012126707 0.00017076707 -0.01570483
0000b0 78 6f 2d 38 96 e1 73 3c b4 1f bc bc 87 a4 c2 bb
       4.1350228e-05 0.014885327 -0.022964336 -0.0059400233
0000c0 52 e6 65 ba 73 65 54 b8 23 cc 55 3a c7 49 2a ba
       -0.0008769977 -5.063922e-05 0.0008155724 -0.0006495979
0000d0 54 b6 a6 38 c3 4d d2 3d 46 3f 9d 3b d4 d9 5e bb
       7.949458e-05 0.10268738 0.0047988025 -0.0034004347
0000e0 68 cb 98 bb 21 67 f2 3b 57 7e 21 bc ca ed 8d bd
       -0.00466292 0.007397548 -0.009856782 -0.0693012
0000f0 0f 6b e7 3d 9d c9 f5 bc 6b 66 a5 3c c6 37 49 bc
       0.11299717 -0.030003363 0.020190438 -0.012281364
000100 b1 07 c2 3b 9a ac 3f 3d cb c9 09 b9 79 7b f0 3d
       0.005921327 0.046795465 -0.00013140512 0.117423005
000110 a9 9c e7 3d 4c 28 32 bc 23 bd 09 bc a8 41 01 3c
       0.113091774 -0.010873865 -0.00840691 0.007889189
000120 0f e9 62 3a 18 9a d3 bb 02 b0 33 3c d0 d4 3a bc
       0.0008655944 -0.0064575784 0.0109672565 -0.0114032775
000130 7d 8a 64 3c 4f 85 65 38 6b bc d4 3b 2d 79 dc ba
       0.013949034 5.4722008e-05 0.0064921877 -0.0016820781
000140 db 6e 47 39 4b c8 fd bb 6f 57 59 bb 9b 49 44 3c
       0.00019019416 -0.007744824 -0.0033163687 0.01198044
000150 11 cb 07 bd c0 66 0f bc 4a 2c df 38 0a db 38 3b
       -0.033152644 -0.008752525 0.00010641718 0.002820673
000160 4d 7f 4f bb 11 2a d1 38 c0 45 0b bd b6 73 e9 3d
       -0.003166157 9.973732e-05 -0.034002066 0.11399023
000170 8f 1b c8 bb 68 29 fd 3b ec 74 95 bd f3 e1 82 bc
       -0.006106801 0.0077258833 -0.07297692 -0.015976882
000180 1f d3 c8 3d 70 36 1a b8 f4 dc 68 bb c7 72 e2 3d
       0.09805893 -3.676716e-05 -0.003553209 0.11057048
000190 d2 2b 4c 3a 17 72 ef 3d a6 80 1b 3e 83 2b de bc
       0.0007788512 0.11691683 0.15185794 -0.027120357
0001a0 a5 68 a6 bc 82 8b ff bb 84 29 2c bb 6a 94 6b 3b
       -0.02031357 -0.007798613 -0.0026269862 0.0035946616
0001b0 f7 2c c0 bb 54 3c 87 bc b1 05 1c bd a8 d0 73 3b
       -0.005864735 -0.016508259 -0.038091365 0.0037203226
0001c0 f7 ee 17 bc 75 52 ce 3d 3f ed b5 bc 6e 56 01 3d
       -0.009273282 0.10074321 -0.022207854 0.031576566
0001d0 d2 88 7c 38 6f 48 53 ba fd e1 38 bd c8 03 80 3d
       6.0208906e-05 -0.00080598047 -0.045137394 0.06250721
0001e0 a5 12 17 b9 e6 b6 0a bc 6a 64 65 bb e3 04 d2 3d
       -0.00014407428 -0.008466458 -0.0035002478 0.10254838
0001f0 63 54 ef 3d 70 82 e9 39 69 be 49 bd 8d 58 9b 3a
       0.11686017 0.00044538407 -0.049253855 0.0011851952
000200 4e fb 75 3c 0a f6 38 3c 66 71 e1 b9 29 49 3a 39
       0.015013529 0.011289129 -0.00042999833 0.00017765597
000210 f1 26 54 3b d9 d1 54 3c c4 3c 44 ba 44 f8 92 37
       0.0032371844 0.012989485 -0.00074858614 1.7520164e-05
000220 5d 7a 35 3c 46 1b ce bb be c8 6e 3c 90 b5 b6 bb
       0.011076537 -0.0062898723 0.014574228 -0.005575843
000230 d7 92 f9 bb f3 be d0 bb ee b2 14 bd 71 8f 09 3e
       -0.0076163816 -0.006370419 -0.036303453 0.13433625
000240 7b 31 45 bc ef ff 2e bb c8 5f 56 3a aa 4c 30 3c
       -0.012035723 -0.0026702841 0.00081777247 0.010760466
000250 1a f8 21 bd f8 92 26 3c 6e d7 5e 3c 82 88 c4 3b
       -0.03954325 0.010166876 0.013601167 0.0059977183
000260 ff fe 26 bc 4f 2a 41 3c 4b fb 22 3c 26 6b 05 39
       -0.010192632 0.011789872 0.009947608 0.00012723784
000270 9e 1b 68 3c 77 d8 3c bc 59 48 32 3c da 80 40 bc
       0.014166741 -0.011526219 0.010881507 -0.011749471
000280 1d bd 28 39 e8 5d 85 3c eb e5 fc 3c fb 2e 0a bc
       0.00016092179 0.01628013 0.030871352 -0.008434053
000290 41 28 31 bb ad 4e eb bb 8e da 06 be 64 1e f7 3d
       -0.002703205 -0.0071810097 -0.1316931 0.120663434
0002a0 c5 f5 0d 3d 53 f6 db 3d 93 6f 77 bd 3c 08 9d bc
       0.034658212 0.10740342 -0.06040914 -0.019168966
0002b0 5c f6 ec b8 7b 8f bd bd 04 30 5e ba fd 93 d6 bb
       -0.00011299245 -0.09255882 -0.0008475783 -0.0065484033
0002c0 59 f3 e6 bb f2 1f 08 3b e0 af 0f 3e 73 07 0a 39
       -0.0070480523 0.0020770994 0.14031935 0.0001316348
0002d0 70 16 1d 3e 92 a2 6a bc 5f f2 a1 3b 56 18 10 3b
       0.1534059 -0.014320986 0.004942223 0.0021987162
0002e0 c8 ad 29 3c e6 a7 d5 bb f2 73 be bb 2d 20 b5 ba
       0.010356374 -0.006520259 -0.0058121616 -0.0013818793
0002f0 1b 14 a1 3a eb d6 b3 38 86 b9 1a be 23 3f 67 ba
       0.0012289317 8.575417e-05 -0.15109834 -0.0008821359
000300 23 43 28 3c ec 67 68 37 bc d8 b5 3d d7 46 62 37
       0.010269913 1.3852474e-05 0.088792294 1.3487143e-05
000310 c5 e4 1f 3a 9f 69 b3 37 b1 c4 13 3c 34 06 00 39
       0.0006099458 2.1387646e-05 0.009019063 0.00012209342
000320 ed a9 5d bb e2 60 ca 3c 7e 47 bf 3b e2 4c ff bb
       -0.0033823207 0.0247044 0.00583738 -0.0077911476
000330 56 a0 35 3c 5b fc 13 39 12 20 15 3b a7 48 8f 3a
       0.01108559 0.00014113022 0.002275471 0.0010931686
000340 d0 b2 8c bb 5c a5 7e 39 8c 2f e8 bb 5b 72 a8 3b
       -0.004293777 0.00024284929 -0.007085746 0.0051405854
000350 d6 75 0f bc 0d b6 8a 3e 83 9f 66 39 a5 8a 95 bb
       -0.008756122 0.2709202 0.00021993932 -0.004563647
000360 c3 dd 10 bb 7b 0c 1b 3c 1d 39 47 b8 7e 7c 94 be
       -0.0022104837 0.009463425 -4.7498488e-05 -0.2900123
000370 e1 c9 75 37 6c 7b 81 3d 87 7e e6 ba 48 2c c1 3b
       1.4650142e-05 0.06322369 -0.0017585316 0.0058951713
000380 d7 68 98 3b a5 15 37 bc de b3 3c bb 29 6f 91 ba
       0.0046511698 -0.011174594 -0.0028793733 -0.001109575
000390 69 f9 12 bc c1 55 5d bb bc 54 18 3c 53 c0 54 ba
       -0.008970597 -0.0033773037 0.009297546 -0.0008115817
0003a0 9b 73 10 bb 09 59 0d 38 35 5a e5 bb 38 39 d7 bc
       -0.0022041562 3.369994e-05 -0.006999279 -0.026272401
0003b0 55 62 36 3c 9c 2a 55 3b 1b 10 b2 bb 30 c8 e7 3b
       0.011131843 0.0032526618 -0.005434049 0.0070734248
0003c0 ef fa 12 3e 56 01 34 39 db 21 31 3d 20 76 4b 3b
       0.14353536 0.00017166635 0.043245178 0.003104575
0003d0 cf 28 88 bb a5 aa eb 3d d1 1c a0 bb f9 c1 24 be
       -0.0041552554 0.11507157 -0.0048862477 -0.1608962
0003e0 e2 f9 13 bd d3 b9 d8 3d 05 ba 41 ba fb 2b 42 3c
       -0.03612698 0.10582318 -0.0007390085 0.011851306
0003f0 cd 62 ae 3d 27 1f 84 3b d9 eb 28 bb d0 16 35 3e
       0.085149385 0.004032034 -0.0025775342 0.17684484

acceleration.weight f4 [1, 600]
000000 50 1b 83 be 6e e9 7e 3c 7b 45 94 3d 70 0a b2 b7
       -0.25606775 0.015558584 0.07239815 -2.1224114e-05
000010 52 69 28 3e 9d 60 2c bd 9c 13 36 be e3 71 c7 3e
       0.16446427 -0.042084325 -0.17780918 0.38954076
000020 24 81 96 bd b7 e0 4d be f9 4e cb 39 b0 9f 38 be
       -0.0734885 -0.20105253 0.00038778016 -0.18029666
000030 b1 e5 32 3e 09 21 1f 3e 6c 26 11 be ff 9c ae b9
       0.17470433 0.15539946 -0.14174813 -0.00033304837
000040 d6 67 3c be 14 dc cd 37 76 ef b2 bd e3 86 28 be
       -0.18398985 2.4540386e-05 -0.0873708 -0.16457705
000050 d5 e9 70 b8 54 20 c9 3a 7f 25 ee bc 4b 03 b7 be
       -5.7438232e-05 0.0015344718 -0.029070614 -0.357447
000060 8b 2b f9 3d be a1 2e be 24 5e a7 b8 43 27 5e be
       0.12166508 -0.17053887 -7.9807156e-05 -0.21694665
000070 4f d2 c8 bd 00 68 e1 bd ac 88 ca 3e 77 be ab 3d
       -0.09805738 -0.110061646 0.39557397 0.08385938
000080 25 2e ab 3e a8 e9 26 be 79 bd 29 be 25 55 68 b9
       0.33433643 -0.1630007 -0.16576184 -0.00022156963
000090 ed eb 2a be 3e 59 42 3a 2d fa 73 be 70 e1 3e 3f
       -0.16691561 0.0007413811 -0.23825903 0.7456274
0000a0 54 50 05 3e 99 20 c6 bc 43 20 bb b8 96 51 29 be
       0.13018924 -0.024185466 -8.922864e-05 -0.16535029
0000b0 b8 dd 19 38 6f 01 92 3d bb 00 90 be 34 05 f3 3d
       3.6684534e-05 0.0712918 -0.28125557 0.11866227
0000c0 9f cd 7e 3a f7 9d ef 39 69 14 a6 b8 a6 ca 8f b9
       0.0009719971 0.00045703325 -7.9192985e-05 -0.0002742607
0000d0 1e 2b 07 39 c0 6d e7 3e bb 56 f3 3d bc c8 ed 3d
       0.00012890666 0.4520092 0.11881777 0.11610553
0000e0 6b 35 2b 3e 10 17 01 3e 2e c2 9a be d2 45 fd 3e
       0.16719596 0.12606454 -0.30226272 0.4946733
0000f0 4c ea 46 be 15 93 99 bd 91 5b 8b bd 60 d3 bc bc
       -0.19425315 -0.07498757 -0.06804574 -0.02305001
000100 a5 a0 fa 3d ef 93 02 3f 5e da 0e 38 cf 50 8f 3d
       0.12237672 0.5100698 3.405881e-05 0.06997835
000110 b0 cf 93 bd 5b 78 02 bd 5c 29 85 bd 18 97 f1 3d
       -0.072173476 -0.03185306 -0.06502029 0.11796397
000120 ba b9 92 39 29 f5 ef 3d d6 9b 35 3e d6 b9 ec bc
       0.00027985667 0.117166825 0.17735228 -0.028897207
000130 7d 8f 1f be ef 69 72 b8 62 45 d4 3c c3 9d cf be
       -0.1558208 -5.7795954e-05 0.02591199 -0.4055005
000140 9d 1d 57 39 f2 06 90 3c e1 e4 b3 bd 5f 59 40 bd
       0.0002051503 0.017581437 -0.087838896 -0.04696023
000150 aa c1 5a be 28 85 1b be f6 f8 e0 38 90 92 5e 3e
       -0.2136294 -0.15187514 0.00010727525 0.21735597
000160 2f d9 6f bd 0e 06 03 38 95 d5 62 be 41 6f e3 bd
       -0.05855673 3.1238473e-05 -0.22151788 -0.111052044
000170 be ae ee 3d 61 15 f4 3d f5 23 84 3d 74 15 9a be
       0.11654423 0.1191814 0.06452171 -0.30094492
000180 2e cd 47 be ff e1 26 be c3 55 1d be c5 a5 a7 be
       -0.19511864 -0.16297148 -0.15364747 -0.3274366
000190 ee 6e 1d b9 67 48 31 be d5 00 43 be 89 27 5c be
       -0.00015014011 -0.17312776 -0.19043286 -0.21499456
0001a0 b2 95 5e be 2f 74 1f be 87 7e 29 be 27 14 41 be
       -0.21736792 -0.15571664 -0.16552173 -0.18855344
0001b0 06 12 f6 3d d3 6f 77 bd 08 b1 c5 be 3c ef b6 bd
       0.120151564 -0.06040938 -0.38611627 -0.08932349
0001c0 22 09 36 3e 32 ad 1e be 9f 90 70 bd 95 bf 2c be
       0.17776921 -0.15495756 -0.05873167 -0.16869958
0001d0 cd 59 f5 38 f4 cf 97 39 58 9d a3 bd 2d b1 f3 be
       0.00011699237 0.00028955902 -0.07988995 -0.47596112
0001e0 cc 41 4e 3e 39 f6 17 3e 95 94 80 3c ce f8 1b be
       0.20142287 0.1484002 0.01569585 -0.1523163
0001f0 88 5c 54 be 4f 22 8c be d1 dd cf 3e 2f 02 0b 3e
       -0.20738423 -0.27369925 0.4059892 0.13575052
000200 c7 17 0e 3e 78 f6 2d 3e ac cf e1 37 3b 49 06 39
       0.13876258 0.16988552 2.6918795e-05 0.00012806516
000210 73 fc 8e 3d 55 01 26 3e 04 35 86 ba aa 34 d7 b7
       0.069817446 0.16211446 -0.0010239189 -2.565452e-05
000220 8a 5a 37 3e 16 9d fd 3d 06 7b b3 bc 6f fe 50 bd
       0.17905632 0.123834774 -0.021909248 -0.051023897
000230 54 62 38 3e 33 bb fe 3d fe 8c 9a be 9c 57 07 bd
       0.18006259 0.12438049 -0.30185694 -0.033042535
000240 a2 52 62 be fb 4e f8 3d 07 27 28 ba 3b af 10 3e
       -0.22101834 0.12124439 -0.0006414507 0.14129345
000250 7d 2a 3b be 68 ca 15 3e a0 1f 42 bd 12 fd 2c be
       -0.18277927 0.14627993 -0.04739344 -0.16893414
000260 91 bd 8e 3c ef 5e 24 be 9b 05 39 be f6 fc 7e 38
       0.017424377 -0.1605184 -0.18068545 6.0793907e-05
000270 67 26 f3 bd 31 0d 75 3e 28 ed 3a bd 76 94 1d ba
       -0.11872559 0.23930813 -0.045636326 -0.0006011197
000280 de b7 9f 37 a1 ea fa bc 46 ea 9f bd a6 5a d8 3b
       1.9039897e-05 -0.030629458 -0.07808356 0.006602603
000290 bc 7f 1f bd c0 dd ec 3d 9a da 0d 3f d6 fb 46 be
       -0.038940176 0.11565733 0.55411685 -0.19432005
0002a0 9e e7 02 3f 9c a9 f2 bd 8d 0c f3 3e 1c 9b e3 3d
       0.5113467 -0.11848757 0.47470513 0.11113569
0002b0 4f a9 00 37 d1 a0 45 3f d4 82 e1 39 7e 9d 33 3e
       7.668815e-06 0.7719851 0.0004301282 0.17540547
0002c0 ec 88 d2 3d 7f 9e 0d be a4 ec 1c be 7c 88 02 38
       0.10280022 -0.13829993 -0.15324646 3.1121526e-05
0002d0 3a 9e 05 3f b2 85 ac bd 77 d5 09 3d 7e 03 87 be
       0.5219456 -0.08423938 0.03365084 -0.26369852
0002e0 4e 26 e2 be 14 e7 3d 3e 46 4c f8 3d e8 fe bd 3d
       -0.4416985 0.1854518 0.12123923 0.09277135
0002f0 e7 40 07 3e 1c 62 13 38 c6 2e a5 bd 53 d4 35 b8
       0.13208352 3.5138903e-05 -0.08065562 -4.3351505e-05
000300 64 24 38 3e fc 35 da b8 a6 c7 6e bd 43 79 38 b7
       0.17982632 -0.000104051054 -0.05829587 -1.0995488e-05
000310 43 f2 b4 3a b6 b5 28 b9 79 f9 70 bb e5 f1 b1 b6
       0.001380511 -0.00016089421 -0.003676979 -5.3031713e-06
000320 1d 63 08 be 3a b7 cb bd 94 27 cd bd 23 26 25 be
       -0.13319059 -0.09947057 -0.100173146 -0.16127829
000330 1e 3f 1b 3e 37 cb 12 36 a9 f6 f9 bc 5e c1 2e be
       0.15160796 2.1873982e-06 -0.030513125 -0.17065951
000340 2c 22 9f be 88 42 10 b9 a4 52 40 be 8f 20 86 bd
       -0.3108076 -0.00013757695 -0.18781525 -0.06549179
000350 bd 30 1d 3e 68 23 8f be eb 94 01 39 0b bf e2 3d
       0.15350623 -0.279567 0.00012357875 0.11071595
000360 78 96 2f be c9 69 11 3e 27 f5 40 b7 84 b3 c4 3e
       -0.17147243 0.1420051 -1.1501171e-05 0.3841821
000370 12 9c 78 38 af 46 32 be f6 5f 0f be df e0 b9 3d
       5.927316e-05 -0.17409776 -0.1400145 0.09076094
000380 05 bb f7 3d 48 77 2c 3c 6a b7 2e be 14 53 53 3e
       0.12096218 0.010526486 -0.17062154 0.2063716
000390 6b d8 39 3e 19 58 2f 3e f8 52 52 3e 24 6c f5 39
       0.18148963 0.1712345 0.20539463 0.00046810613
0003a0 64 d3 c3 be 31 d1 86 38 e3 33 f2 3d a3 c4 8b bd
       -0.38247216 6.428583e-05 0.11826303 -0.06824615
0003b0 3b df 35 3e 4b cd 1e 3e f6 e1 22 3e 6d d5 96 be
       0.17760937 0.15508 0.1590651 -0.29459706
0003c0 e1 ff f0 be 8b e7 40 37 d4 5c 17 3e bf 87 3f be
       -0.4707022 1.1498002e-05 0.14781505 -0.18704127
0003d0 6b 5f 5b 3e 74 37 55 be be cb d2 bd 9e 0a a3 bd
       0.21423118 -0.20821935 -0.10292767 -0.079610094
0003e0 b1 53 91 3e 76 41 25 be 59 be 2b 3a 4a db 22 be
       0.28384164 -0.16138253 0.00065514963 -0.15903965
0003f0 64 2d 5f be 16 e4 17 3e 3c ae 33 3e 8f 37 76 3e
       -0.21794659 0.14833102 0.17546934 0.24044631

brake.weight f4 [1, 600]
000000 67 b6 a2 be 53 a6 36 be ad ff 02 be 27 91 64 b7
       -0.31779787 -0.17836885 -0.12792845 -1.3623655e-05
000010 eb c5 90 bb 80 fd 3c be 1c d5 d5 bd 10 aa 36 bd
       -0.004418125 -0.18456078 -0.10441038 -0.044595778
000020 0b 40 3a 3d a3 48 10 be 3f 6d 6b ba c9 f9 9e bd
       0.045471232 -0.14090209 -0.00089808175 -0.077624865
000030 9b 17 cf 3b ac f9 16 bc 79 b7 9e 3c a5 c8 80 3a
       0.0063199527 -0.0092148 0.019374596 0.0009825422
000040 ec b7 32 3e 85 35 bc 38 d4 ce 64 3d 8e fa 9e bd
       0.17452973 8.974507e-05 0.05586131 -0.07762633
000050 6e 95 c2 b8 30 db d3 3b 28 2e 04 bc 5c 26 66 be
       -9.278474e-05 0.006465338 -0.008067645 -0.2247557
000060 d2 07 9c bd c4 11 c5 bd 1e c3 2c b9 7d c0 c0 be
       -0.07618679 -0.09622529 -0.00016475885 -0.37646857
000070 19 93 5b 3e ce b9 92 be 87 1c 2c bd c2 7d 21 be
       0.21442832 -0.28657383 -0.042019393 -0.15770629
000080 c3 72 3c 3e 18 c6 25 bd c7 d4 ba bd 31 54 b7 36
       0.18403153 -0.04047212 -0.09122615 5.463626e-06
000090 84 63 1f be 48 12 96 3b df 7c 54 be 50 14 4f bc
       -0.15565306 0.004579816 -0.2075076 -0.01263912
0000a0 35 2b 23 3c 48 6f fc bd e8 15 9a b5 8d c1 38 be
       0.009959032 -0.12325913 -1.148027e-06 -0.18042584
0000b0 f5 8f 19 b9 e6 1a 1d be ee c7 97 bd ed 02 ee bd
       -0.00014644845 -0.15342292 -0.074111804 -0.11621652
0000c0 f4 63 c8 b9 bf 8d 89 bb 64 f4 68 39 d6 c2 d8 b9
       -0.00038221444 -0.0041978057 0.00022216287 -0.00041343895
0000d0 60 7d 4c 38 b9 cb d6 3d a7 c2 90 bd c2 c1 dd 3d
       4.8754155e-05 0.10488076 -0.07068377 0.10827972
0000e0 10 df b0 3d 17 c9 ee bc c2 a6 69 be 55 54 49 bd
       0.08636296 -0.029148621 -0.2281752 -0.04915269
0000f0 9a 09 b1 3d 2b 63 08 be b0 80 6d bc f9 85 58 3e
       0.086444095 -0.1331908 -0.0144960135 0.21144857
000100 49 12 3c bd 90 c5 63 3e d7 07 73 38 88 23 ce be
       -0.045915876 0.22243333 5.7943016e-05 -0.40261483
000110 49 f4 b9 be 1b 77 17 be cc 93 32 be 69 58 80 bd
       -0.36319187 -0.14791529 -0.17439193 -0.06266863
000120 7c e4 07 39 ff ed 6c bd b6 ab d1 3b 34 9c 24 be
       0.0001295972 -0.05784416 0.0063986434 -0.16075212
000130 28 0b e8 be f8 a7 3b b9 6e ba 70 3d 22 05 74 bd
       -0.45321012 -0.00017896283 0.058771543 -0.059575208
000140 40 6a 89 b8 52 3a cd be 6e 99 08 be c9 5b f2 3d
       -6.55246e-05 -0.40083557 -0.13339779 0.11833913
000150 a4 74 a0 be 2a 02 29 be 91 27 fb b8 8e bb 4a 3d
       -0.3133899 -0.16504732 -0.000119759825 0.049495272
000160 e0 e4 16 be 94 c5 e2 b8 bf 70 5d be fe fa c4 be
       -0.14735746 -0.000108133216 -0.2162504 -0.38472742
000170 14 f8 bb bd 74 f5 4d bd ba 71 a6 be 52 b3 3f be
       -0.091781765 -0.05028291 -0.3250864 -0.18720749
000180 d5 bf 79 3d 1a 23 d8 bd 82 a4 c7 be 77 00 33 3c
       0.06097396 -0.1055357 -0.38992697 0.010925404
000190 31 e3 12 3a e0 d0 4a 3e 43 70 d4 3e d9 14 cc be
       0.0005603312 0.19806242 0.414919 -0.39859655
0001a0 ce e3 a6 bd a8 95 25 be 26 90 c6 bd ac c1 ab bd
       -0.08148919 -0.1617037 -0.09695463 -0.08386549
0001b0 8e 95 d2 bd 1f dc 88 3e 52 7a a5 ba 8f 18 28 be
       -0.102824315 0.2673044 -0.0012624955 -0.16415618
0001c0 d0 fb 93 3d 84 41 22 3e 11 cf cf bd 54 6f 8c 3e
       0.07225764 0.15845305 -0.10146917 0.27428687
0001d0 b7 ba 17 b9 5f 06 3a 3a c2 ba 9d be 37 9a 22 be
       -0.00014470039 0.0007096286 -0.30806547 -0.15879141
0001e0 43 4c e9 3d 1d 0c b0 3d dd 4b d0 3c dd 96 21 3e
       0.11391499 0.085960604 0.0254268 0.15780206
0001f0 32 dc d3 3d d3 64 8c be 35 0b 37 bd 91 de 10 3e
       0.10344733 -0.27420673 -0.044688422 0.14147402
000200 5c fa 5b 3b e2 30 70 bc c4 bb 1a b9 cf 2e 1e b9
       0.0033565974 -0.014660092 -0.00014756533 -0.00015085492
000210 c8 f0 f4 3d 99 14 2f bb 29 6e 7e 3a 36 fb 43 39
       0.11959988 -0.0026715158 0.0009705746 0.00018690233
000220 55 00 3f 3b 02 a4 a5 bd 3d e6 fe bd e3 8d 14 be
       0.0029144485 -0.08087923 -0.12446258 -0.1450725
000230 fe 55 41 3d ee 50 a9 bd e5 82 8c bc 1f 22 5c 3e
       0.04720115 -0.08267389 -0.01715226 0.21497391
000240 3c 9d ac bb fb 6c f0 3d 8d 2c 61 ba 80 c2 95 bc
       -0.0052677672 0.117395364 -0.00085897074 -0.018281221
000250 ee b3 86 be e8 f8 37 bc ad 35 11 3d c4 49 0a be
       -0.2630915 -0.0112287775 0.03545158 -0.13504702
000260 6b 56 2e be 6d e3 25 bc ce 08 95 3e 9d 07 29 39
       -0.17025153 -0.010125023 0.2910828 0.00016119932
000270 6a e1 eb be fd b0 91 3e 45 9b 1e be 7a 28 13 be
       -0.46070415 0.28455344 -0.15488918 -0.1437091
000280 2c 1e 10 39 17 f4 59 bd 1c a1 a1 be ee b8 66 be
       0.0001374415 -0.053211298 -0.3156823 -0.22531483
000290 bf b9 c0 3a 1b fc 9b bd 5b 65 12 3e bd 5e db 3d
       0.0014703794 -0.07616445 0.14296477 0.10711429
0002a0 f3 bc 3b bd e4 2c 82 3e 42 5b 45 bd a4 97 be be
       -0.045834493 0.25424874 -0.048182733 -0.37225068
0002b0 ac c1 b8 b7 c2 8a d3 ba f7 4e 4d 39 7a fc e3 3d
       -2.2024695e-05 -0.0016139376 0.0001957974 0.111321405
0002c0 d3 d5 e4 3c a8 d1 01 be 89 9e 1d 3e 32 f0 15 b7
       0.02793399 -0.12677634 0.15392508 -8.937017e-06
0002d0 ef 1a 04 3e ff ab 6d be 27 c4 5e 3d d0 c2 cb be
       0.129009 -0.23210143 0.054386284 -0.39797068
0002e0 67 8f d6 bd 10 43 39 3d 15 a7 cb bd 96 a7 13 3e
       -0.104765706 0.04522997 -0.09943978 0.14419398
0002f0 37 60 13 3e a8 c4 bd 38 38 f2 e1 3d aa cd 75 3a
       0.14392172 9.0488524e-05 0.11032528 0.00093766546
000300 98 e9 03 3c ec b9 80 37 66 8e ce be 3a fe e3 36
       0.008051299 1.5345366e-05 -0.40343016 6.794723e-06
000310 32 74 af ba 3d c0 ce b7 33 76 1c bd 14 43 0b 38
       -0.0013386069 -2.4646632e-05 -0.03819866 3.3202654e-05
000320 83 03 b5 bd d8 13 a8 be ac e8 34 be 0b 8f 0e be
       -0.088385604 -0.3282764 -0.17666882 -0.13921754
000330 06 cc 1c bc 47 d0 87 38 72 38 a3 3d c9 28 c0 bd
       -0.009570127 6.476096e-05 0.079697505 -0.09382779
000340 36 eb ca be 3e ed 0b b8 3c 2e 8f bc 3f 7f 0f bc
       -0.39632577 -3.336113e-05 -0.017478101 -0.008758365
000350 bd b2 a9 3d 4e e4 ea 3d 24 77 93 38 d3 2a 57 be
       0.08286045 0.11469327 7.031698e-05 -0.2101243
000360 ee 12 b6 bd 17 69 78 bc c6 41 ce 38 ce 7d 45 3e
       -0.08890329 -0.015161774 9.835097e-05 0.19286272
000370 c5 af 8f 38 dd 58 68 3c f7 2a 0a be ae 5c 2c 3d
       6.851511e-05 0.014181343 -0.13492952 0.042080574
000380 a3 34 b2 bd 37 de 87 be e8 69 a3 bd b0 41 18 3e
       -0.08701446 -0.26536724 -0.079791844 0.14868808
000390 56 90 84 3d 9c 97 02 3e 57 65 66 3d 26 cd 37 ba
       0.064728424 0.12753147 0.05624899 -0.00070114655
0003a0 fa 6e 50 3d 97 87 80 38 35 f8 3c bc d8 9f 89 3e
       0.050887085 6.128771e-05 -0.011533787 0.26879764
0003b0 b8 5a ab bb 0e 69 0a 3e 63 33 2a 3d 7f 63 af be
       -0.0052293204 0.13516638 0.041552912 -0.34255597
0003c0 87 4f c0 3e f0 ee 1d b9 ea d3 59 be 28 5e ad be
       0.37560675 -0.00015061698 -0.21272245 -0.33860898
0003d0 b2 ec d2 3d 0f b6 c1 3d 2f e7 78 bd aa 45 a0 3d
       0.10299052 0.09458553 -0.06076735 0.07825787
0003e0 7b 8e a2 bd 5e ac 24 3e 25 47 82 3a 7a 5d be 3d
       -0.07937332 0.16081378 0.0009939416 0.09295173
0003f0 a6 ad 77 3d 7a a5 fd 3d 0e 4e 0a 3e 20 76 c0 bd
       0.06046834 0.12385078 0.13506338 -0.093975306
