GAIL/weights/GAIL-100_discriminator.pth (torch_old, 765501 bytes, 5 tensors)

fc1.weight f4 [300, 32]
00000000: 0ee6 143c 9872 443b 5a51 0d3c c826 533a
00000010: c2ca 033b 8f6b ee39 0851 aeb9 8f4d 00bb
00000020: 4249 fcb9 322e 1fb9 104e 043a 85c1 ae3a
00000030: fcb5 133a b324 1d3a ea5c 523a 442d 113a
00000040: e4ff 513a fd90 bfbb 563f d5bb 2bb2 003b
00000050: 962d d63a 0199 a0ba 868e f0ba 22aa af3a
00000060: 7cb4 8638 0bf9 05ba 8c93 77ba 01e0 9dba
00000070: 9e50 983b 4173 53bc 9dd8 4d3b 26dd e3bb
00000080: 2134 c1bb e9a8 643a 0db6 adbb ff27 e939
00000090: 6306 8eba 4fd9 63b9 838a 55b9 2a02 c63a
000000a0: 8d90 c339 f0c7 303a e1a6 7b39 6382 7eba
000000b0: 7abe bcb9 8d0d b0b9 a520 d439 043e a3b9
000000c0: 19cf e1ba 9bd4 063b 6035 b33b 1f15 39bb
000000d0: 2334 84bb 1614 a83a 11ff 0d3b b8ed 4ebb
000000e0: 53b4 4b39 b644 2a3a 6326 863a 24bb 973a
000000f0: e24f 75bb 993f 9938 b828 ecbb 9f54 67bc
00000100: ac7e aa3b 0500 8abb b4e9 8a3b f2a7 a2ba
00000110: f66a d6ba 84ec 88ba 68fe 81ba 3fa5 17bb
00000120: 79ac 99ba 42ab 98ba 7980 26ba 48ad 333a
00000130: bc59 8039 df9f 9db9 2b03 01ba 5182 f838
00000140: 2db6 383a 4224 c4ba 5949 b0bb 57e3 323b
00000150: 9d82 b23b bdc1 1bbb dd1e d1ba f36a 713b
00000160: c3cc c1ba 8c47 0dbb 292b 19bb 44e3 2bbb
00000170: 4c9c 513a 740d 9dbb 0625 893c 2e01 c43c
00000180: f626 e8bb 8527 903b f4c7 133a dc6b cd3a
00000190: aa04 0f3b c110 ba3a 32a0 943a 6d94 003b
000001a0: 1e7b 533a c57b feb8 c782 83b9 287e feb8
000001b0: 791d bd39 6a17 ca3a 957f d63a f2da 573b
000001c0: 20b0 993b cfdd d63b 4670 473b a13b c43b
000001d0: 32ff 02bb cb4f 2e3b 09ed 0fbb 7f15 ebba
000001e0: 3b03 1c3b 02bd 313b 4328 2f3b 7d44 383b
000001f0: e026 363b 9bf1 5f3c 5f8f 53bb 6990 1d3c
00000200: 10e2 003c 168b 95bb 990d a8b8 b938 d8ba
00000210: 7157 14bb 3ff2 afba 033c a1ba 34de 00bb
00000220: 6f29 87ba 4024 b0b7 9db6 a339 f02a ff37
00000230: c073 23ba 53d1 e3ba 7b3a eaba 2e07 60bb
00000240: 615a 9cbb affb acbb 098a 25bb 24f2 b1bb
00000250: 9361 d33a 2839 51bb d019 423b 3ea5 dd3a
00000260: 2e2e 34bb a855 39bb 4293 37bb 9af5 41bb
00000270: 7a2c 30bb c579 7cbc 7654 7c3b a644 37bc
00000280: d7fe acbb ea03 ad3b 5637 013b 3ecf 2d3a
00000290: d264 8839 2a5a 7a3a 94be 7b3a a163 003b
000002a0: a016 b93a 3cbd 3339 618e 3138 d7d1 3439
000002b0: aaa4 913a 807e 9b3a f45a d13a 5ad6 613b
000002c0: 6797 803b 06e2 063c b91e 823b ddcb cb3b
000002d0: 1746 30bb eed3 f23a 5141 b9ba 6751 96ba
000002e0: 6403 ed3a 32b7 f83a 149b f03a a473 fc3a
000002f0: 553e 153b 9d10 4c3c 818b 9eba 7785 d83b
00000300: 652c a5bb a306 943b 7839 c33b b594 13bb
00000310: 5a16 4439 405a 38ba ccbc 91ba 3ab6 713a
00000320: 7634 a23a 9426 deb8 7e6a b9b6 eb1b 2b3a
00000330: 374f 9e3a 633e de3a 6a41 0b3b 0032 3d3b
00000340: c7f4 3b3b ba34 9d3b a5b5 943a ed0a b13b
00000350: 85dd 0dbb 21ab 3f39 f064 6fbb a1ae 2ebb
00000360: 6668 c138 1926 06b9 ef0e bc39 6523 9038
00000370: 917b 403b d628 793c 0926 b6bb 1470 733c
00000380: bf67 a3bb 05a0 953b 95d8 c63b 6603 19bb
00000390: 6b8b 8338 7a2a 32ba c337 77ba 3792 573a
000003a0: f098 993a 0a5f 8136 f9fe ef38 8e8b 213a
000003b0: 579b a33a 5da1 ee3a 8040 0d3b 202f 3a3b
000003c0: bf3e 403b 1378 a53b 6377 b43a c968 b53b
000003d0: 6be2 1fbb ed52 c639 f672 6fbb 3b8b 18bb
000003e0: 820b 0439 58fe 2639 768c cc39 4185 bb39
000003f0: 3112 453b 2226 753c 465d b4bb 5a67 673c
0.009088052 0.002997553 0.008625353 0.000805479 0.0020109867 0.00045475035 -0.0003324824 -0.0019577479
-0.00048119767 -0.0001518063 0.00050470326 0.001333282 0.0005634723 0.00059945433 0.00080247095 0.0005538056
0.0008010848 -0.0058461414 -0.0065077944 0.0019637446 0.001634049 -0.001225263 -0.0018353022 0.0013402144
6.423236e-05 -0.00051106577 -0.00094442884 -0.0012044908 0.004648282 -0.012905897 0.003140963 -0.006953853
-0.005896107 0.00087226793 -0.005301243 0.00044471023 -0.0010835644 -0.00021729361 -0.00020364863 0.0015106846
0.00037300997 0.000674366 0.00023999393 -0.000970876 -0.0003600007 -0.00033579432 0.00040460113 -0.00031135988
-0.0017227858 0.00205735 0.0054690093 -0.002824135 -0.0040345355 0.0012823369 0.0021666924 -0.0031574797
0.00019426765 0.0006495224 0.0010234829 0.0011576158 -0.0037431647 7.3074545e-05 -0.0072070025 -0.014119296
0.0052030887 -0.004211428 0.0042392854 -0.0012409671 -0.0016358781 -0.0010446464 -0.0009917738 -0.0023139266
-0.0011724374 -0.0011647718 -0.00063515414 0.0006854129 0.0002448092 -0.00030064487 -0.00049214315 0.00011849835
0.0007046189 -0.0014964419 -0.0053798375 0.002729615 0.005447699 -0.00237666 -0.0015954633 0.0036837428
-0.0014785755 -0.0021557538 -0.0023371673 -0.002622799 0.00079960073 -0.0047928635 0.016741287 0.023926344
-0.0070847226 0.0043992423 0.00056374003 0.0015672403 0.0021822848 0.0014195667 0.0011339246 0.0019619719
0.0008067357 -0.00012134718 -0.00025083704 -0.00012135162 0.00036070848 0.0015418355 0.0016364927 0.0032936898
0.004690185 0.0065572034 0.003043191 0.0059885536 -0.0019988534 0.0026597853 -0.0021961352 -0.0017935483
0.0023805636 0.0027120714 0.0026726879 0.0028116994 0.0027794167 0.013668443 -0.00322815 0.00961695
0.0078663975 -0.0045636995 -8.013397e-05 -0.0016496397 -0.0022635127 -0.0013423635 -0.001230121 -0.0019663693
-0.0010312031 -2.0997715e-05 0.0003122584 3.0418363e-05 -0.00062352046 -0.0017381109 -0.0017870212 -0.0034183967
-0.004771516 -0.0052790265 -0.0025259277 -0.0054304767 0.0016127102 -0.0031924937 0.0029617436 0.0016910208
-0.0027493346 -0.0028279815 -0.0028011356 -0.0029595853 -0.002688198 -0.0154098915 0.003850249 -0.011185801
-0.0052794027 0.0052800076 0.001971682 0.0006630308 0.00026015058 0.00095501787 0.00096032885 0.0019590633
0.0014121123 0.00017141266 4.233269e-05 0.00017244309 0.0011111696 0.0011863261 0.0015972541 0.003446004
0.0039242986 0.008232599 0.0039709476 0.0062193708 -0.0026897246 0.0018526295 -0.0014133846 -0.0011468352
0.0018082676 0.0018975495 0.0018356764 0.0019260538 0.0022772748 0.012455133 -0.0012096019 0.006607707
-0.0050406926 0.0045173927 0.0059577785 -0.0022519056 0.00018700343 -0.0007032491 -0.0011118888 0.0009220574
0.0012375254 -0.00010592971 -5.525827e-06 0.00065272924 0.0012078051 0.0016955849 0.0021248707 0.0028868914
0.0028679834 0.0047975453 0.0011345638 0.005402914 -0.0021646929 0.0001827893 -0.003652867 -0.002665438
9.222403e-05 -0.00012793428 0.0003586928 6.873048e-05 0.0029370526 0.01520749 -0.0055587334 0.0148582645
-0.0049867327 0.004566195 0.006068299 -0.0023347973 6.2725354e-05 -0.00067964906 -0.00094306114 0.0008223387
0.0011718553 3.8555636e-06 0.000114439004 0.0006162458 0.0012482208 0.0018206049 0.0021553338 0.0028409436
0.0029334275 0.0050497144 0.001376849 0.005536173 -0.002439643 0.00037827287 -0.0036537028 -0.0023276347
0.00012592788 0.00015925744 0.00039014564 0.000357667 0.0030070657 0.014962705 -0.005504283 0.014123762

fc1.bias f4 [300]
00000000: f3b1 ac3a 1e44 89b9 ed27 6abb 0304 8c3b
00000010: 36fe 9cbb 5b64 693b fce2 f33a db00 043b
00000020: b907 9cba c486 353a 2efb 5aba 5824 413b
00000030: 9833 983b be55 dd3a f1f5 113b 95f2 5dbb
00000040: 6cfd a639 262f 8e3b 4777 2eba da99 cf3a
00000050: 6132 043b e86b 84ba 02f9 67ba 6b75 9e3b
00000060: 294b f73a 6c8d 56bb 180d ac3a e8a2 823a
00000070: 263d 8abb 1972 a339 0491 373a 708c b9bb
00000080: b6cb d238 6d01 953a 29bf bd3b 080b 253b
00000090: f045 b43b b180 85bb 58cf aebb d442 4eba
000000a0: 4abd cc3a 39b9 e63a d811 103a 2f25 663b
000000b0: bf71 b73a 4d25 95bb 7bea a2ba bfb5 ddba
000000c0: aa2f e639 a0dc 3b3b 0928 eaba c249 833b
000000d0: 4ac0 053b 01a3 0dbb 256a db39 2034 f53a
000000e0: 971a fd3a b5ab a9ba 34e9 2f3b 39f8 8f3b
000000f0: 3714 2dbb e36e 9fba f24e cdba 4e70 893b
00000100: 8bd1 88b8 bab7 0dbb ca3d 96bb 87d4 833b
00000110: af1a 3d3b 8537 c13b 5f87 13bb bef6 57bb
00000120: 147c 68ba a9d2 c13b 1e65 1c3b 59eb 7bb9
00000130: 627a aabb 6b11 babb e00b 393b 4915 9fbb
00000140: 23ed 45bb 56ff bc3b e3ee f33a d36a 893b
00000150: c27e a03a 0423 a3bb 5ee0 5bbb 229d 9ebb
00000160: bb69 44bb 5f5f bfba b230 08bb 0aa5 a5bb
00000170: 4117 fcba e888 81bb 8c35 f7ba 5c33 05bb
00000180: 3d9f bfbb 6773 a83b cb2f 9ebb 4436 1b3b
00000190: ed7d fcba ed5e 223b c93b 8d3b b221 043b
000001a0: 0c7a cd39 50bc e0ba e387 623a 4ec4 7e3b
000001b0: 49af 95ba 5de5 173b 0371 a838 8036 1e3b
000001c0: 552a ee3a 8e8d 5d3b 836d 06bb c4a4 4aba
000001d0: b520 bd3a 136c 2cbb 4870 8bba af91 86ba
000001e0: 6c87 bfba 7632 f6ba 64ba f83a 9539 e0ba
000001f0: 0b94 e2ba f029 ff3a e2bd 1d3b f897 b9bb
00000200: a912 353b 8708 e9ba 8149 853b 4421 b3bb
00000210: 8a13 2539 8cc8 b5bb 1114 413b 51b4 07bb
00000220: ac46 b6ba ad67 b93b 7428 c6ba 6d46 c6b9
00000230: 1ad7 8c3b a2ab b63b c9d7 5c3b b4ee bbbb
00000240: bba5 4bb9 e0f6 a33b 8b0a 0e3a 8b4c 443b
00000250: 6783 5a38 b323 493a d864 843b 84f9 2d3b
00000260: 9cda b63a ec27 59bb 3bdb 1dba ba53 9c3a
00000270: 4abb cd3a 2c51 77bb 876a 9439 c1ff 983b
00000280: dead e93a 5380 9bba 2ee5 803b 52b0 e2ba
00000290: bde2 2ebb 06b9 2f3b e06c 1d3b 39d5 d33a
000002a0: d432 173b 0a35 39bb 3a10 bcba 92f6 73ba
000002b0: 105f c23a 58d0 7e3b fd83 65bb b4ac aeba
000002c0: a3c6 e7ba 28a9 5d3a 077c 9d3a 984d 9dba
000002d0: 00b0 5cba 3757 9738 d514 ae39 b708 343b
000002e0: 3bda 9dba 9838 a2ba 316c eeba bd03 b33b
000002f0: aa84 27ba 806e 8bba f548 3dbb 5151 b5bb
00000300: dd97 d2ba 562f ae3a 23ad efba 6a43 983b
00000310: 1fa2 6d3a f9f9 a33b 4fdb 533a dbef 50bb
00000320: e3e7 a33b dd24 81bb 2e33 d3ba 6f1f 48ba
00000330: e352 033a 7816 e7ba 769a 783b f1a3 a6b9
00000340: 6901 82bb aa81 b83b b8b6 b83a 7c6e 77bb
00000350: b8d1 6f39 ca3b 85bb 8847 8aba adbd 98bb
00000360: cb91 0dba 2663 8bba 0d43 afbb a53d 8dbb
00000370: 6ea1 22ba 4ece 60ba bf96 073b 5871 bcbb
00000380: 99a5 aebb 76ec 16ba 6ce9 9eba 6bf7 633a
00000390: 74b3 323a 081b 8fba ee7b 913a 91c1 073b
000003a0: 3d3a fdba f554 5a3b cae7 10bb fc58 66bb
000003b0: dfc1 82bb e0ce 703b 270c 743a aecd 18bb
000003c0: 26ae babb ec13 c83a 2f85 6eb9 a0ca 923b
000003d0: 97d0 913a a26b 813a 6566 653a 2e49 11ba
000003e0: 6085 e43a f2ed 99bb 944c 88ba 61cf 85bb
000003f0: d1ba b8bb 6990 373b f30e 41bb 7771 cbb9
0.0013175592 -0.00026181428 -0.0035729364 0.004272939 -0.0047910465 0.0035612795 0.0018607075 0.0020142111
-0.0011904157 0.00069246837 -0.0008353469 0.0029471125 0.0046448223 0.0016886515 0.0022271837 -0.0033866514
0.000318508 0.0043391166 -0.0006655347 0.0015838698 0.002017163 -0.0010102959 -0.0008849056 0.0048357747
0.0018867004 -0.0032738103 0.0013126461 0.0009966763 -0.0042187152 0.00031174792 0.0007002505 -0.0056624934
0.000100515244 0.0011368223 0.0057906103 0.0025183577 0.0055015013 -0.004074179 -0.005334776 -0.00078682345
0.0015620377 0.0017602808 0.0005495823 0.0035117378 0.0013995691 -0.0045515657 -0.00124295 -0.0016915126
0.0004390453 0.0028665438 -0.0017864715 0.0040065954 0.0020408803 -0.002161205 0.0004185002 0.0018707551
0.0019310293 -0.001294485 0.002684188 0.004393604 -0.0026409754 -0.0012163784 -0.0015663786 0.004194296
-6.524016e-05 -0.0021624402 -0.0045850025 0.004023138 0.0028855016 0.005896511 -0.0022511107 -0.0032953466
-0.0008868587 0.005915005 0.0023863981 -0.00024024899 -0.0052025774 -0.005678346 0.0028235838 -0.0048548323
-0.003020116 0.005767743 0.0018610623 0.0041936426 0.0012244808 -0.0049785394 -0.0033550481 -0.004840509
-0.0029970247 -0.0014600566 -0.0020780978 -0.0050550746 -0.0019233004 -0.003953088 -0.0018860563 -0.0020324802
-0.00584784 0.00514071 -0.0048274747 0.0023683468 -0.0019263603 0.0024775818 0.0043101055 0.0020161686
0.0003919158 -0.0017145965 0.00086414645 0.003887433 -0.0011420037 0.0023177483 8.031914e-05 0.0024141371
0.0018170575 0.0033806297 -0.0020512051 -0.00077302405 0.0014429303 -0.0026309534 -0.0010638321 -0.0010266806
-0.0014612502 -0.0018783349 0.0018976447 -0.0017107005 -0.0017286552 0.0019467454 0.0024069478 -0.005663868
0.002762953 -0.0017779031 0.0040676002 -0.005466612 0.00015742905 -0.0055475887 0.0029461423 -0.0020706842
-0.001390656 0.005658111 -0.0015118257 -0.00037817974 0.004298103 0.0055746594 0.0033697954 -0.0057352427
-0.00019421328 0.005003795 0.0005418441 0.002995285 5.209763e-05 0.0007672861 0.004040342 0.0026546428
0.0013950649 -0.0033135368 -0.00060217426 0.0011926808 0.0015696075 -0.0037737591 0.0002830813 0.00466916
0.0017828306 -0.0011863805 0.0039335703 -0.0017294979 -0.002668544 0.0026813163 0.0024021193 0.0016161568
0.0023071067 -0.0028260374 -0.0014348098 -0.0009306456 0.0014829356 0.0038881507 -0.0035021298 -0.0013326616
-0.00176831 0.0008455687 0.0012015112 -0.0012001274 -0.000841856 7.216486e-05 0.00033203387 0.0027471015
-0.0012043187 -0.0012376485 -0.0018190203 0.005463092 -0.0006390313 -0.001063779 -0.0028882597 -0.0055333753
-0.0016066987 0.0013289254 -0.0018285852 0.0046467083 0.00090649904 0.0050041643 0.0008081691 -0.0031881246
0.0050020083 -0.003941162 -0.0016113275 -0.00076340785 0.00050096045 -0.0017630598 0.0037933863 -0.00031784133
-0.0039674533 0.0056306915 0.001409254 -0.0037755063 0.00022870942 -0.0040659653 -0.0010549882 -0.004661283
-0.0005400448 -0.0010634407 -0.0053485692 -0.004310327 -0.00062038645 -0.00085756637 0.0020689217 -0.0057508163
-0.0053297994 -0.00057572813 -0.0012124008 0.0008696231 0.0006816902 -0.001091809 0.0011099556 0.002071474
-0.0019319725 0.0033314798 -0.0022110813 -0.0035148254 -0.0039903964 0.00367444 0.0009309672 -0.0023315954
-0.0056970296 0.0015264726 -0.00022747063 0.004479721 0.0011124787 0.0009873996 0.0008750915 -0.00055422157
0.0017434768 -0.0046975547 -0.0010398799 -0.0040835594 -0.0056375046 0.002800966 -0.0029458373 -0.00038803715

fc2.weight f4 [600, 300]
00000000: 3eb2 aabb 64eb d83c 25dc ecbc e8bd 33bc
00000010: a4d8 2f3c 2246 15bc 26b9 9fbc 06bb 9dbc
00000020: 6b90 dcbc 50c1 dd3c bf5f d53b 4e9a 30bc
00000030: ce31 c5bb db8e 25bc 4991 d13c d39b 2f3c
00000040: a118 abbc 7c6f 1cbc b84b 3b3b 152d f13c
00000050: 12d8 7fbc 407a debc 0a89 efbc f936 45bc
00000060: 1d92 2bbc 183f ebbc 54b6 dc3c 897b ef3c
00000070: 0279 2e3c 121a bebc 0e5c df3c d29b d73b
00000080: 909a 77bb 16f6 f13c 8e4d a83b 7004 c93c
00000090: cbb8 10bc 0022 803c 39e1 163c f362 9f3c
000000a0: 449a 8dbc 4ade 24bc 0079 9fbc 5a10 c8bb
000000b0: 1e26 0fbc a359 f73b f151 b93c fa74 363c
000000c0: 65bd b0bc 5479 89bc b5a1 2f3c 2f30 23bc
000000d0: 31be 9dbc e7d9 cfbc ae28 b1bc c94b 57bc
000000e0: 24aa 17bc b35b 2f3c 9729 c53c 7cb7 18bc
000000f0: be24 1e3c 03de 283c c275 d9bc 6044 2ebc
00000100: 72f0 e13c 26d0 d0bc 67a3 1c3c a964 39bc
00000110: b966 f2bb cbc6 46bc 9bf3 873c 1263 b6bc
00000120: fdf2 edbc 283f 33bc 9752 cb3c f60a ccbc
00000130: d850 193c 821c 243c 4703 36bc 36a3 263c
00000140: e250 bcbc 5f22 2abc 2a88 2abc 288b eabb
00000150: 7aee b4bb 69b1 383c b1d3 b9bc 4bb6 153c
00000160: 85a0 8f3c 50a5 85bc 97aa d2bc c65f 373c
00000170: 38ad fabc 7189 173c 132c d4bc 1bb4 7a3c
00000180: f450 2e3c ce81 31bc c34f 5f3c d9ed fc3c
00000190: 4687 0b3c 4f7a f93c 4a56 22bc 3fd7 7dbc
000001a0: 65e4 dabc d1a8 ac3c e1d0 ff3b 7516 10bc
000001b0: 62b0 dbbc 3d8f cd3c a06d c8bc 1153 cb3c
000001c0: 635d a4bc d69e 25bc 8f9f d2bc fe5f efbc
000001d0: b198 d93c 3c2d ca3b fee0 52bc 2e24 a53c
000001e0: e5b8 483c 872d 9e3c b25f d43c 23e1 ce3b
000001f0: 3293 d5bc 9996 eb3c f655 ce3c c933 263c
00000200: d6af ecbb 0239 ecbc b59e fdbb a407 113c
00000210: c6b0 543c 1009 263c b27a c03c 1a42 893c
00000220: 920d 263c 8a36 24bc 107d dabc 652f d93c
00000230: 9c3f 16bc d05e 19bc 2103 a03c 2502 263c
00000240: 6308 ebbc 927e 26bc 6cda d9bc 622b be3c
00000250: 8d2b ea3c ea3e df3c 317a 72bc 14ae 3abc
00000260: 7af8 db3c 211f afbc 147e 483c e359 dd3c
00000270: c90a b0bc e94c 003c f0a3 d8bc 08db 28bc
00000280: 773b d53c 0665 ddbc d0b0 8c3c a486 ecbc
00000290: d4f5 c5bc 0b5d 8abc bf68 3fbc ef59 22bc
000002a0: 72db ea3c 680d c4bc 828d 6a3b 539b dbbc
000002b0: 6ce7 d93c b5cc ea3c 7de0 fa3b 2f62 403c
000002c0: 6900 d7bc 7882 dd3c 6bb6 a4bc a351 d73b
000002d0: 5990 dcbc ab13 163c 6304 d93c 0bb9 fcbb
000002e0: f1e1 ddbc f12f dabc 2c2f 553c 2005 0ebc
000002f0: 4809 f2bc a100 dfbc 4964 bf3b a814 303c
00000300: e668 373c 0109 b9bc acc4 5b3c b57a 3ebc
00000310: e3ea d13c 067a 35bc e203 dd3c 79bd 123c
00000320: bf63 6abc 6891 313c ea62 103c 0e8f a93c
00000330: 9dea db3c 5da1 d5bc 78aa 38bc 5e2a 3a3c
00000340: 8264 4c3c 63eb 14bc b2e9 12bc 1774 d53b
00000350: 3650 b6bc 943d 2e3c f9fb 093c 7c36 5f3c
00000360: 35e5 be3b 4bd7 d8bc 6c28 293c 3215 1f3c
00000370: 2343 fabc bffe f0bc 144c 72bc 9180 323c
00000380: 1d0a 3c3c 047e 463c 5579 6a3c b0d0 833c
00000390: 532b cfbc 3ccc a33c ab95 31bc 62c3 84bc
000003a0: f98a 1f3c ef4a 11bc 90aa cfbc ba58 0e3c
000003b0: 5536 1e3c 46ea a03c 7b7e f23c e860 cebc
000003c0: 857a 213c 8f40 58bc 8cae 7e3b 7d33 74bc
000003d0: 86d8 df3c f53f a8bc bb4f d93c 9c20 d6bc
000003e0: e6ca d73c 795c 303c 451f dcbc b2ff 76bc
000003f0: e8ac 2a3c 966e 83bc a761 bfbc 9613 e8bc
-0.0052092364 0.02647943 -0.028913567 -0.01097057 0.0107328035 -0.009110959 -0.019497465 -0.019254219
-0.026924333 0.027069718 0.006511658 -0.010778977 -0.0060179 -0.01010486 0.025581973 0.010718304
-0.020885767 -0.009548064 0.0028579067 0.029440442 -0.01561548 -0.027157903 -0.02924015 -0.012037032
-0.010471848 -0.028716609 0.02694241 0.02923371 0.010648968 -0.02320579 0.027265575 0.0065798545
-0.0037781335 0.029536288 0.0051361984 0.024538249 -0.008833121 0.015641212 0.009208971 0.019456362
-0.017285474 -0.0100627635 -0.019466877 -0.006105465 -0.008737115 0.0075485273 0.02262208 0.011136288
-0.021574685 -0.016781487 0.010719706 -0.009960218 -0.01925573 -0.025372459 -0.021625843 -0.013140627
-0.009256873 0.010703015 0.024067683 -0.00932109 0.009652315 0.010306838 -0.02654541 -0.010636419
0.027580474 -0.025489878 0.0095604425 -0.011315503 -0.0073974994 -0.012132357 0.016595652 -0.022264037
-0.02904653 -0.010940351 0.024819655 -0.02490757 0.009357654 0.010016562 -0.01110918 0.010170748
-0.022987787 -0.010384171 -0.010408441 -0.007157702 -0.0055215927 0.011272767 -0.02268395 0.0091377
0.017532596 -0.016314179 -0.02571611 0.011192268 -0.030600175 0.009249077 -0.025899922 0.01530173
0.010639418 -0.0108341705 0.0136298565 0.030875133 0.008516138 0.03045383 -0.009908268 -0.015493213
-0.026720235 0.021076592 0.0078068827 -0.008794417 -0.026817504 0.025092715 -0.024466336 0.024819883
-0.020064062 -0.01010867 -0.02571085 -0.029220577 0.026562067 0.006169943 -0.012871025 0.020158853
0.012251114 0.019308819 0.025924537 0.0063134595 -0.026071165 0.028758334 0.025187474 0.0101441825
-0.0072231097 -0.028835777 -0.0077398666 0.008851919 0.012981599 0.010133997 0.023496006 0.016755152
0.010135071 -0.010022769 -0.026670963 0.026511857 -0.009170439 -0.009360984 0.019532742 0.010132347
-0.028690523 -0.010162013 -0.02659341 0.023214046 0.02858522 0.02725168 -0.0147996405 -0.0113940425
0.026851881 -0.021377148 0.012237091 0.0270204 -0.021489518 0.007830837 -0.026445359 -0.010306127
0.026029332 -0.02702571 0.017174155 -0.028872795 -0.024165072 -0.01689007 -0.011682688 -0.009909137
0.028669093 -0.023932174 0.0035789912 -0.026807463 0.026599608 0.028662065 0.0076561556 0.011742159
-0.026245313 0.027039751 -0.020106515 0.006571011 -0.0269243 0.009159963 0.02649135 -0.0077124885
-0.027085276 -0.026634188 0.013011735 -0.008668214 -0.029545441 -0.02722198 0.0058408123 0.010747112
0.011194443 -0.022587301 0.013413589 -0.011625935 0.025624698 -0.011076456 0.02697939 0.008956307
-0.014306008 0.01083789 0.008812645 0.020698097 0.02684527 -0.02607792 -0.011271112 0.01136264
0.012475135 -0.009089324 -0.00896685 0.006514083 -0.022255044 0.010634799 0.008421891 0.01362383
0.0058256635 -0.026469847 0.010324579 0.009709643 -0.030549591 -0.029418347 -0.014788646 0.01089491
0.011477021 0.012115005 0.014311154 0.01609072 -0.025289213 0.019994847 -0.010838906 -0.016206447
0.0097377235 -0.008867963 -0.025349885 0.008688146 0.009656508 0.01964296 0.029601326 -0.025192693
0.009855871 -0.013198986 0.0038861362 -0.014904854 0.027324926 -0.02053831 0.026527276 -0.026138596
0.026341867 0.010764235 -0.02687038 -0.015075611 0.010417201 -0.016043942 -0.023361994 -0.028329652

fc2.bias f4 [600]
00000000: dea0 e139 42a7 883a f65d 453a 687a e6ba
00000010: bf06 d23a 7324 87ba 28a0 3238 11ad b63a
00000020: d491 063b e886 d438 d6e0 0e3b 4c62 ccb8
00000030: 957b 72ba eab3 bb3a 7e38 f4bb 2d7d e838
00000040: 2347 1739 e6bd 2db9 cff7 edba 02cf 76b8
00000050: c9ad 84b8 9edd 0a3c 9195 2d38 ba2b 3b3c
00000060: 7747 23bc d605 8d3b a7b1 913b 7540 97b9
00000070: 59f8 5eb9 0ec3 e838 e696 a7b9 7558 65ba
00000080: 546e 4fb9 6dd0 e639 eb59 d2b8 3e9b 3ebc
00000090: 3955 83b9 314b 03ba 5995 0ebc e7ea 413a
000000a0: 2445 893a aa67 02bb 5192 1bbc dc18 c4b9
000000b0: 0110 903a e4e3 0f3b 1bfb 39bc 5e5b 0639
000000c0: 6616 17bc 3a16 cbbb 89de 95ba fb24 133b
000000d0: 57e8 1cbc 73d0 d1ba 8e1d 34ba b4f0 5b38
000000e0: d8da e538 16db 0fbb 70c2 8739 224b cdba
000000f0: eb62 623a 0d30 4a3a 0814 86bb 3920 7d39
00000100: fe45 1dba 1fca a6b8 01de bdbb 328b 8bba
00000110: 39c3 9bb9 677b 0ab9 722f 0a39 f17a 65ba
00000120: 7f3a 363c 36ce 9039 bf5c f63b 49cc 823a
00000130: 9e50 6439 2aa9 04bb 015f f7b9 f3f3 d839
00000140: 0b51 ffb9 ca22 af39 fc0c 15bb 419c 2339
00000150: 35e2 8f39 68be 9fb9 5115 b3b9 8ac7 413c
00000160: 764e 9a3a 7fb5 e0b9 dcec 9b38 81c9 55b9
00000170: 10bb 9139 2fbd 3f3c b793 d4b9 abfd bf38
00000180: 174b a13a 82e9 9db9 fbc0 49ba 49b1 9fb9
00000190: 863a 37bc 1f46 943a e4a6 87b8 bd49 9a39
000001a0: 6258 3e3c ba63 1339 cb64 9f38 d7e0 6b38
000001b0: 3ea1 2f3c 5a2a 0ebb 003e 30ba 3f54 26b8
000001c0: b9c9 3a3a 96b6 063a dfa6 5fb8 b004 b23a
000001d0: 754c b839 2e82 5e3a 6ee7 de3a 0ced 0439
000001e0: 31b2 8cb9 adfb 0bbb 79c7 123a 9cfb f63b
000001f0: 2646 0c3b 8983 8f3a 0d12 1a3c acff cfb9
00000200: 9b77 563b 748a fb39 8da9 0338 27ac 5e3b
00000210: 8c8c 83b9 718a 8435 7dad 0fb9 6001 af39
00000220: 6916 69ba 6dd8 8f3a d3f9 f23b 63cc 3a3c
00000230: 0d5f 99b9 5e50 d0b9 10d6 e5b9 a938 aab8
00000240: 735e ceb8 6423 5bb9 6ef2 0ebc db5b 3fba
00000250: cb06 c6b8 0b9b 68ba 33c5 fd3b 7e4b c539
00000260: 09f8 7239 ee38 87b9 9742 48b9 314c f23b
00000270: 553b 60bb 063e b4b8 577d 0f3b 5e38 bdba
00000280: a634 3eb9 e3f6 c8b9 7de7 7939 9fd6 1bba
00000290: 60fc 4c39 4b6c 52ba d0c2 ce3a d839 d939
000002a0: ed36 05bb d40e 243b 0473 11bc c087 3f3c
000002b0: 78e6 28ba 175f 093c 0f4c f3ba 5ca6 0cbb
000002c0: e743 fbb9 bd8a 11bb 11d0 1eb9 2677 3ebc
000002d0: a1be 38b8 4f00 0cbc 9402 90b9 a15c b2b9
000002e0: 025e 2d3a a38f 0a3a 3ffd 0b39 6c35 133c
000002f0: 6f7d d6b9 dda0 e139 f753 9239 b63b 9bba
00000300: 703d 85bb 42fd 1e3a 7d5e 3cbc 8910 03bb
00000310: 915f 1cba 579c 45ba 6a46 f1bb 003c a83a
00000320: c63e c0bb 0746 a435 1b86 2dba ef5d 9339
00000330: 023e bdb9 75fb 3d39 4426 a5b8 385b 95b9
00000340: 8851 2fba cee0 e939 c398 68ba 09de 0e3c
00000350: 3f92 18b9 906a ac39 2cb5 523a 996e 3ebc
00000360: 13f6 0d3a 3065 6838 3a6b 0c3a c1ec b5ba
00000370: 868b 5939 f6b1 7bbb 3b9d 8437 8a26 1fb9
00000380: b369 f4b8 7de7 97b9 bdb7 b2b8 83b5 7139
00000390: 7493 043b 0e0a 51ba b951 1138 2b55 5b3a
000003a0: 22fa a239 12f0 30ba d85a 18ba 2b45 6539
000003b0: 6ff3 9038 6270 7cb8 6123 5e3a 57b1 cc39
000003c0: 91c6 32b8 49b7 2a3a 1067 f4bb 3c41 ba3a
000003d0: 87d4 42b8 613d 4739 ca5b a039 fd5d c8bb
000003e0: dccc 3aba bafe 1c3a fbe9 26b9 7f60 733a
000003f0: 5524 2939 4724 363c e9c7 e4b9 7789 12bb
0.000430352 0.0010425823 0.0007528955 -0.0017584087 0.0016023739 -0.0010310545 4.2587664e-05 0.0013937076
0.0020533698 0.00010134076 0.0021801493 -9.745787e-05 -0.00092499825 0.0014320586 -0.0074530235 0.00011085938
0.00014426983 -0.00016569308 -0.0018155518 -5.884376e-05 -6.3266205e-05 0.008475689 4.138571e-05 0.011423999
-0.009965769 0.004303674 0.0044462266 -0.0002884899 -0.00021264087 0.00011098954 -0.0003196515 -0.0008748838
-0.00019782159 0.00044024308 -0.00010030329 -0.011633692 -0.00025049763 -0.0005008458 -0.008702599 0.0007397369
0.0010472876 -0.0019898214 -0.009495334 -0.00037402555 0.0010991098 0.0021955902 -0.011351372 0.00012813273
-0.009221649 -0.006197718 -0.0011434118 0.0022452462 -0.0095768785 -0.0016007557 -0.0006870859 5.243784e-05
0.00010960334 -0.0021950654 0.00025894074 -0.001566265 0.0008635956 0.00077128486 -0.0040917434 0.00024139964
-0.00059995044 -7.953145e-05 -0.005794287 -0.0010646342 -0.00029709356 -0.00013206677 0.0001317838 -0.00087539764
0.011122345 0.0002761946 0.0075183804 0.0009979095 0.00021773807 -0.0020242431 -0.00047182295 0.00041380487
-0.00048697772 0.0003340452 -0.0022743335 0.000156031 0.00027443623 -0.00030468707 -0.00034157422 0.011827359
0.0011772651 -0.00042859835 7.4350944e-05 -0.00020388329 0.00027795928 0.01170282 -0.00040545847 9.154839e-05
0.0012305704 -0.0003011935 -0.0007696298 -0.0003045893 -0.011183387 0.0011312402 -6.4683874e-05 0.00029428108
0.011617752 0.00014056163 7.600485e-05 5.6237765e-05 0.0107195955 -0.0021692724 -0.0006723106 -3.9655944e-05
0.0007125396 0.0005138902 -5.3322754e-05 0.0013581719 0.0003515218 0.0008488026 0.0017006227 0.00012676808
-0.00026835644 -0.0021359727 0.0005599182 0.0075373184 0.0021404116 0.0010949235 0.009403718 -0.00039672607
0.00327251 0.00047977606 3.139074e-05 0.0033977123 -0.00025090983 9.875058e-07 -0.00013702172 0.00033379626
-0.0008891584 0.0010974534 0.0074150353 0.011401269 -0.00029253252 -0.0003973273 -0.00043837773 -8.1167855e-05
-9.840438e-05 -0.00020898652 -0.008724792 -0.00072997593 -9.442641e-05 -0.0008873201 0.0077444552 0.00037631014
0.00023171319 -0.00025791622 -0.00019098293 0.0073943366 -0.0034215052 -8.5946216e-05 0.0021894777 -0.0014436354
-0.00018139425 -0.00038330918 0.00023832727 -0.0005944762 0.00019548973 -0.0008027001 0.0015774611 0.00041432562
-0.0020326928 0.0025033252 -0.0088775195 0.01169008 -0.0006443034 0.008384488 -0.0018562096 -0.0021461463
-0.00047925042 -0.0022207939 -0.00015145565 -0.011625087 -4.4046556e-05 -0.008544995 -0.0002746774 -0.0003401982
0.00066134345 0.0005285686 0.00013350415 0.008984905 -0.00040910716 0.00043035197 0.0002790985 -0.0011843357
-0.004066162 0.000606496 -0.011497137 -0.001999887 -0.0005965168 -0.000753825 -0.0073631303 0.0012835264
-0.005866858 1.2239333e-06 -0.00066194095 0.0002810801 -0.0003609509 0.0001811812 -7.874941e-05 -0.00028487458
-0.00066878693 0.00044608716 -0.0008872861 0.0087199295 -0.0001455033 0.00032885792 0.0008037861 -0.011623048
0.0005415391 5.540735e-05 0.0005356554 -0.0013879762 0.00020746709 -0.0038405634 1.5808842e-05 -0.00015177779
-0.00011654515 -0.00028973437 -8.521925e-05 0.0002305117 0.002022949 -0.00079742156 3.4646804e-05 0.0008366878
0.0003108541 -0.00067496405 -0.00058118766 0.00021864909 6.911798e-05 -6.0186147e-05 0.00084739 0.0003904204
-4.2623436e-05 0.0006512297 -0.007458575 0.0014210115 -4.6451136e-05 0.00019000984 0.00030585966 -0.00611472
-0.00071258633 0.0005988885 -0.00015918158 0.00092840934 0.0001613063 0.011117048 -0.00043636494 -0.0022359767

fc3.weight f4 [1, 600]
00000000: 16e5 8a3c 1b21 13bc 7f8c 66bc de07 68bc
00000010: d811 15bc 5a5b 173c 7fd7 81bc b2ff 48bc
00000020: 02b4 723c 959a 81bc 331d 17bc 9818 86bc
00000030: 7c1c 90bc d8e5 45bc 68c1 53bc 8545 19bc
00000040: 02c1 833c f7d5 80bc 0f72 353c 6e65 85bc
00000050: 2a98 85bc 95f0 233c 8234 853c 433c 633c
00000060: a492 6cbc 14fc 873c 6e26 c93b 26fc 85bc
00000070: e556 87bc 625d 863c 8b30 84bc 4a36 8ebc
00000080: ed6a 84bc 67e0 893c 21fd 80bc 24bb 6abc
00000090: 44f6 86bc 1fac 8bbc c62e 29bc c554 8e3c
000000a0: d37c 59bc 1ec0 143c 7296 66bc 6de8 1d3c
000000b0: e3ac 18bc 227c 18bc b8a7 64bc ed95 81bc
000000c0: 6486 62bc bbf0 febb 25a1 173c 101b 1fbc
000000d0: 90e7 38bc 411f 3f3c d6ff 8bbc aa1d 853c
000000e0: ef06 843c 8b8a 173c 8d17 873c f671 423c
000000f0: 0bde 8f3c 2685 15bc 78ad bcbb 915a 833c
00000100: 7085 8bbc aa06 783c 13e5 63bc 8d70 103c
00000110: d6c1 85bc 7285 86bc efd4 80bc 613e 8fbc
00000120: 32ef 753c 1ec6 863c e463 5f3c 4831 903c
00000130: fcb5 873c de2f 9bbc e0b3 8abc 0918 883c
00000140: 8ef1 8bbc ec51 893c 690b 1a3c 48ee 863c
00000150: 810b 883c 2223 86bc 5884 85bc 87d7 753c
00000160: 3c55 54bc f522 1d3c 7232 83bc 6e9a 87bc
00000170: 6468 853c 88c6 6e3c 1dc9 8abc ddf8 853c
00000180: e9c0 913c 123f 85bc 9af9 9339 ef4e 89bc
00000190: b90b 77bc 6287 17bc c4be 84bc df58 873c
000001a0: 685d 7a3c f0ef 863c 8cc0 1b3c 3d77 77bc
000001b0: 68f3 713c 5cbb 273c c958 8dbc 5668 84bc
000001c0: 3726 8e3c 251d 8c3c 9af6 82bc 7dc5 4abc
000001d0: 090b 1bbc c333 8e3c b050 15bc b9dc 81bc
000001e0: a998 88bc f20b 163c 0d78 8b3c 1deb 133c
000001f0: 2342 16bc 1411 913c eb4b 8f3c fbbf 8abc
00000200: 9b53 a33b 2583 8b3c c90a 843c f924 a73b
00000210: 4e8d 86bc 3365 84bc 44b5 86bc 5b59 883c
00000220: df83 8fbc f151 8f3c 35a7 583c 0ee5 613c
00000230: d45d 88bc c240 733c f3c7 8abc 6f19 84bc
00000240: ec03 823c 69cb 87bc 3129 5cbc 66e6 643c
00000250: ddfc 83bc 3bc2 8fbc a9b8 173c d677 8a3c
00000260: 7c10 853c a52b 88bc 95ec 84bc 214d 543c
00000270: 98ee a8bb fb58 85bc 9589 673b 9d1f 183c
00000280: cb20 1fbc 0451 723c 46c8 863c f2e8 8cbc
00000290: 79c5 853c ebf7 653c 9613 42bc acbe 893c
000002a0: de1c 153c c997 843b f5d5 5dbc 91f9 773c
000002b0: b9de 6a3c aba5 233c 21cc 343c fa39 283c
000002c0: 629a 8bbc 642f 1a3c fc8d 86bc 4706 67bc
000002d0: f2e7 823c 3ba9 25bc db67 88bc 9b91 88bc
000002e0: 708c 8c3c 2eed 6ebc 347f 853c 3eb5 853c
000002f0: e0e3 8abc 5a0f 8b3c a873 833c a83c 143c
00000300: e84c bebb 29c6 19bc 0c16 74bc 978d 2f3c
00000310: 2cd9 8cbc f41b 8ebc fd94 11bc ee9f 913c
00000320: 9934 84bc c06e 813c f0bf 8bbc cb19 873c
00000330: 1978 87bc 3930 7fbc d822 85bc 7808 88bc
00000340: daf0 1b3c 996e 74bc a4dd 8cbc c116 293c
00000350: 5c72 183c 24c9 893c e02c 1bbc 04c2 70bc
00000360: ab43 1abc 1a7b 853c 165c 8a3c c564 60bc
00000370: c18b 873c f9eb b4bb 1ecb 843c d5c8 84bc
00000380: cb3f 83bc 78cb 84bc 11f2 813c 1c37 883c
00000390: d13e 15bc 0a97 163c c433 81bc 2dfa 8c3c
000003a0: 6b6f 853c bab9 3b3c 592e 8dbc 466a 873c
000003b0: b17e 80bc f117 83bc cafa 61bc ac89 8a3c
000003c0: 292c 85bc 3de1 8d3c 4da9 88bc 7b26 17bc
000003d0: 7ef5 83bc df83 873c 6f5d 863c 04ff fbbb
000003e0: 4d94 8ebc a644 8d3c 2959 85bc 3588 1abc
000003f0: de31 873c 05ab 5c3c 0efd 1d3c 7436 223c
0.01695494 -0.008980061 -0.014071583 -0.014162032 -0.009098493 0.0092380885 -0.015849827 -0.012267994
0.014813425 -0.01582078 -0.00922327 -0.01636915 -0.017591707 -0.012078725 -0.01292453 -0.009354954
0.016083244 -0.015727026 0.011074557 -0.016283717 -0.016307909 0.01000609 0.01626039 0.013869348
-0.014439259 0.016599692 0.0061386144 -0.016355585 -0.016520927 0.01640195 -0.016136428 -0.017359871
-0.016164267 0.016830636 -0.015745701 -0.014326844 -0.01647485 -0.017049847 -0.010326093 0.017374406
-0.013274389 0.009079007 -0.014073955 0.009637934 -0.009318563 -0.009306939 -0.013956003 -0.01581856
-0.013825987 -0.007780162 0.009254728 -0.009711042 -0.011285678 0.011665166 -0.017089766 0.016249496
0.016116587 0.00924934 0.016490722 0.011867991 0.017561933 -0.009125983 -0.005757984 0.016034396
-0.017031401 0.015138308 -0.013909596 0.008815897 -0.01632778 -0.016421054 -0.015726535 -0.0174858
0.015010642 0.016451892 0.013634656 0.017601624 0.01656627 -0.018943723 -0.016931474 0.016613023
-0.017082956 0.016762696 0.009402134 0.016471043 0.016607048 -0.016374175 -0.016298458 0.015004999
-0.012959775 0.009590854 -0.016015265 -0.01655313 0.016285129 0.014573701 -0.016941601 0.016354019
0.017792182 -0.016265426 0.00028223993 -0.016761271 -0.0150784785 -0.009248586 -0.016204245 0.01652187
0.015281059 0.016471833 0.009506356 -0.015104112 0.014767505 0.010237541 -0.01725425 -0.016163033
0.017352207 0.017103741 -0.01598673 -0.012376186 -0.00946308 0.017358666 -0.009113476 -0.01585232
-0.016674357 0.009158121 0.017025018 0.009028223 -0.009171042 0.017708339 0.017492255 -0.016937247
0.004984332 0.017030308 0.016118424 0.005100843 -0.016424801 -0.016161537 -0.016443856 0.01664417
-0.017518936 0.017495127 0.013223459 0.013787521 -0.016646303 0.014846982 -0.016941046 -0.016125409
0.01587101 -0.016576486 -0.013437555 0.013970947 -0.016111786 -0.017548671 0.009260335 0.016902845
0.016243212 -0.016622374 -0.016226092 0.012957842 -0.0051553957 -0.01627778 0.0035329808 0.009284881
-0.009712408 0.014789823 0.01645292 -0.01720092 0.016329514 0.014036159 -0.01184549 0.016814552
0.009101121 0.0040464145 -0.013539781 0.015135185 0.014335328 0.009988229 0.011034996 0.010267729
-0.017041389 0.009410713 -0.016425125 -0.014100618 0.01597974 -0.0101111485 -0.016651085 -0.016670993
0.01715681 -0.014582915 0.016296007 0.016321775 -0.016954362 0.016975094 0.01604636 0.009047665
-0.005807508 -0.009385624 -0.0148978345 0.01071491 -0.0171934 -0.017347313 -0.008885619 0.017776456
-0.016138362 0.01579988 -0.017059296 0.016491791 -0.01653676 -0.015575462 -0.016251966 -0.0166056
0.009517873 -0.014918947 -0.01719553 0.010320366 0.009304609 0.016819544 -0.009471148 -0.014694694
-0.009415547 0.016294051 0.016889613 -0.0136959 0.016546132 -0.005521294 0.016210135 -0.016209045
-0.01602163 -0.016210303 0.015862497 0.01662784 -0.009109215 0.009191284 -0.015771754 0.017209137
0.01628848 0.011457855 -0.017234014 0.016530167 -0.015685411 -0.016002627 -0.013792703 0.01691135
-0.016256409 0.017319316 -0.016682291 -0.009225483 -0.01610827 0.016542373 0.016401974 -0.0076903123
-0.0174047 0.017244648 -0.016277866 -0.009431888 0.01650327 0.013468509 0.0096428525 0.009900678
