GAIL/weights/GAIL-100_actor.pth (torch_old, 767283 bytes, 7 tensors)

fc1.weight f4 [300, 29]
0	0x3f25804b	0.64648885
1	0x3d92c416	0.07166307
2	0x3ea0c6e6	0.31401747
3	0x3dbb6366	0.09149818
4	0x3dd6efd1	0.1049496
5	0x3d539de1	0.051664237
6	0x3cac96f0	0.021068066
7	0x39441192	0.00018698562
8	0xbc087a89	-0.008329996
9	0xbc0a91d8	-0.008457623
10	0xbc1228dd	-0.008920875
11	0xbc11491f	-0.008867531
12	0xbc0cb53a	-0.00858813
13	0xbb5073f7	-0.0031807402
14	0x3bf3f203	0.0074446215
15	0x3cd313e7	0.025766326
16	0x3d07d0b0	0.033158004
17	0x3b8bcdfd	0.004266499
18	0xbe1c91fb	-0.15290062
19	0xbdc193f9	-0.09452052
20	0x3d5f8cd3	0.05457766
21	0x3bdfe398	0.006832551
22	0x3eade7d3	0.3396593
23	0x3dca38a1	0.09874082
24	0x3ca46355	0.020066896
25	0x3c2c40a3	0.0105134575
26	0x3c73d444	0.014882151
27	0x3c4f4a46	0.0126519855
28	0x3d4877a9	0.04894224
29	0xbed7a2f9	-0.42116526
30	0x3dc642c7	0.096807055
31	0xbdaaba97	-0.083363704
32	0xbd9d7fcf	-0.07690393
33	0xbd8c58fc	-0.0685291
34	0xbd4c6710	-0.049902976
35	0xbd2a16a3	-0.041525494
36	0xbd38239c	-0.044955835
37	0xbd63029d	-0.055422414
38	0xbd7eaa24	-0.062173977
39	0xbd87219c	-0.06598207
40	0xbd8de5bc	-0.06928584
41	0xbd9a1789	-0.0752402
42	0xbdafe74b	-0.085890375
43	0xbdcf2740	-0.10114908
44	0xbdedff62	-0.11620976
45	0xbe0a91ff	-0.13532256
46	0xbe312eda	-0.17303029
47	0x3d83b53e	0.064310536
48	0x3eece80d	0.4627079
49	0x3daa0a47	0.083027415
50	0x3d310b27	0.043223526
51	0xbde4b35c	-0.111670226
52	0x3e901822	0.28143412
53	0x3cc96dd8	0.02458851
54	0x3d205baf	0.039149936
55	0x3cc536e0	0.024074018
56	0x3d0566e8	0.032568842
57	0x3d954e7a	0.07290359
58	0xbf65f6f4	-0.89829946
59	0xbd678ebd	-0.05653261
60	0xbe57d139	-0.21075906
61	0x3bf67969	0.0075217974
62	0xbd6106b7	-0.054938044
63	0xbc0897a7	-0.008336938
64	0x3bd46f44	0.0064829905
65	0x3c26e47c	0.010186311
66	0x3ba13b35	0.004920388
67	0x397edff3	0.00024306755
68	0xbaa7abfc	-0.0012792344
69	0xbb32cff5	-0.0027284597
70	0xbb96319b	-0.00458355
71	0xbc17a9f9	-0.009256833
72	0xbc80872b	-0.015689453
73	0xbc683234	-0.014172126
74	0x3c83211c	0.016006999
75	0x3dbfdb72	0.09368028
76	0x3e1ee92e	0.15518638
77	0x3d88bd62	0.06676747
78	0xbcb37965	-0.021908471
79	0x3cea4263	0.028596109
80	0xbe1f799f	-0.15573739
81	0xbea1c689	-0.31596783
82	0x3c8d695c	0.017262153
83	0x3cdf96d7	0.027293606
84	0x3cd628e6	0.026142549
85	0x3ce4bfba	0.027923454
86	0xbcc92b5f	-0.024556814
87	0xb8701d31	-5.7247646e-05
88	0xb90bd487	-0.00013335246
89	0x3760b1c9	1.3392834e-05
90	0x3809718f	3.2769105e-05
91	0xb91053f3	-0.00013764184
92	0x3956581a	0.00020441451
93	0xb8116bc9	-3.4671077e-05
94	0xb5e41446	-1.6993224e-06
95	0x3808d530	3.2623473e-05
96	0x36ac1563	5.128489e-06
97	0xb9044481	-0.0001261402
98	0xb8609feb	-5.3554697e-05
99	0x3793c363	1.761475e-05
100	0x37adb610	2.0707987e-05
101	0x3873ca06	5.8123864e-05
102	0xb8249f4e	-3.924901e-05
103	0xb78343cd	-1.564799e-05
104	0x38ec62b6	0.00011271743
105	0x38d693d5	0.00010231851
106	0xb8aba9dc	-8.185554e-05
107	0xb9122337	-0.00013936764
108	0xb7189735	-9.095112e-06
109	0xb7accea4	-2.0600222e-05
110	0xb7847c76	-1.5793583e-05
111	0xb9055007	-0.00012713681
112	0xb784e569	-1.5842454e-05
113	0x3800c4f8	3.070102e-05
114	0xb7784b0f	-1.4799428e-05
115	0xb8d184f1	-9.990659e-05
116	0x3f90141f	1.125614
117	0xbd163c42	-0.03667856
118	0x3daf54a0	0.08561063
119	0xbd940195	-0.07226864
120	0xbccaef0c	-0.02477219
121	0xbcf8400d	-0.03030398
122	0xbd01b4d7	-0.031666603
123	0xbcf5f0ba	-0.030022014
124	0xbcb83b14	-0.022489108
125	0xbc71fc55	-0.014769633
126	0xbbfe57e5	-0.0077619427
127	0x389de9d1	7.529895e-05
128	0x3c1d2a67	0.009592629
129	0x3ce62f0e	0.02809861
130	0x3d668bad	0.05628555
131	0x3de79818	0.113083065
132	0x3e48cfac	0.1961047
133	0x3e69b47e	0.22822759
134	0xbdacc78e	-0.084364995
135	0xbe754a3f	-0.23954104
136	0xbdaef26a	-0.085423306
137	0x3be50665	0.0069892877
138	0x3f0150ca	0.505139
139	0xbe441b10	-0.19150949
140	0x3c86dbb2	0.01646218
141	0x3c36107c	0.011112329
142	0x3c9158ee	0.0177426
143	0x3c80e74c	0.015735291
144	0xbd19c439	-0.037540648
145	0xb7acc530	-2.059582e-05
146	0xb8991271	-7.2990435e-05
147	0xb58e5648	-1.0604936e-06
148	0xb85cc431	-5.2634805e-05
149	0xb863f133	-5.434565e-05
150	0x38fdd61f	0.00012103863
151	0x37904afb	1.7201053e-05
152	0xb8fb6504	-0.00011987428
153	0x382d9460	4.13846e-05
154	0x377e7d11	1.5168699e-05
155	0xb81e792f	-3.7782997e-05
156	0xb88f442b	-6.8314686e-05
157	0xb8e6a268	-0.00010997505
158	0xb7f01dab	-2.8624045e-05
159	0x361ff4ca	2.3835332e-06
160	0x39229aa6	0.00015507135
161	0x385c00a7	5.2452695e-05
162	0x3859bceb	5.1912775e-05
163	0xb7a34821	-1.9464702e-05
164	0x3834b1cc	4.308093e-05
165	0x398ef1ad	0.00027264413
166	0x38f02380	0.00011450704
167	0xb7d7c6fe	-2.572266e-05
168	0x38c4e0e0	9.3878945e-05
169	0x380d14f5	3.3636537e-05
170	0xb5ef27e9	-1.7818503e-06
171	0x37e25714	2.6981848e-05
172	0xb9a93a57	-0.00032277658
173	0x361943d6	2.2838262e-06
174	0xbf65a967	-0.8971161
175	0xbd65356e	-0.055959158
176	0xbe4f51ec	-0.20246094
177	0x3c894005	0.01675416
178	0xbd6a3221	-0.057176713
179	0xbc4abe3f	-0.01237446
180	0x3b61eed8	0.0034474637
181	0x3c001600	0.007817745
182	0x3b3d63be	0.0028898562
183	0xbaa281b3	-0.0012398273
184	0xbb1a3831	-0.0023532028
185	0xbb7448ab	-0.0037274759
186	0xbbc4a3cb	-0.006000971
187	0xbc2b4d15	-0.0104553895
188	0xbc884b21	-0.016637387
189	0xbc8a743d	-0.01690113
190	0x3c27e7f5	0.010248174
191	0x3dadffad	0.08496032
192	0x3e348537	0.17628942
193	0x3d6ef7df	0.058341857
194	0xbcad1dfc	-0.021132462
195	0x3ca9cfdb	0.020728996
196	0xbddd7cd7	-0.10814827
197	0xbcd7073e	-0.02624857
198	0x3c0e6122	0.00869015
199	0x3ca14204	0.019684799
200	0x3c949f43	0.018142348
201	0x3ca35992	0.019940171
202	0xbcac148d	-0.021005893
203	0xbf1e91a6	-0.6194099
204	0x3cb420cc	0.021988295
205	0xbe30ffcd	-0.1728508
206	0x3d85885e	0.065201506
207	0x3c46e606	0.012139803
208	0x3d23d269	0.039995585
209	0x3d43f077	0.047836747
210	0x3d352f67	0.04423466
211	0x3d0e6f60	0.034774184
212	0x3ce4b4fd	0.027918333
213	0x3cade746	0.021228444
214	0x3c7649b8	0.015032224
215	0x3be7bba3	0.0070719286
216	0xba08edea	-0.000522344
217	0xbc34e9d6	-0.011042079
218	0xbca6498f	-0.020298747
219	0xbc35c840	-0.011095107
220	0x3d81e766	0.06342964
221	0x3e6b07b6	0.2295216
222	0x3e0e504f	0.13897823
223	0xbea7b99e	-0.32758802
224	0xbc924a17	-0.017857594
225	0x3e898b62	0.26864153
226	0x3f22a922	0.63539326
227	0xbca8f4db	-0.020624569
228	0xbc51903e	-0.012790738
229	0xbc9e6be0	-0.019338548
230	0xbc7d44af	-0.01545827
231	0x3d1bc9db	0.0380343
232	0xb82893aa	-4.0191844e-05
233	0x385d845b	5.281377e-05
234	0xb80e3353	-3.3903238e-05
235	0xb8d8bf2b	-0.000103352904
236	0x3969cb5f	0.00022296373
237	0xb84d6cba	-4.897707e-05
238	0x382f1295	4.1740557e-05
239	0x3823be52	3.9039478e-05
240	0xb80eb9aa	-3.402835e-05
241	0xb890f1fd	-6.911529e-05
242	0xb8adcce7	-8.287449e-05
243	0x38df8eab	0.000106600426
244	0x38c1077c	9.204351e-05
245	0xb8956073	-7.122839e-05
246	0xb909f3db	-0.00013156181
247	0x3809daa6	3.2866978e-05
248	0x38bcb3ea	8.99805e-05
249	0xb90dcb22	-0.00013522481
250	0x37f26408	2.8895229e-05
251	0x381d69b6	3.7530168e-05
252	0xb830f04d	-4.2185467e-05
253	0x3765db03	1.3700456e-05
254	0xb6ec0c4c	-7.0347796e-06
255	0x37d5a049	2.5466217e-05

fc1.bias f4 [300]
0	0x3caf1108	0.021370426
1	0x3e01033e	0.12598893
2	0xbca7631d	-0.020433003
3	0xb7c597f8	-2.3554996e-05
4	0xbd93e807	-0.0722199
5	0xb84cdd67	-4.8843587e-05
6	0xbc800c4c	-0.015630864
7	0x3d11b33c	0.03557132
8	0xb897b71d	-7.2343486e-05
9	0xbc0d6389	-0.008629688
10	0x00000000	0.0
11	0xb83a6300	-4.4438057e-05
12	0xb81b5e9f	-3.7043003e-05
13	0xb7e29b83	-2.7013715e-05
14	0xb810a40c	-3.4485056e-05
15	0x3c1d432b	0.009598534
16	0xbc897eb9	-0.016784059
17	0xbbd05cd8	-0.006358724
18	0xb73c22b4	-1.1213753e-05
19	0xbc60b3c8	-0.013714738
20	0xbd24d447	-0.040241506
21	0xb89ea6fb	-7.5651296e-05
22	0x3cb1468c	0.021640085
23	0x3d3917a7	0.045188572
24	0x3bba5965	0.005686926
25	0xbcb3e2c1	-0.02195871
26	0x3cafe4b6	0.021471363
27	0xb7295a7f	-1.0094255e-05
28	0x3bb883cc	0.005630946
29	0xbd24422e	-0.040102176
30	0xbc142c7b	-0.009043808
31	0xbc996996	-0.018727105
32	0x00000000	0.0
33	0xbcb4229e	-0.021989163
34	0x00000000	0.0
35	0xbd33c42c	-0.043888256
36	0xbbae9dfc	-0.005328892
37	0x3b93c115	0.004509101
38	0xb7e22b2a	-2.69614e-05
39	0x3c6148d2	0.013750272
40	0xbd125f09	-0.035735164
41	0xbc947bd4	-0.018125452
42	0xbd0f3f50	-0.03497249
43	0xb87cfb36	-6.031544e-05
44	0x3ca3d7e5	0.020000407
45	0x3d2839d8	0.04107079
46	0xb7206533	-9.560305e-06
47	0x3c0a7e9d	0.0084530385
48	0x3d353bc4	0.04424645
49	0x3c1be08e	0.009513987
50	0x00000000	0.0
51	0x3b0fcb88	0.0021941382
52	0xbd185071	-0.03718609
53	0x3d1dc6bc	0.038519606
54	0xbc18d302	-0.009327652
55	0x3abbfe15	0.001434269
56	0xbd0eb377	-0.03483912
57	0x00000000	0.0
58	0x00000000	0.0
59	0xbb9af3f0	-0.0047287866
60	0xbce6b38e	-0.02816179
61	0xb79d8db2	-1.878184e-05
62	0xbbe4c039	-0.0069809225
63	0x3bd28fd2	0.006425836
64	0x00000000	0.0
65	0xbc44045a	-0.011963928
66	0xbc26d9be	-0.01018375
67	0xb79c9f34	-1.8670784e-05
68	0xb8727b5a	-5.7812176e-05
69	0x00000000	0.0
70	0x3c9f4143	0.019440299
71	0xbcc28f34	-0.023749925
72	0xb62bb519	-2.5586398e-06
73	0xbc7c05c4	-0.015382234
74	0x3cd91259	0.026498007
75	0xbbe95893	-0.0071211546
76	0x00000000	0.0
77	0x3bbe39aa	0.005805214
78	0x3d88ec86	0.06685738
79	0xb6f7fe0c	-7.3907486e-06
80	0xbc94dd82	-0.01817203
81	0xbd23fa03	-0.04003335
82	0x3d8728c4	0.06599572
83	0x00000000	0.0
84	0xbbecf966	-0.007231879
85	0xbcc9d1cc	-0.024636172
86	0xb7eac52e	-2.7986793e-05
87	0xbcfee939	-0.031117069
88	0xbd88b436	-0.066749975
89	0xbc1b998b	-0.009497057
90	0xbc8ba13c	-0.017044656
91	0xb6cc9ad8	-6.0977e-06
92	0x00000000	0.0
93	0x3d38647a	0.045017697
94	0x3b916512	0.0044370973
95	0xb87d4809	-6.038699e-05
96	0x3b9265f0	0.0044677183
97	0xb809dd00	-3.2869168e-05
98	0xb7494f17	-1.1998948e-05
99	0x00000000	0.0
100	0x00000000	0.0
101	0x3bbb760a	0.0057208585
102	0x3c85f00f	0.01634982
103	0x3cba5ed0	0.022750288
104	0xbcbf3dcb	-0.023344895
105	0xbc0cffe4	-0.008605931
106	0xbb40a1b0	-0.0029393248
107	0x00000000	0.0
108	0xbbc284b5	-0.00593623
109	0xb83d8ef7	-4.5194258e-05
110	0xb87e3d0d	-6.0615177e-05
111	0x00000000	0.0
112	0xbac0b8a2	-0.0014703462
113	0xb51a5a8b	-5.750123e-07
114	0x3d14d336	0.03633424
115	0xbc6e70b0	-0.014553234
116	0xbc9f0ca2	-0.019415203
117	0xbb485c55	-0.0030572612
118	0xbb555aa8	-0.0032555256
119	0x3cdfab9f	0.027303515
120	0x3b2dee93	0.0026539906
121	0x00000000	0.0
122	0x3e02dc43	0.12779336
123	0x3e059d11	0.13048197
124	0x3dd22186	0.102603
125	0xb6eb10a4	-7.005483e-06
126	0x3cad0e00	0.02112484
127	0xb82b2c70	-4.0810963e-05
128	0x00000000	0.0
129	0xbcb87872	-0.02251837
130	0x00000000	0.0
131	0xbb790ff7	-0.00380039
132	0x3c009b7a	0.0078495685
133	0x3d24d56c	0.040242597
134	0xbb84e702	-0.0040558586
135	0x3b97fd98	0.004638385
136	0xbcb30d58	-0.021856949
137	0x00000000	0.0
138	0xbc1dbcd2	-0.009627538
139	0x00000000	0.0
140	0x3bbef6fd	0.005827783
141	0x3d830c59	0.063988395
142	0x3db99886	0.09062295
143	0xb838b0ff	-4.403386e-05
144	0x3a86fcb9	0.0010298706
145	0xbc79e576	-0.015252462
146	0x3c174934	0.009233762
147	0xb79c7986	-1.8653238e-05
148	0xbc7e3e7f	-0.01551783
149	0x3cb6a210	0.022294074
150	0x3a77acf6	0.00094480754
151	0x3ce29e1d	0.027663285
152	0x3c028b9b	0.007967855
153	0x00000000	0.0
154	0xb7db6c95	-2.6157397e-05
155	0x3d231c54	0.039821938
156	0x3c5b5245	0.013386314
157	0xb88d5ae7	-6.740336e-05
158	0xbd236d5e	-0.039899223
159	0x3d0fd648	0.035116464
160	0x3cc37d13	0.023863351
161	0x3d21e64e	0.039526276
162	0x3d1072bb	0.035265666
163	0x3c8b73d6	0.017023008
164	0x3d882c9f	0.06649136
165	0x3c904291	0.017609866
166	0x3c6cf185	0.01446188
167	0xbc850db5	-0.016241888
168	0x3d92a236	0.071598455
169	0x00000000	0.0
170	0xbcafab04	-0.021443851
171	0x3cc1b309	0.02364494
172	0xb7101b76	-8.589463e-06
173	0xbd24e1cb	-0.040254395
174	0xb73fd8ac	-1.1434935e-05
175	0xb81d57bf	-3.7513437e-05
176	0xb96ecdc8	-0.00022774108
177	0xb8a0ecb4	-7.673484e-05
178	0x00000000	0.0
179	0xb895cd66	-7.143132e-05
180	0x3cf7e89b	0.030262282
181	0x00000000	0.0
182	0x3ca35c87	0.019941581
183	0xbcc6fa98	-0.024289414
184	0x00000000	0.0
185	0x3d1e45b4	0.038640693
186	0x3d3693f5	0.044574697
187	0xb8a5fb63	-7.9146375e-05
188	0x00000000	0.0
189	0xbbc4605f	-0.0059929336
190	0xbb3fac0d	-0.0029246837
191	0xba9e86d0	-0.0012094621
192	0xb7acee2d	-2.0614907e-05
193	0x3cc5f265	0.024163434
194	0x3bf73cc7	0.007545087
195	0xb79e3812	-1.8861178e-05
196	0x00000000	0.0
197	0x3d12a019	0.035797212
198	0x3c23bbe0	0.009993523
199	0x00000000	0.0
200	0xb83bca78	-4.4772838e-05
201	0x00000000	0.0
202	0x3cbc9241	0.023018958
203	0x3c871aa8	0.016492203
204	0xbc8fddd5	-0.017561832
205	0x3b3a1115	0.002839153
206	0x3bb4a1e5	0.0055124634
207	0xbcd92223	-0.026505535
208	0x3c6d8c4e	0.014498783
209	0x00000000	0.0
210	0x3d20ed24	0.039288655
211	0xbcb302a1	-0.02185184
212	0x00000000	0.0
213	0x3b9af368	0.0047287233
214	0xbc8679b3	-0.016415453
215	0xb78c11f0	-1.6697653e-05
216	0xb8116a02	-3.466942e-05
217	0x00000000	0.0
218	0xbc72da8e	-0.014822615
219	0xb4b14a29	-3.3022778e-07
220	0xbd14f2f5	-0.036364514
221	0xbc830ae4	-0.015996404
222	0x3e056799	0.130278
223	0xbc5da2af	-0.013527556
224	0x3cb88cab	0.022528013
225	0xbd1ef6a5	-0.038809437
226	0xb84fe630	-4.9567025e-05
227	0xbd061c19	-0.03274164
228	0x00000000	0.0
229	0x3cc7a5aa	0.024370987
230	0xbbf5343b	-0.007483033
231	0x00000000	0.0
232	0x3c839be0	0.016065538
233	0xbd157672	-0.03648991
234	0xb8423398	-4.6301255e-05
235	0xbcf7ebfe	-0.030263897
236	0xb810c300	-3.4513883e-05
237	0x00000000	0.0
238	0xbc059248	-0.008152552
239	0x3b8927d9	0.0041856584
240	0x00000000	0.0
241	0xb8707a1e	-5.733419e-05
242	0x3d13c42e	0.036075763
243	0x3dcb4260	0.099247694
244	0x3ca0b732	0.019618604
245	0xbc357bb0	-0.011076853
246	0xbbb51896	-0.0055266125
247	0xbd1f7f00	-0.038939476
248	0x3d15d164	0.036576644
249	0xbbf6d0c5	-0.0075322115
250	0xbc309a1d	-0.010778931
251	0x3c8a72b1	0.016900392
252	0x3d1d07c3	0.03833748
253	0xbbe72f01	-0.007055164
254	0xbc6b1a8e	-0.014349593
255	0x3e03357c	0.12813371

fc2.weight f4 [600, 300]
0	0x3dc8a064	0.09796217
1	0xbed30b18	-0.412194
2	0xbc1c15a6	-0.009526646
3	0xb8fb2790	-0.00011975982
4	0x3e07544c	0.1321575
5	0x3916110f	0.0001431147
6	0xbd04ca62	-0.03241957
7	0xbe2ee6cd	-0.17080231
8	0xb842be63	-4.6430516e-05
9	0xbdd03574	-0.101664454
10	0x38c28aca	9.276492e-05
11	0xb9a3d2f3	-0.00031246952
12	0xb87337ac	-5.7987563e-05
13	0x3745436c	1.1757813e-05
14	0xb8579c7f	-5.1405743e-05
15	0x3c938c9c	0.018011384
16	0xbccd2f3f	-0.025046943
17	0x3d0b9c2c	0.034084484
18	0x3576dff1	9.196802e-07
19	0xbdc6d7b2	-0.09709109
20	0xbda22397	-0.079169445
21	0x380b4780	3.3206772e-05
22	0xbd7791f4	-0.060441926
23	0xbe46971c	-0.19393581
24	0x3dcbec1f	0.09957146
25	0xbbc001b6	-0.005859579
26	0xbdbb58db	-0.09147807
27	0xb7ee4237	-2.8402645e-05
28	0x3dc3aff7	0.09555047
29	0x3efc366f	0.4926028
30	0x3d8863d5	0.066596664
31	0xbc6790fb	-0.014133687
32	0xb8c71b9d	-9.494203e-05
33	0xbbc4a682	-0.0060012946
34	0x3880585a	6.1199724e-05
35	0xbdb193e2	-0.086707845
36	0x3dd4094e	0.10353337
37	0x3d15605e	0.036468856
38	0x381130ac	3.4616023e-05
39	0x3d57d747	0.05269554
40	0x3efd3a32	0.49458462
41	0xbc9450e1	-0.018104972
42	0x3ee7a655	0.4524409
43	0x3835daab	4.3357413e-05
44	0xbd8f6a52	-0.07002701
45	0xbe3ba0fd	-0.18323131
46	0xb87c59b1	-6.0165014e-05
47	0x3dcd773e	0.10032509
48	0xbe2f6d0a	-0.17131439
49	0x3dd09208	0.10184103
50	0x38aba864	8.1852806e-05
51	0x3d442c25	0.047893662
52	0x3efe05fc	0.4961394
53	0xbd00ae4e	-0.03141623
54	0x3d6c81f4	0.05774112
55	0x3b1dd3b6	0.0024082488
56	0x3dd77651	0.10520614
57	0x3863ca2d	5.430931e-05
58	0xb94bc66f	-0.00019433511
59	0x3dd3c7ea	0.10340865
60	0x3de95e15	0.11394898
61	0x38601a44	5.3430223e-05
62	0x3d233db9	0.039853785
63	0x3dcbfc8b	0.09960278
64	0x38b66ac8	8.698326e-05
65	0x3d76da78	0.06026694
66	0x3dda64f9	0.1066379
67	0xb82c5dd3	-4.1095376e-05
68	0x37fd863a	3.0222454e-05
69	0xb817a46d	-3.615434e-05
70	0xbc10aa65	-0.008829688
71	0xbbaf7129	-0.005354066
72	0xb689d582	-4.1077737e-06
73	0xbd010566	-0.03149929
74	0x39e88d61	0.00044355824
75	0x3d3c4b67	0.045970347
76	0x381f7108	3.8013823e-05
77	0x3c2cd801	0.010549546
78	0xbd3e43a4	-0.046451226
79	0x38d0c2a1	9.954465e-05
80	0xbc98d7fa	-0.018657673
81	0x3efac12c	0.48975503
82	0xbd200966	-0.039071463
83	0xb8ea38da	-0.00011168579
84	0xbd719f37	-0.05898973
85	0x3dc88d6b	0.09792598
86	0x38805ac4	6.120422e-05
87	0x3e7e2546	0.24818906
88	0x3d8c9fa2	0.06866385
89	0xbd4b0e18	-0.049573988
90	0xbcc0f3dc	-0.023553781
91	0xb8a224da	-7.731626e-05
92	0xb8f4344b	-0.00011644567
93	0x3bd5aa73	0.0065205633
94	0x3d15f73b	0.03661273
95	0x37e5502a	2.7336257e-05
96	0xbd9a7b38	-0.07543033
97	0x39683346	0.00022144345
98	0xb8c1683e	-9.222374e-05
99	0x387b7ea8	5.996102e-05
100	0x38ac8389	8.2260995e-05
101	0x3c1ca272	0.009560214
102	0xbc54e024	-0.012992892
103	0x3dcc0307	0.09961515
104	0xbb639b86	-0.003473015
105	0x3d83d764	0.06437567
106	0x3dc05f4c	0.093931764
107	0xb88b7b62	-6.651018e-05
108	0xbde94db4	-0.11391774
109	0xb8bb9a54	-8.945601e-05
110	0x3914c272	0.00014186816
111	0xb8a7f837	-8.009414e-05
112	0xbe088387	-0.13331424
113	0x37ec7ed4	2.8192451e-05
114	0xbdaa57dd	-0.0831754
115	0xbd2ef920	-0.042718053
116	0xbc4de891	-0.012567655
117	0x3c81d311	0.015847715
118	0x3d5adbad	0.053432155
119	0xbde53f1f	-0.1119368
120	0x3dcc7cd0	0.099847436
121	0xb8e63388	-0.00010976853
122	0xbedbc567	-0.42924044
123	0xbed75dc1	-0.42063716
124	0x3ed655ba	0.4186228
125	0xb7a81937	-2.0038902e-05
126	0x3dcfca2f	0.10145985
127	0xb7858821	-1.5918225e-05
128	0xb97a1d30	-0.00023852731
129	0xbb9aa826	-0.004719752
130	0x38c60e61	9.444054e-05
131	0x3d58a0ad	0.052887607
132	0x3dd47bb4	0.10375157
133	0x3d11cf0b	0.035597842
134	0x3a092113	0.00052310637
135	0xb98f93ac	-0.0002738511
136	0xbbef161c	-0.007296337
137	0xb9399280	-0.0001769755
138	0x3d874b47	0.06606155
139	0xb8ce8461	-9.847503e-05
140	0xbd9d360b	-0.076763235
141	0xbd8c4e59	-0.06850881
142	0x3eb73ccb	0.3578857
143	0xb95e2a3d	-0.00021187305
144	0x3dcd94cd	0.10038147
145	0xbd09895f	-0.033578273
146	0x3bbab4a7	0.005697805
147	0xb84f34e6	-4.940191e-05
148	0xbd16ccb5	-0.036816318
149	0x3d2050f6	0.03913971
150	0x3c6de33d	0.01451951
151	0x3d388c53	0.0450557
152	0x3c3a359c	0.0113653205
153	0xb8a16ead	-7.697693e-05
154	0xb8c2e367	-9.292998e-05
155	0xbe13c3d7	-0.14430176
156	0xbdc63c18	-0.09679431
157	0xb8363b28	-4.3447275e-05
158	0x3f044a63	0.51676005
159	0xbe11a693	-0.142237
160	0xbd1823e3	-0.0371436
161	0xbe1dae40	-0.15398502
162	0xbe2f3e55	-0.17113622
163	0x3e35cc7b	0.17753784
164	0xbd883997	-0.066516094
165	0x3dc49798	0.09599227
166	0x3d7bdd46	0.06149032
167	0xbdf03430	-0.11728704
168	0xbd271a7e	-0.04079675
169	0xb92cfdfb	-0.00016497813
170	0xbc0f3638	-0.008740954
171	0xbd0aa337	-0.03384706
172	0x390f3420	0.00013656961
173	0x3f0410ec	0.5158832
174	0xb6fc89b5	-7.5262165e-06
175	0xb5a9388a	-1.2607936e-06
176	0x3dce02b1	0.10059107
177	0xb82cad20	-4.116923e-05
178	0x3878a621	5.9282527e-05
179	0xb86e8426	-5.6866695e-05
180	0xbc893d41	-0.016752841
181	0x382c5143	4.1083676e-05
182	0xbc2d2b26	-0.010569369
183	0x3de4d71c	0.11173841
184	0x39062f71	0.00012796909
185	0xbe2b643c	-0.16737455
186	0xbe24d1ae	-0.16095611
187	0x3900a98f	0.00012270197
188	0x38a08f35	7.656069e-05
189	0x3d014b3f	0.0315659
190	0xbde0406b	-0.10949787
191	0x3dcf0d96	0.10110013
192	0x38ad5d28	8.2666345e-05
193	0xbd07e5ba	-0.03317807
194	0xbb108d3e	-0.0022056843
195	0xb7e576d8	-2.7354268e-05
196	0xb7a512c5	-1.9678273e-05
197	0xbe38c2b2	-0.1804302
198	0xbc1a52ea	-0.009419182
199	0x36ec425c	7.0410733e-06
200	0x38ba7d19	8.8924724e-05
201	0x389b9e0e	7.420416e-05
202	0xbd2812a0	-0.041033387
203	0x3d80edfd	0.06295393
204	0x3d987410	0.07444012
205	0x3cd4f64e	0.025996353
206	0xbbcf22f0	-0.0063213035
207	0x3dc8f66f	0.098126285
208	0xbd606ee3	-0.05479325
209	0xb8cbe94b	-9.7232485e-05
210	0xbe2d956b	-0.1695153
211	0xbbc5663e	-0.006024151
212	0x367cc0a7	3.7663065e-06
213	0x3ddc0408	0.107429564
214	0x3d9fc4ce	0.078012094
215	0xb724cef7	-9.8233495e-06
216	0x381c19a3	3.7217174e-05
217	0xb78e77f9	-1.6983586e-05
218	0x3d741902	0.05959416
219	0xb80a9af4	-3.3046075e-05
220	0x3dd9f222	0.10641886
221	0xbd29369d	-0.04131185
222	0xbed6b8ba	-0.4193781
223	0xbd7e671c	-0.06211005
224	0x3dce46e2	0.100721136
225	0x3f02b1c1	0.5105248
226	0x3810d529	3.4530796e-05
227	0x3e7e3ae0	0.24827147
228	0xb74e9acc	-1.2314598e-05
229	0x3b4dc886	0.003140004
230	0xbdb4ab6b	-0.08821758
231	0x36c337ef	5.8179644e-06
232	0xbc42379e	-0.0118540805
233	0x3ef8f213	0.48622188
234	0xb900c618	-0.00012280827
235	0x3db0e477	0.08637326
236	0x3892a519	6.992574e-05
237	0xb79cdcc2	-1.8699448e-05
238	0x3d4ab27d	0.049486626
239	0x3ddc2d98	0.10750884
240	0x386a46da	5.5855933e-05
241	0x38c25ec4	9.268292e-05
242	0xbe383ba2	-0.17991498
243	0x3eb71bc6	0.35763377
244	0xbdef7adb	-0.11693355
245	0xbe26d631	-0.16292645
246	0x3d563639	0.052297805
247	0x3f025bc0	0.5092125
248	0xbe398a1f	-0.18119095
249	0x3d2353d3	0.039874863
250	0x3ca6e2ed	0.020371879
251	0xbd356011	-0.04428107
252	0xbe3bf90e	-0.18356726
253	0x3d05687a	0.03257034
254	0xbd3f5e1d	-0.046720613
255	0xbed8b6fc	-0.42327106

fc2.bias f4 [600]
0	0xbc767740	-0.01504308
1	0x3dbc1b14	0.09184852
2	0x00000000	0.0
3	0x3d39c28b	0.045351546
4	0x3d37d9a5	0.044885296
5	0xba57f8f3	-0.00082386954
6	0xb4de1d97	-4.1372252e-07
7	0x3d890a41	0.06691409
8	0xb9d02616	-0.00039701228
9	0xbc9f54c6	-0.019449603
10	0x3da45f97	0.08026045
11	0xbd3b28ac	-0.045693085
12	0x3d05b034	0.032638744
13	0x3aa4bca1	0.0012568423
14	0x3be503a6	0.0069889603
15	0x3dd238e1	0.10264755
16	0xba03945a	-0.00050193595
17	0x3d2108ac	0.03931491
18	0xbb0f56ac	-0.0021871729
19	0xb9d138fe	-0.0003990605
20	0x3dd54ba4	0.10414818
21	0xbc940f1f	-0.018073617
22	0x3cd8bb16	0.026456397
23	0x00000000	0.0
24	0xba60b69d	-0.00085721334
25	0xb99c9980	-0.00029869005
26	0xb816da35	-3.5966008e-05
27	0xbd226c94	-0.03965433
28	0xb980d450	-0.00024572248
29	0xb9b5860c	-0.00034622883
30	0xbced734d	-0.028985644
31	0xbd63570b	-0.055502933
32	0x3d6e5b6d	0.05819266
33	0xba397122	-0.0007074048
34	0x3d3e2b66	0.046428107
35	0xba0ae488	-0.0005298336
36	0x3e035f77	0.12829386
37	0x3dd5d570	0.104411006
38	0x3d288f95	0.041152555
39	0xb8cf3069	-9.879546e-05
40	0x3d343b09	0.044001613
41	0x3d5614c3	0.052265894
42	0xbbdfe421	-0.006832615
43	0x3d421211	0.04738051
44	0x3d6fb6d7	0.05852398
45	0x3d407d73	0.046994638
46	0xb9402be1	-0.00018326893
47	0xbb99841d	-0.0046849386
48	0xb9b65438	-0.00034776493
49	0x3d3154f3	0.043293905
50	0xba4f5095	-0.0007908431
51	0x3d0b867e	0.03406381
52	0xba7d87c3	-0.0009671414
53	0x3dcad41c	0.09903738
54	0x3d51afaa	0.051192917
55	0x3d44fff7	0.04809567
56	0x3c92a189	0.017899292
57	0x3d43d2ab	0.04780833
58	0x3daed87f	0.08537387
59	0xb9166b2f	-0.00014345044
60	0x3cecabd0	0.02889052
61	0xb97ed085	-0.00024301007
62	0x38de2f30	0.00010594574
63	0xb4abcf6f	-3.200216e-07
64	0x3c26220c	0.010139953
65	0x3c3f76c4	0.011686031
66	0xbc822515	-0.015886823
67	0x3cbd9542	0.02314246
68	0x3e07d083	0.13263135
69	0x3d63e276	0.05563589
70	0x3a8cf8b8	0.0010755276
71	0xb9ca18b3	-0.00038546845
72	0xba662ab1	-0.0008780165
73	0x3e0912ff	0.13386153
74	0xb88caf18	-6.708334e-05
75	0x3d169980	0.036767483
76	0xbb6498fc	-0.0034881225
77	0xbda6aa7a	-0.081379846
78	0xbb993e43	-0.0046766116
79	0xb905b79b	-0.00012752267
80	0xba53e075	-0.0008082458
81	0xbbb0c54a	-0.0053946124
82	0x3d1f3195	0.038865644
83	0xb86949fc	-5.5620432e-05
84	0xbd9a1483	-0.075234435
85	0xbd5f51ca	-0.05452136
86	0xb2a76eca	-1.949174e-08
87	0x3cd99374	0.026559569
88	0xb98332b5	-0.00025024047
89	0x3dc6a22a	0.09698899
90	0x3df0343f	0.11728715
91	0x3dd582c4	0.10425332
92	0x3dd90f32	0.105986014
93	0xb8e8ac6e	-0.000110947396
94	0xb9862dbb	-0.00025592544
95	0x3e032e7c	0.12810701
96	0x3dea475a	0.114393905
97	0xbbf0fa67	-0.007354069
98	0x3ce0fd60	0.027464569
99	0xb85dfecc	-5.2927804e-05
100	0xb9a02516	-0.0003054521
101	0x3dbefaa9	0.093251534
102	0x3c5f70d9	0.013637745
103	0x3dc083f3	0.09400167
104	0xbd20824f	-0.039186772
105	0xbd9f63a3	-0.07782676
106	0xbb9fa85b	-0.0048723645
107	0xb9017194	-0.0001234471
108	0x3ddb0e05	0.106960334
109	0x3df17995	0.11790768
110	0xbc86c8a5	-0.016453097
111	0x3dca5d33	0.098810576
112	0x3d264a6d	0.04059832
113	0xbd1b97c8	-0.037986547
114	0xb9f7934e	-0.00047221262
115	0xb993c794	-0.00028186722
116	0x3c1e8513	0.009675282
117	0x3c71a96d	0.014749867
118	0xbc7a88ba	-0.015291387
119	0x3df47329	0.119360276
120	0xb8826fa5	-6.2196785e-05
121	0x3cfd7268	0.030938342
122	0x3d883196	0.06650083
123	0xb90c6fcb	-0.00013393087
124	0xb9934f37	-0.00028097045
125	0x3a1ebac3	0.00060550513
126	0x3d55dbb0	0.052211463
127	0x3c24e19a	0.010063553
128	0x3b153815	0.0022769023
129	0x3df87f0a	0.12133606
130	0x3d616869	0.055031214
131	0xb9992816	-0.000292123
132	0xb90a8440	-0.00013209973
133	0xb981872a	-0.00024705502
134	0xba11e5c3	-0.0005565548
135	0xb9a1dd85	-0.00030873358
136	0xbc23ea18	-0.010004543
137	0xb9e0f1fb	-0.000429049
138	0xba08d814	-0.00052201864
139	0xbacca643	-0.0015613515
140	0x3dc3ba27	0.0955699
141	0xb8fe96a2	-0.000121397214
142	0xba65e623	-0.000876995
143	0xb9ee8891	-0.00045496647
144	0x3d016f29	0.03160015
145	0x3c638298	0.013886116
146	0xba47186a	-0.00075948855
147	0xbda5bea6	-0.08093004
148	0xba01513e	-0.00049330655
149	0xb9b8cdaa	-0.00035248447
150	0xb9a26013	-0.0003097063
151	0xb9e8a5b2	-0.0004437394
152	0x3c09100a	0.00836564
153	0xb9277580	-0.00015970133
154	0xbc4c6896	-0.012476107
155	0x3d2d0b15	0.042246897
156	0x3d341003	0.043960582
157	0x36cbd226	6.074336e-06
158	0x3e0ad172	0.1355646
159	0x3d32bc3a	0.043636538
160	0xbd0b0196	-0.03393706
161	0xbdb84498	-0.08997458
162	0x3dae9646	0.08524756
163	0xb9e9fe69	-0.00044630773
164	0xb90dd381	-0.00013525599
165	0xbb78060b	-0.0037845399
166	0xbd032728	-0.032019764
167	0x3c5cf89e	0.013487009
168	0x3cb58a41	0.022160651
169	0xb9b1756f	-0.00033847566
170	0x3d7c14e4	0.06154336
171	0xb94644b0	-0.0001890834
172	0xba9421d0	-0.0011301581
173	0xbda6d824	-0.08146694
174	0x3d085f94	0.033294275
175	0xbd0bd38d	-0.034137297
176	0xb917fe29	-0.00014495164
177	0xbda21f3f	-0.07916116
178	0x3dece53b	0.1156716
179	0xb8b7b846	-8.7604436e-05
180	0x3d7dca71	0.06196064
181	0xbb8b8aaa	-0.0042584734
182	0xb989d59d	-0.0002628983
183	0xba606f77	-0.00085615314
184	0x3d473ba1	0.04864085
185	0x3dc9d56b	0.09855159
186	0x3dab0c67	0.08351975
187	0xb9054ba3	-0.00012712045
188	0x3d369cdd	0.04458319
189	0x3dc941ee	0.09827028
190	0x3dc6eb57	0.09712856
191	0x3dd18f4b	0.10232409
192	0x3ce240b5	0.027618745
193	0x3db7ee56	0.08981006
194	0xba0868d0	-0.00052036066
195	0xb9aac872	-0.0003257427
196	0x3d382839	0.044960234
197	0xbd0a2ad3	-0.033732247
198	0xba599e70	-0.0008301502
199	0x3d109b2f	0.035304245
200	0xbb32bff6	-0.0027275062
201	0x3cf2aa07	0.029622091
202	0xbc874822	-0.016513888
203	0xb9035af2	-0.00012527013
204	0x00000000	0.0
205	0x3cfa0293	0.030518806
206	0xbd0cd2e1	-0.034380797
207	0xba669be5	-0.0008797034
208	0x3d2ea9a5	0.042642254
209	0x3b9eb62e	0.004843495
210	0x3d0dd365	0.03462543
211	0x3d2ef78d	0.04271655
212	0xbc63009b	-0.013855125
213	0xb948de7e	-0.00019156371
214	0xb90f8033	-0.000136853
215	0xb9a12754	-0.00030737615
216	0x39a9a435	0.00032356536
217	0xb80d53c3	-3.369503e-05
218	0xbdd831a0	-0.1055634
219	0xb96e97aa	-0.00022753948
220	0x3d61306e	0.054977827
221	0xbabc02d8	-0.0014344109
222	0x3d4747c5	0.04865243
223	0xbcdead79	-0.027182328
224	0xbcef2da7	-0.029196573
225	0xb90d08a8	-0.00013450033
226	0xbcabe53c	-0.02098333
227	0xba70f578	-0.0009191851
228	0x3ca88629	0.020571785
229	0x3dbeed11	0.093225606
230	0xba64a5d1	-0.00087222183
231	0xbbf647d4	-0.007515887
232	0xb99cb83f	-0.00029891913
233	0xb91ab2c4	-0.0001475318
234	0xb935a046	-0.00017321212
235	0xb9855417	-0.0002543039
236	0x3d59457c	0.05304478
237	0x3c855461	0.016275587
238	0xbc902f25	-0.017600605
239	0xba8c22da	-0.0010691539
240	0xb991b749	-0.00027793113
241	0xbdb50adc	-0.08839962
242	0x3d10cfae	0.03535431
243	0xb9ab0a3d	-0.0003262329
244	0x3dcd465d	0.10023186
245	0xbc860475	-0.016359547
246	0xbda552e8	-0.08072454
247	0xbd99c672	-0.075085536
248	0x00000000	0.0
249	0xba80a395	-0.0009814376
250	0x3cccfa76	0.025021773
251	0x3d0e1777	0.034690347
252	0x3c7276be	0.014798818
253	0xbcf8433f	-0.030305503
254	0xba5ab777	-0.00083433784
255	0x3df65689	0.12028224

steering.weight f4 [1, 600]
0	0x3b7bee43	0.0038441576
1	0x3caf52ef	0.02140185
2	0x3719c887	9.1662e-06
3	0xbdaf39f3	-0.08555975
4	0x3eb3c49a	0.35110933
5	0xba681b0c	-0.0008854128
6	0x3b66b9b3	0.00352059
7	0xbc54a164	-0.012977932
8	0x37db23a8	2.6123438e-05
9	0x3e0064c3	0.12538438
10	0x3d8c8813	0.068618916
11	0xbc4983f6	-0.012299528
12	0x3e0f1f15	0.139767
13	0xbe3df091	-0.185488
14	0xba877843	-0.0010335523
15	0x3d81512a	0.06314309
16	0xb937dad5	-0.00017533761
17	0xbb11ea88	-0.0022265036
18	0xbad15890	-0.0015971828
19	0x37a91c02	2.0159412e-05
20	0x3d147a2f	0.036249336
21	0x3dd9a354	0.106268555
22	0xbd59020a	-0.05298046
23	0xb79d1148	-1.8723906e-05
24	0xba6993c4	-0.00089102634
25	0x38f8c3fb	0.00011862066
26	0x386a88e8	5.591745e-05
27	0xbe3e4c22	-0.1858373
28	0xb9239bee	-0.0001560298
29	0x3928be48	0.00016092614
30	0xbd052d79	-0.03251407
31	0xbd98a75a	-0.07453795
32	0xbc7bd9af	-0.015371724
33	0x3a14467e	0.0005656256
34	0xbd82c575	-0.06385318
35	0x381f2fb5	3.7952985e-05
36	0x3d4f0cc0	0.05054927
37	0x3d118ac1	0.035532717
38	0xbad23666	-0.001603794
39	0x37f6bed1	2.9414341e-05
40	0xbd237057	-0.039902057
41	0xbc5af8a2	-0.013364943
42	0xbc132e87	-0.008983261
43	0x3ac91026	0.0015339896
44	0x3b60a9ad	0.0034280822
45	0xbc244438	-0.01002603
46	0xb8152e9d	-3.556778e-05
47	0xbd8f7b5e	-0.07005952
48	0x37c3014b	2.3246414e-05
49	0xbbefb89e	-0.0073157093
50	0x390f004f	0.00013637658
51	0x3b897f80	0.0041961074
52	0x3a87d225	0.001036231
53	0x3d52b9a8	0.051446587
54	0x3e58dd28	0.21178114
55	0xbbed9e96	-0.007251571
56	0xbac50bce	-0.0015033425
57	0xbbafddb6	-0.005367006
58	0x3d4561c5	0.048188943
59	0x380ebd7c	3.403191e-05
60	0x3bd8f20d	0.0066206516
61	0xb943d692	-0.00018676583
62	0xba2c98d6	-0.00065840536
63	0x384ec183	4.929445e-05
64	0x399da42f	0.000300677
65	0xbbbf2616	-0.0058333976
66	0x3c1c42a0	0.009537369
67	0xbd3a31e4	-0.045457736
68	0x3cbf56d5	0.023356834
69	0xbca26ae6	-0.019826364
70	0x3a8b0be0	0.0010608397
71	0x38fe730e	0.000121330944
72	0xba05a6ec	-0.00050984207
73	0x3cf2ba06	0.029629719
74	0x3952b8b8	0.00020095974
75	0xbd0ecefd	-0.03486537
76	0xba382e17	-0.0007025911
77	0xbe61ee7f	-0.22063635
78	0xba380ee0	-0.00070212595
79	0xb893e2e8	-7.051771e-05
80	0xba516068	-0.0007987083
81	0x3b86f259	0.0041182456
82	0x3c257b0c	0.010100137
83	0x38d938f1	0.000103579725
84	0xbe288d84	-0.16460234
85	0xbd9ddf58	-0.07708615
86	0x3886e0f3	6.431518e-05
87	0xbb1ad1fe	-0.00236237
88	0xb68b094e	-4.143606e-06
89	0xbd3aedf2	-0.04563708
90	0x3d869aac	0.0657247
91	0x3d0dc118	0.034607977
92	0x3d62305a	0.055221893
93	0x38dd2fa0	0.00010546972
94	0x380329df	3.127183e-05
95	0x3d9ef039	0.077606626
96	0x3d24e0bc	0.040253386
97	0xbcf44514	-0.029818095
98	0xbcf656e4	-0.03007073
99	0x3795d97a	1.7863455e-05
100	0x391964a1	0.00014628704
101	0x3d977dd4	0.07397047
102	0xbafe8917	-0.0019419518
103	0xbd295b7f	-0.041347023
104	0xbe0d52e2	-0.13801149
105	0xbe624c5d	-0.22099443
106	0x3ad48cb6	0.0016216252
107	0x38d08543	9.943035e-05
108	0x3c20dadb	0.009817804
109	0xbdb2b05e	-0.087250456
110	0x3d00d7ed	0.031455923
111	0x3d729820	0.05922711
112	0xbce75ebc	-0.028243415
113	0xbe2ff4d4	-0.17183238
114	0xb98bbc51	-0.00026652453
115	0x3803a1ec	3.1383635e-05
116	0x3c926309	0.01786949
117	0xbd807a57	-0.062733345
118	0x3d056872	0.03257031
119	0xba2a3014	-0.00064921496
120	0x38710e8b	5.747242e-05
121	0x3cb864a2	0.022508923
122	0x3c3741cd	0.011185122
123	0xb805e314	-3.1921154e-05
124	0xb9209261	-0.0001531332
125	0x3b29d968	0.0025916938
126	0xbbf818a5	-0.007571297
127	0xbb72663e	-0.003698721
128	0xbcade47f	-0.02122712
129	0x3d9c40ca	0.07629545
130	0x3cb33b50	0.021878868
131	0x3921f447	0.00015445157
132	0x38a9b315	8.0919046e-05
133	0xb8f1895d	-0.000115173614
134	0x38e525ac	0.00010926588
135	0x38854409	6.354607e-05
136	0xbb257849	-0.0025248697
137	0x3902f7c8	0.00012490072
138	0xbd8a9f42	-0.06768657
139	0x3d6c01a4	0.057618752
140	0x3e0878f3	0.13327388
141	0xb849df5a	-4.8130147e-05
142	0x3e9f8b45	0.31160942
143	0x391488f8	0.00014165405
144	0xbc6f81e1	-0.014618368
145	0xbb275c2a	-0.0025537112
146	0x3a5987e7	0.0008298144
147	0xbe516d6e	-0.204519
148	0x392fc768	0.00016763585
149	0x388a75c9	6.602292e-05
150	0x390c35bf	0.00013371462
151	0x383b92b3	4.47209e-05
152	0xbd959d83	-0.073054336
153	0xb8cdbf5e	-9.810807e-05
154	0xbd44f207	-0.048082378
155	0xbda73c15	-0.081657566
156	0x3e109270	0.14118361
157	0xbaada3ca	-0.0013247665
158	0x3ca16bdd	0.019704754
159	0xbc90dc2f	-0.017683117
160	0xbd650186	-0.055909656
161	0xbd895256	-0.067051575
162	0x3df2a3ca	0.118476465
163	0xb7417f2a	-1.1533304e-05
164	0x38c1d6ec	9.2429895e-05
165	0xbb16ad28	-0.0022991393
166	0xbe0d413f	-0.1379442
167	0x3ae80967	0.0017702997
168	0xbbc55dc4	-0.0060231406
169	0xba294b0e	-0.00064580224
170	0x3c7ee145	0.015556638
171	0xb7e0b0e7	-2.6785257e-05
172	0x3a381202	0.00070217263
173	0xbe5e78d6	-0.21725783
174	0x3eb45782	0.35223013
175	0xbbe1b399	-0.006887865
176	0xb7e0d791	-2.6803262e-05
177	0xbe3aae78	-0.18230617
178	0x3c79eb3e	0.01525384
179	0x37d83837	2.5775384e-05
180	0xbb4820a9	-0.0030537045
181	0xb868d1c8	-5.5508484e-05
182	0xb9191719	-0.00014599822
183	0xba4f5cd7	-0.00079102576
184	0xbc20dcba	-0.00981825
185	0xbdb85e0d	-0.09002314
186	0xbb73f002	-0.0037221913
187	0xb8a64c65	-7.9297264e-05
188	0xbb553f1c	-0.0032538837
189	0x3d81e3d5	0.06342284
190	0xbd9c4448	-0.07630211
191	0x3d885ff7	0.06658929
192	0xbbbce450	-0.0057645217
193	0xbc82bb66	-0.0159585
194	0xb95a670e	-0.00020828491
195	0x3778b470	1.4823963e-05
196	0xbbbb0edf	-0.00570856
197	0xbd6d9640	-0.058004618
198	0x3a9138ca	0.0011079547
199	0xbb9bc914	-0.004754195
200	0xbb573aab	-0.0032841365
201	0xbcfb59e5	-0.030682513
202	0x3dcfa1f3	0.10138311
203	0x385382e3	5.0428218e-05
204	0xb95ad01b	-0.00020867625
205	0xbd065c1e	-0.032802694
206	0xbd59c7d1	-0.053169075
207	0x3a86f98e	0.0010297762
208	0xbb9fdace	-0.0048783785
209	0x3d887269	0.06662447
210	0x3b4f4097	0.0031624192
211	0xbb75f0c6	-0.0037527545
212	0xbd536dc1	-0.05161834
213	0x380f8814	3.422059e-05
214	0xb8665989	-5.491966e-05
215	0x39092dae	0.00013082355
216	0xba675db5	-0.0008825914
217	0xb79e3c8b	-1.886326e-05
218	0x3c425b8e	0.011862649
219	0x3948745f	0.00019116838
220	0xbc0387e8	-0.008028008
221	0xbb821a41	-0.003970415
222	0xbc1b3065	-0.009471987
223	0x3b8ece4f	0.00435809
224	0xbd5e59fa	-0.054285027
225	0x388d53c8	6.7390094e-05
226	0xbbf45913	-0.0074569075
227	0x38c0b5f3	9.189164e-05
228	0x3c788eba	0.015170747
229	0x3daad0b1	0.08340586
230	0xba71201c	-0.0009198205
231	0x3bc9ea30	0.0061619505
232	0xb9511b94	-0.00019942067
233	0x390c326b	0.00013370223
234	0xb8b2b6e2	-8.521766e-05
235	0xb7fe9e47	-3.0352863e-05
236	0xbe152b47	-0.1456729
237	0xbcd597ec	-0.026073419
238	0x3bb48030	0.005508445
239	0x3a381acc	0.0007023036
240	0x38367ca3	4.350826e-05
241	0x3b250a6f	0.002518322
242	0x3c53316c	0.012890201
243	0x3944c419	0.00018765069
244	0x3da398f0	0.07988155
245	0x3bcd10c7	0.0062581035
246	0xbe5af21b	-0.21381418
247	0xbd8a283a	-0.06745954
248	0x3923d5e1	0.00015624567
249	0xbb06297f	-0.002047151
250	0xbbc3ede2	-0.0059792856
251	0x3e8d14f0	0.27555037
252	0x3b63a327	0.0034734698
253	0xbd2ffa7d	-0.042963494
254	0xba565bb8	-0.00081771193
255	0x3da9ffc9	0.0830074

acceleration.weight f4 [1, 600]
0	0x3f10dbbd	0.56585294
1	0xbe8ca27b	-0.27467713
2	0x37cc99f1	2.439038e-05
3	0x3dafd211	0.08584989
4	0xbe4f056a	-0.20216909
5	0x3a32289f	0.0006796214
6	0x38ef9dff	0.00011425837
7	0x3f43b97f	0.7645492
8	0x38387507	4.397801e-05
9	0x3d8752ff	0.06607627
10	0xbe781e00	-0.24230194
11	0x3efe29ce	0.4964127
12	0x3debdb57	0.11516445
13	0x3da8baa9	0.082387276
14	0x3e4b5bfd	0.1985931
15	0xbea2eef0	-0.3182292
16	0xb7f7f31c	-2.9557901e-05
17	0x3e48d641	0.19612981
18	0xbc101430	-0.008793876
19	0x38541a7c	5.0569404e-05
20	0xbebc7bcb	-0.36813197
21	0xbb69272c	-0.0035576327
22	0xba9e3884	-0.0012071286
23	0xb88ac755	-6.617481e-05
24	0x3a4ef9e9	0.0007895516
25	0x38ebc5b2	0.00011242497
26	0x3932ba3f	0.00017044785
27	0xbb754bda	-0.0037429244
28	0x3704e4a3	7.921047e-06
29	0xb881f988	-6.197678e-05
30	0x3eec7611	0.46183828
31	0x3ecc4ae6	0.39900893
32	0xbed2dea8	-0.41185498
33	0x3a866ae8	0.0010255249
34	0x3daf1593	0.08549037
35	0xb992f71c	-0.000280314
36	0xbf02b671	-0.51059633
37	0xbea180a6	-0.31543463
38	0x3e48e33b	0.19617932
39	0x3939afb4	0.0001770843
40	0x3d564d26	0.05231967
41	0xbeb94fa7	-0.36193582
42	0xbca57b11	-0.020200284
43	0x3e58783f	0.2113962
44	0x3e71a69c	0.23598713
45	0x3b3c3032	0.002871525
46	0xb8ea456a	-0.00011170919
47	0xbc2429e5	-0.010019754
48	0xb8e7db9d	-0.000110558445
49	0x3e4f91e1	0.20270492
50	0xba4b86b0	-0.00077639055
51	0x3e5585d7	0.20851837
52	0xba18f57f	-0.00058349216
53	0xbea47bac	-0.32125604
54	0x3e31003e	0.17285249
55	0x3e2abd2c	0.16673726
56	0xbdada5ea	-0.08478911
57	0x3e64a42f	0.22328256
58	0xbe18e43a	-0.14930812
59	0xb89d85de	-7.511278e-05
60	0x3e378294	0.17920905
61	0x3b21da4b	0.0024696763
62	0x39b2cbe9	0.0003410273
63	0x38cd974f	9.803345e-05
64	0x3ef87a09	0.48530605
65	0xbe53e46c	-0.20692605
66	0x3e8da557	0.27665207
67	0x3d451c97	0.04812297
68	0xbea02cf6	-0.31284302
69	0xbed21518	-0.41031718
70	0x3f01011c	0.5039232
71	0xb8b7d72b	-8.766198e-05
72	0x39935d9d	0.00028107772
73	0xbe6f1353	-0.23347215
74	0x3921ae77	0.0001541915
75	0x3c9878b1	0.018612238
76	0x3e46a745	0.19399746
77	0x3e6749f6	0.22586808
78	0x3e54a998	0.2076782
79	0xb90443d7	-0.00012613773
80	0x39b721c4	0.00034929637
81	0x3c0cec7b	0.008601303
82	0xbe85b34a	-0.2611335
83	0x38d0f983	9.964688e-05
84	0x3e801685	0.2501718
85	0x3ed91c6e	0.42404503
86	0x38c72766	9.496398e-05
87	0x3eb72aec	0.35774934
88	0x37f921d3	2.9698864e-05
89	0xbf48146b	-0.78156155
90	0xbebeda0c	-0.37275732
91	0xbe95888a	-0.29205734
92	0xbe7a5ffa	-0.24450675
93	0x37d6f1b5	2.5623342e-05
94	0xb8e04ac4	-0.000106950785
95	0xbeb2fcb9	-0.34958437
96	0xbe9178c7	-0.28412458
97	0x3d83937d	0.064246155
98	0xbd9b6db3	-0.07589283
99	0x38e1a2c0	0.000107591506
100	0xb72e7233	-1.0397797e-05
101	0xbe2e0f51	-0.1699803
102	0x3ececcc0	0.40390587
103	0xbeef943c	-0.4679278
104	0x3e16fe23	0.14745383
105	0x3e5f56cf	0.21810459
106	0x3f06622d	0.52493554
107	0x38be8767	9.085127e-05
108	0xbf23d291	-0.63993174
109	0xbf041000	-0.51586914
110	0x3d75f8a1	0.060051564
111	0xbe9f9dc5	-0.31175056
112	0xbe088bb7	-0.13334547
113	0x3d791878	0.06081435
114	0xbaa4c765	-0.0012571631
115	0x38b3535c	8.550912e-05
116	0xbcddb5eb	-0.027064284
117	0xbee963c9	-0.45583943
118	0x3e987a62	0.2978087
119	0xbf160e7e	-0.58615863
120	0xb84efd1e	-4.934996e-05
121	0x3dd5ce99	0.10439796
122	0xbec126c2	-0.37724882
123	0xb892bbbf	-6.996793e-05
124	0xb8ef92f0	-0.00011423777
125	0xbb93c9ab	-0.0045101247
126	0xbebda2e3	-0.37038335
127	0xbdbe7ba0	-0.09300923
128	0xbc715358	-0.014729343
129	0xbeb63817	-0.35589668
130	0xbebf2839	-0.37335375
131	0xb95b98bf	-0.0002094237
132	0x37eb8474	2.8075861e-05
133	0x3922e256	0.0001553384
134	0x3b989eac	0.004657587
135	0xb8c610ea	-9.444526e-05
136	0x3d756100	0.05990696
137	0xb932d73d	-0.00017055585
138	0x3e0116e2	0.12606385
139	0x3dd3b022	0.10336329
140	0x3ede7706	0.43450183
141	0xb7426c96	-1.1588583e-05
142	0xbe1f48a3	-0.15555052
143	0x3951410f	0.0001995603
144	0x3d485c3e	0.048916094
145	0xbdc8e9ef	-0.09810244
146	0x39e7cbcf	0.00044211603
147	0x3e7becf6	0.24602112
148	0xb800173b	-3.0539213e-05
149	0xb91892e1	-0.00014550566
150	0xb5a84254	-1.2536279e-06
151	0x3722604b	9.678372e-06
152	0xbe624bef	-0.22099279
153	0xb52761d5	-6.235471e-07
154	0x3eac8d2e	0.33701462
155	0xbc8af9ce	-0.01696482
156	0x3dd2bc96	0.10289876
157	0xbba04e71	-0.0048921634
158	0xbea0c5e2	-0.31400973
159	0x3d8448cc	0.064591974
160	0x3cf86341	0.030320765
161	0x3ea5d840	0.32391548
162	0xbebaa0a2	-0.36450678
163	0xb90badd4	-0.00013320829
164	0x3823b1d0	3.902783e-05
165	0xbc9ab69e	-0.018885907
166	0xbe0c40a3	-0.13696532
167	0xbe106880	-0.14102364
168	0x3e9e503e	0.30920595
169	0xba82613b	-0.000994719
170	0xbea06529	-0.3132718
171	0xb8627edf	-5.4000757e-05
172	0x384ef76f	4.9344668e-05
173	0x3e6c506d	0.23077555
174	0xbdaa2c4b	-0.083092295
175	0x3ef6ce98	0.48204494
176	0xb5d61f20	-1.5953301e-06
177	0x3e805bde	0.2507009
178	0xbeef01d3	-0.4668108
179	0xb8bd9f36	-9.041878e-05
180	0x3e46539a	0.19367829
181	0x3e5754f6	0.21028504
182	0xb7a20682	-1.9314935e-05
183	0xba264510	-0.00063426886
184	0x3e1f9d99	0.15587462
185	0x3e191ce7	0.14952432
186	0x3e6aa4ae	0.22914383
187	0xb82289cb	-3.875214e-05
188	0x3e6a0c56	0.22856268
189	0xbea296e2	-0.3175574
190	0x3d3f3d20	0.046689153
191	0xbe8504d7	-0.25980255
192	0x3e3e31fe	0.18573758
193	0xbe81cec8	-0.25353074
194	0x377c4b8a	1.5037958e-05
195	0xb90c59e0	-0.00013384921
196	0x3e1eb02b	0.1549689
197	0x3ca4d586	0.020121347
198	0xb9fb5038	-0.00047934218
199	0x3e237bbb	0.15965168
200	0x3e920190	0.28516817
201	0xbd885666	-0.06657104
202	0x3d786ad3	0.06064875
203	0xb8a78fe9	-7.989986e-05
204	0x38337f75	4.279563e-05
205	0xbd88eb8e	-0.066855535
206	0x3d29b293	0.041430067
207	0xba085ce6	-0.0005201831
208	0x3e841a21	0.25801185
209	0xbe4073d1	-0.1879418
210	0x3e51a0a7	0.2047144
211	0x3e426926	0.18985423
212	0xbd42be01	-0.047544483
213	0x38658865	5.4724882e-05
214	0x38fc3f23	0.000120280565
215	0x38b6b51a	8.712169e-05
216	0xbc20ee1f	-0.0098223975
217	0xb8b3c41b	-8.5719126e-05
218	0x3f863584	1.0485082
219	0xb917e8cf	-0.0001448721
220	0xbed5333c	-0.4164065
221	0xbb9c9a14	-0.0047791097
222	0x3e38a2c2	0.18030837
223	0x3f202049	0.62549263
224	0x3c894b7b	0.016759625
225	0x389a0957	7.345032e-05
226	0x3ebb2f2a	0.3655942
227	0xb5d54326	-1.588928e-06
228	0x3e368488	0.17823994
229	0xbe267546	-0.16255674
230	0x3a21b002	0.000616789
231	0x3f0dcb79	0.553886
232	0xb899ad6c	-7.327911e-05
233	0x39092a24	0.00013081037
234	0xb9439859	-0.00018653403
235	0xb849425b	-4.7983933e-05
236	0xbeb0b95c	-0.34516418
237	0x3d12e914	0.035866812
238	0x3f1aa9a9	0.6041513
239	0xb8564ce9	-5.1093204e-05
240	0xb7387f5c	-1.0996908e-05
241	0x3f33cf92	0.702386
242	0xbe2eec47	-0.1708232
243	0xb830fe5f	-4.219857e-05
244	0xbe9b592b	-0.30341467
245	0x3e8e60d0	0.27808237
246	0x3e7272c7	0.23676597
247	0x3e24d239	0.16095819
248	0x39301930	0.00016794051
249	0xbb7c2393	-0.0038473352
250	0x3e4966ab	0.19668071
251	0x3d88aaea	0.06673224
252	0xbdb251c1	-0.087069996
253	0x3cc09e1a	0.023512889
254	0x3a2137b3	0.00061499624
255	0xbeb2c64f	-0.34916922

brake.weight f4 [1, 600]
0	0xbb7c4764	-0.00384947
1	0xbd00f1e3	-0.03148068
2	0xb8459cc2	-4.7114452e-05
3	0x3e82ddf9	0.25559977
4	0xbecdd219	-0.40199354
5	0x3a28b66e	0.00064358755
6	0x3c747c71	0.014922247
7	0xbf66d10f	-0.9016275
8	0x388eccc9	6.809232e-05
9	0xbe20af9a	-0.15691987
10	0x3e0554c5	0.13020618
11	0xbefcc179	-0.49366358
12	0xbe4cce33	-0.20000534
13	0x3d23767b	0.039907914
14	0xbf2ae344	-0.6675303
15	0xbc905ca1	-0.017622294
16	0x399e7bc6	0.00030228327
17	0xbf82963c	-1.0202098
18	0xbc346675	-0.011010756
19	0x38c6c3ec	9.477869e-05
20	0xbe05980c	-0.13046283
21	0xbe3b3d83	-0.18285184
22	0x3dd91794	0.106002
23	0x36f5394e	7.30824e-06
24	0x3a8e02a8	0.0010834532
25	0x3938cccf	0.00017623905
26	0x37e5c1a6	2.7389102e-05
27	0xbe353418	-0.17695653
28	0xb8e0f0fe	-0.00010726041
29	0x38ffc6a8	0.0001219635
30	0xbf818827	-1.0119675
31	0xbf5f3d8c	-0.8720329
32	0x3c4e1238	0.012577586
33	0xba834471	-0.0010014904
34	0x3eb14b13	0.3462759
35	0x37aaad48	2.034627e-05
36	0xbf247c22	-0.6425191
37	0xbe61ea62	-0.22062066
38	0xbf62ff1f	-0.88670534
39	0x380b12d3	3.3157714e-05
40	0x3ba2257b	0.0049483157
41	0xbdb53ef8	-0.08849901
42	0x3d35fd04	0.044430748
43	0xbf6e71e2	-0.9314252
44	0xbf97409f	-1.1816596
45	0x3e113348	0.14179718
46	0x38da3512	0.00010404935
47	0xbe450a59	-0.19242229
48	0xb8ef6e3d	-0.000114169416
49	0xbf6f9c5b	-0.93597955
50	0x39a1d805	0.0003086926
51	0xbf743c8f	-0.95404905
52	0x3931c062	0.00016951704
53	0xbdb46a52	-0.088093415
54	0x3e180ec2	0.1484938
55	0xbf58bfa7	-0.8466744
56	0xbdff84fe	-0.12476538
57	0xbf72ba6c	-0.9481571
58	0xbf78836f	-0.9707555
59	0x39171ed6	0.0001441197
60	0xbf84b4a5	-1.0367628
61	0xbb7ebc3a	-0.0038869516
62	0x39a7d015	0.00032007755
63	0x3907cf04	0.00012951723
64	0xbd4f2158	-0.05056891
65	0x3d6d6e30	0.05796641
66	0x3d455f6f	0.048186716
67	0x3e01c82c	0.12674016
68	0xbf6eb8ee	-0.9325093
69	0xbdf63bf0	-0.12023151
70	0xbd1fcd13	-0.039013933
71	0xb99879f8	-0.00029082573
72	0x39da1aa1	0.0004160004
73	0xbf6bf90b	-0.92176884
74	0xb9579534	-0.0002055958
75	0x3e0a04fa	0.13478461
76	0xbf25edf5	-0.6481622
77	0xbe43d25b	-0.19123213
78	0xbf22ae08	-0.635468
79	0x38d0d9a8	9.9587545e-05
80	0x3a543196	0.0008094547
81	0x3bb38ed6	0.005479674
82	0xbcab930f	-0.020944146
83	0xb92cf1de	-0.00016493301
84	0xbe473ff0	-0.19457984
85	0xbf5a51bf	-0.85280985
86	0xb71ace9f	-9.227223e-06
87	0xbe05d7da	-0.13070622
88	0xb9836f58	-0.00025069225
89	0x3dd5afd1	0.10433925
90	0xbd51ce0f	-0.051221903
91	0xbda2f821	-0.07957483
92	0x3d2f9927	0.042870667
93	0x38e8d03e	0.0001110141
94	0x3886f2ad	6.43482e-05
95	0xbd42ffa2	-0.04760707
96	0xbd27db02	-0.040980347
97	0x3d84712c	0.06466898
98	0xbe98067d	-0.2969245
99	0x389c94f0	7.4664014e-05
100	0x389bb2d0	7.4242824e-05
101	0x3e097511	0.13423564
102	0xbddbc217	-0.10730379
103	0xbe580710	-0.21096444
104	0xbaa2cb0e	-0.0012420134
105	0xbe2eb3f8	-0.1706084
106	0xbced8587	-0.028994335
107	0x384fa1f7	4.9503487e-05
108	0xbe5b24bb	-0.2140073
109	0x3cf335b8	0.029688701
110	0xbe2198eb	-0.1578099
111	0xbe025766	-0.12728652
112	0xbe5ab04f	-0.21356319
113	0xbe603ced	-0.21898241
114	0x3b86da0d	0.004115349
115	0xb8074be5	-3.225719e-05
116	0x3e04f4d9	0.12984027
117	0xbdad9176	-0.0847501
118	0x3d55ddd8	0.05221352
119	0xbdd06475	-0.10175411
120	0x3808a024	3.257407e-05
121	0xbf4e51ef	-0.8059377
122	0xbe04064d	-0.12893029
123	0x39247ff5	0.00015687926
124	0x397abc07	0.00023911904
125	0xbc0d1588	-0.0086110905
126	0xbdd4c07c	-0.10388276
127	0xbe428b31	-0.1899841
128	0xbe8b6249	-0.27223423
129	0xbf505b84	-0.8138964
130	0xbe245dcb	-0.16051404
131	0x389c707d	7.459612e-05
132	0x38fbad22	0.00012000861
133	0xb7ab59bd	-2.0426576e-05
134	0xbb6dae3d	-0.0036267184
135	0x38d8b5f5	0.00010333575
136	0x3de22448	0.11042076
137	0xb8bcbed1	-9.000081e-05
138	0x3ebafb31	0.3651977
139	0xbe3a59c9	-0.18198313
140	0xbf157b7e	-0.5839156
141	0x39679716	0.0002208616
142	0xbf0e4a57	-0.55582184
143	0xb6aca9f8	-5.1457864e-06
144	0x3de148e1	0.11000229
145	0xbe2b9f01	-0.16759874
146	0xba1f2134	-0.00060703163
147	0xbe522843	-0.20523171
148	0x390094ae	0.00012262419
149	0x39010596	0.0001230448
150	0x38e51d53	0.00010925033
151	0x391bf376	0.00014872648
152	0xbe2e6ce6	-0.17033729
153	0x37d9c5f1	2.596059e-05
154	0x3da2e304	0.07953456
155	0x3ec35a00	0.38154602
156	0x3c1d0cde	0.009585587
157	0x3b259abe	0.0025269235
158	0xbf729d6d	-0.9477146
159	0xbf187cd0	-0.5956545
160	0xbeb61369	-0.35561684
161	0x3df45a2f	0.11931264
162	0x3d95df91	0.073180325
163	0x39852154	0.00025392568
164	0xb8aae5a4	-8.1490056e-05
165	0x3b7472ca	0.0037299865
166	0xbe08bdd6	-0.13353667
167	0xbe4b6267	-0.19861756
168	0xbe399ddb	-0.18126623
169	0xba5d0ae0	-0.00084321015
170	0xbe6c031e	-0.23048064
171	0xb7828e99	-1.556361e-05
172	0x391df67a	0.00015064506
173	0xbe4d8781	-0.20071222
174	0xbe6f9f80	-0.23400688
175	0xbf01dce7	-0.50727695
176	0x3909e197	0.00013149377
177	0xbe5bb350	-0.21455121
178	0xbe64a4e4	-0.22328526
179	0x37266299	9.917328e-06
180	0xbf53c987	-0.8272938
181	0xbf2fd924	-0.68690705
182	0xb87b0d8e	-5.9855687e-05
183	0xba6015a6	-0.0008548148
184	0xbf5ad385	-0.85479003
185	0xbf053a49	-0.5204206
186	0xbf7e10df	-0.99244493
187	0x383265dc	4.253337e-05
188	0xbf71d49a	-0.9446503
189	0xbdb0b20e	-0.08627711
190	0xbf010763	-0.50401896
191	0xbb26700b	-0.0025396373
192	0xbe6bed59	-0.2303976
193	0x3abe26cc	0.0014507412
194	0x3908fac9	0.00013063395
195	0x38732561	5.7970527e-05
196	0xbf5d658f	-0.8648309
197	0xbebb00a4	-0.36523926
198	0xba53ad26	-0.00080748124
199	0xbf80deb7	-1.0067967
200	0xbf123832	-0.57117
201	0xbeb23550	-0.348063
202	0xbe3bd210	-0.18341851
203	0x39128b43	0.00013975524
204	0xb8caa9b7	-9.6637224e-05
205	0xbeb309c5	-0.3496839
206	0xbec18161	-0.3779402
207	0xba47a632	-0.00076160126
208	0xbf2cefae	-0.6755322
209	0x3e2c5641	0.16829778
210	0xbf78259c	-0.9693239
211	0xbf771e60	-0.96530724
212	0xbd9cffbb	-0.07665964
213	0x38339341	4.2814067e-05
214	0x38bbfebf	8.964305e-05
215	0xb782f626	-1.561183e-05
216	0x3b73279a	0.0037102462
217	0xb8838308	-6.270973e-05
218	0xbc1ec023	-0.009689364
219	0xb8325974	-4.2521817e-05
220	0xbe1eaa97	-0.15494762
221	0x3b8a894c	0.004227793
222	0xbf46d289	-0.77665
223	0x3d2945e3	0.041326415
224	0x3bd2cb86	0.0064329533
225	0x37284a1f	1.0030838e-05
226	0x3d97a3d0	0.07404292
227	0xb8f40015	-0.00011634842
228	0xbf4705c3	-0.77743167
229	0x3e1d9d8f	0.15392135
230	0x3a36c9d6	0.0006972825
231	0xbc969d97	-0.018385692
232	0xb89d86c9	-7.511449e-05
233	0x384ca5f3	4.8791942e-05
234	0x393cf8d9	0.0001802178
235	0x380af48d	3.312952e-05
236	0x3b623640	0.0034517199
237	0xbe8d68e9	-0.27619103
238	0x3cc5da6a	0.024152
239	0x37fab3eb	2.9886103e-05
240	0x3870475c	5.7286918e-05
241	0x3d0ff4d0	0.03514558
242	0xbdb6d43b	-0.089271985
243	0x3893fc97	7.056555e-05
244	0xbe11eeef	-0.14251302
245	0x3d44ed31	0.048077766
246	0xbe4fa779	-0.2027873
247	0xbe59c35a	-0.21265927
248	0xb724841c	-9.805921e-06
249	0xbbc9bb8c	-0.0061563905
250	0xbe69d8d4	-0.2283662
251	0xbeb6fa0d	-0.3573765
252	0xbe5e28eb	-0.21695296
253	0x3c06a490	0.008217946
254	0x396d50fd	0.00022632252
255	0xbf4f0044	-0.8085978
