GAIL/weights/GAIL_discriminator.pth (torch_old, 765501 bytes, 5 tensors)

fc1.weight f4 [300, 32]
00000000: 71d1 bb3e a9d9 9c3e ce0b 333e 4d68 283e
00000010: 0576 a73d e08a 443d 8500 df3c 1eff 3a3c
00000020: 330a 413c 9c3e 863b ae82 5b39 113e 56bb
00000030: c897 a1bb d5ca c9ba 507f 9b3c 176f 633d
00000040: 5626 ed3d 9c44 673e 3442 743e 38a2 ef3d
00000050: e880 54be acb0 d63b aa0b cd3a 7506 f53c
00000060: 013a 443c cbb2 5a3c 9647 753c 8a5b 3f3c
00000070: 7f07 603d 3159 243a f664 f3bd 63ca 6d3d
00000080: d6d8 ebbd f0aa f73b b926 e9bd 3ba4 4ebd
00000090: 127a 49bd b1bb cdba a608 7d3b 6dd3 243b
000000a0: a4d2 113c 9fb7 1e3c 0289 603c 1985 713c
000000b0: b6ee 663c 667c 763c 38f4 c93c 7592 343d
000000c0: 329b 0a3c 45f8 de3c 207c 873d 104e 6a3e
000000d0: 52aa 7cbd 9a47 8d3d 74a8 01bd 8971 ce3d
000000e0: 2d4d 943b fdff 033c 0d24 e13c 6b6f d53c
000000f0: d290 edbd 1f9e f63d 8946 0f3c 503a 99bd
00000100: bae1 05bc 33de 043e 40db 5c3d 73de c1bb
00000110: d57e 8ebc aeec 55bc 07fe debc 0e3c 13bd
00000120: 4f13 eabc 18bb 01bd 949f d9bc 74e7 e6bc
00000130: cd3d e9bc 4456 6abc ce32 503c a75c 233d
00000140: 0b85 443d 1182 5c3d 78f8 013e 5a70 d43d
00000150: 20ff 0bbd 4518 d23c 3791 69be 6769 143e
00000160: b7bf 313c ce9e a33b afe1 f03a 20c6 8bbb
00000170: f49a 87bd c45e 5fbd 9c7a 81bd 2af4 8dbd
00000180: 02eb 27be afd1 efbc 02e7 07be 4f32 e7bd
00000190: 281b 0bbe fb9c aabd 5eed 95bd 066d 97bd
000001a0: 40bc 96bd 4f0e 9dbd 6755 a9bd c935 a8bd
000001b0: a37d b2bd 4c9f bebd 83e1 d1bd 436a e6bd
000001c0: f4e5 1fbe 0771 44be f49f 54be e117 22be
000001d0: f197 b43d d20d 00bd 2cfa 063e 2ce7 923d
000001e0: 4220 05bd 4f7c 67bd 6b18 aabd dbad bdbd
000001f0: 5b83 4abe 47b8 23bd d630 ecbd 7391 59bd
00000200: c968 6cbe 4252 ddbc 09ab 08bd 815e 11be
00000210: d766 34bd 87ce b8bd 1255 9abd f2cd 81bd
00000220: 1e79 55bd 2256 46bd a3ee 3cbd 967b 32bd
00000230: defd 2bbd 2197 30bd 47bb 50bd 93b5 96bd
00000240: feb1 82bd d6bc aebd 3eae b6bd a300 d6bd
00000250: 2d69 043e 65cb 8cbd 3d23 143d af29 2cbd
00000260: ca60 02be 5010 e0bd 854f 99bc 033e 81bc
00000270: 8814 313d 5e18 9bbc 2983 033d 81d7 e9bd
00000280: 506e 8bbd 9576 c63b caf2 cb3c 7826 803c
00000290: f8a7 283d 8415 9d39 dd1a 8e3b 9a60 603c
000002a0: c910 b43c e459 ae3c a6ed 913c a5fa 933c
000002b0: 9a45 a03c 2368 c03c c2a7 d83c a74c 863c
000002c0: b88a cc3c bfcf ee3b 2d6d c73d aadd a4bb
000002d0: deba 103d 6af2 8ebc 62b6 ba3d 72e2 adbe
000002e0: ae22 bb3b 6fa2 643c 4064 8b3c 038f b53c
000002f0: 3252 163e 14bf ec3c 7da2 f1bc 0871 5f3d
00000300: cae3 8a3d a0c7 debd ac4c 16bd 2c00 20bd
00000310: b0b3 61ba 5995 e33c 40a3 0a3d c4de 0e3d
00000320: a371 ff3c cb0c 063d 1f09 0a3d 2573 153d
00000330: 862a 223d e8cc 323d 6b23 323d 0801 523d
00000340: f928 1d3d 4ae0 033d c157 0abc 1772 eabc
00000350: b54d 6bbd a0af 073d b520 653d 22e2 5b3c
00000360: 0993 81bc 458d 49bc 67b8 f63b 10d0 cb3b
00000370: f58a e6bd 1c1d 66bc cf71 d2bc 7ec5 d5bd
00000380: aaad c53d 3312 95bd 7613 823d 5924 8e3d
00000390: ff73 403b 81d8 fa3b a622 413b d1e4 1f3b
000003a0: 0f59 bbba e3d2 2b3b f6a2 453b c5ce 513b
000003b0: a47a 8f3b 38ee 19bb c72c e6bb 0f14 14bc
000003c0: 6b5d 25bc 9bda 583b a15b 8bbd 1164 023d
000003d0: 1739 d2bc e1c9 51bd 33d2 dfbd 290a 053e
000003e0: 5318 ae3a 6054 b139 cf8b 2abd 2e3b 0dbd
000003f0: 39d8 983d a128 ad3c 7112 6bbc 159e 5dbc
0.3668323 0.30634812 0.17484972 0.16446038 0.08176807 0.047984004 0.027221927 0.011413364
0.011782217 0.004096819 0.0002093415 -0.0032690803 -0.004931424 -0.0015395532 0.018981606 0.055525865
0.115795776 0.22584766 0.2385338 0.11700863 -0.20752299 0.0065518226 0.0015643735 0.029910306
0.01197672 0.013348292 0.014970681 0.011679539 0.05469465 0.0006269394 -0.11884491 0.05805434
-0.115159675 0.007558219 -0.11384339 -0.05044959 -0.04918868 -0.0015696195 0.0038609891 0.0025150434
0.008900318 0.009687333 0.01370454 0.014741206 0.014094999 0.015044307 0.024652585 0.044084985
0.008459853 0.027217994 0.06615472 0.22881341 -0.061685868 0.068984225 -0.03165479 0.10080249
0.0045258016 0.008056638 0.02748301 0.026054105 -0.11599888 0.12041878 0.008744844 -0.07481825
-0.008171493 0.12975387 0.05392003 -0.0059164106 -0.017394463 -0.013056917 -0.027220739 -0.035945944
-0.02857366 -0.031672567 -0.02656535 -0.028186537 -0.028471852 -0.014302794 0.012707425 0.039883282
0.047978442 0.05383498 0.1269244 0.10372992 -0.034178853 0.025646338 -0.22809301 0.14493333
0.010848931 0.004993296 0.0018377806 -0.0042655617 -0.06621352 -0.054533735 -0.06322214 -0.06931336
-0.16398242 -0.02927479 -0.13271716 -0.112888925 -0.13584578 -0.08330723 -0.07320665 -0.073938414
-0.073601246 -0.07668745 -0.08268242 -0.08213384 -0.087153696 -0.09307727 -0.10248091 -0.112507366
-0.15615064 -0.19183742 -0.20764142 -0.15829422 0.08818043 -0.03126318 0.1318137 0.07172999
-0.032501467 -0.056515034 -0.083054386 -0.09261676 -0.1977667 -0.039970662 -0.11532752 -0.053117227
-0.23086847 -0.027016763 -0.033366237 -0.14196207 -0.04404339 -0.09023767 -0.07535757 -0.06338109
-0.05211746 -0.048421986 -0.04612602 -0.043574892 -0.041990153 -0.043112878 -0.05095985 -0.07358851
-0.063816056 -0.08532111 -0.08919953 -0.1044934 0.12930746 -0.06874732 0.03616642 -0.04203194
-0.12732235 -0.10940611 -0.018714676 -0.01577664 0.04323247 -0.018932518 0.032107506 -0.11418057
-0.0680815 0.0060566165 0.024896044 0.015643343 0.041175812 0.00029961404 0.0043366984 0.013694907
0.02198066 0.021283098 0.017813515 0.018063853 0.019564439 0.023487156 0.02644718 0.016393973
0.02496849 0.007287949 0.097376205 -0.005031307 0.03533446 -0.017449576 0.09116818 -0.33961827
0.0057109213 0.013954743 0.017015576 0.02216292 0.14679793 0.028899707 -0.029496426 0.054551154
0.067817286 -0.10877919 -0.036694214 -0.039062664 -0.00086098444 0.027781175 0.033847094 0.034880415
0.031182116 0.032727044 0.033700105 0.036486764 0.039591335 0.043652445 0.04349081 0.051270515
0.038369153 0.03219632 -0.008443774 -0.028618855 -0.057447154 0.033126473 0.055939395 0.0134206135
-0.015817182 -0.012301748 0.0075293067 0.0062198713 -0.11256973 -0.014045026 -0.025689034 -0.10438059
0.096522644 -0.07278862 0.06351368 0.069405265 0.0029366014 0.007655204 0.0029470115 0.002439786
-0.0014293509 0.0026218228 0.0030156947 0.0032014113 0.0043786336 -0.0023487937 -0.007024381 -0.0090379855
-0.010093073 0.0033089283 -0.06804586 0.031833712 -0.025661988 -0.051217917 -0.10928764 0.12992157
0.0013282396 0.00033822935 -0.041637238 -0.034480266 0.07463116 0.021137537 -0.0143476585 -0.013526459

fc1.bias f4 [300]
00000000: 200e 673d 4aed 113d 4968 8b3d 7661 a7bd
00000010: 1ddc 85bd dc9e 833d cd0c f5bc 3545 bd3c
00000020: 6b69 003d 9382 3fbd 6f21 acbd 27e1 b43d
00000030: 0ffb 40bd 956f 73bd c6b4 f03c b704 af3c
00000040: 9397 bc3d 5a11 10bd 3c8a 0fbe 9398 2bbd
00000050: c1e0 df3d 10ae 253d 23f6 dbbc 7929 a5bd
00000060: d770 72bd 4cc8 423d 04fc 043d 8577 f63d
00000070: 8eeb 6b3d 8ec0 3e3d 5a73 f03d c716 36be
00000080: 8626 6fbd 2dd4 6a3d 6850 84bd 461f bc3d
00000090: ab94 d93c ba9e 8e3d c6d9 04be 0a3d 87bd
000000a0: ebf2 d1bb f327 21be d561 f13d 6871 d23c
000000b0: 126f cabd 5e1c 98bc e5a1 dabc 5986 c1bd
000000c0: fd1b 12be 06b2 dbba a1ba 17bc 3569 c53d
000000d0: 9281 b03c 8031 81bd f492 a23c d9bd 8abd
000000e0: 5561 fdbc aa08 86bd 9651 1bbd 0eec 67bd
000000f0: d0b7 a8bd 1d5c babc 7028 003e c36f c73d
00000100: ff98 b6bd 9325 a1bd 2072 b93d f2dd d2bc
00000110: 1a0e bbbc 57e4 873d c03b 9c3c a536 b73d
00000120: e00f 133d 2ecb 3d3d 7c7c 80bd 8c4d a33d
00000130: 024a 28bd 0fd7 473d 59a9 8a3c bd4a 1ebe
00000140: 7e5d a93d 5983 93bd d36f 1fbc d0ff 2a3d
00000150: ef17 4a3d af4c 9ebc 6ccf 0e3e 4a61 1a3b
00000160: 9edf 06bc b4fb d9bd c9c8 d63d 0cb4 a5bd
00000170: 1955 8fbd a0a0 9c3d 6cf2 e1bc 0f41 6d3d
00000180: 02ea aabd add9 acbd 6b40 42bd fb7a 50ba
00000190: 5fbd c83d d2d8 d73c e6be 81bd 4a20 aa3d
000001a0: 7bcb da3d fcff 443d 30df 5dbe 78c2 913d
000001b0: 3880 fdbc 64f8 fdbd d3db 04bd 04c9 213d
000001c0: 27ae b6bd e52e e3bd 8a3a 223c cbcd 34bd
000001d0: 195b 8e3d b48d f8bc bc76 e33d d35e f83a
000001e0: f7a2 06bd dd14 af3d b762 423c 6403 1b3d
000001f0: 7206 26bd acc4 59bd 053d 983d cc03 a6bd
00000200: faee 33bd 512d f53d 705c 423d 10be 5e3d
00000210: 3019 0c3e c728 b5bd a66f 083d 44b0 2e3d
00000220: f0c9 95bd a3db 0fbe afc4 babd 9857 033d
00000230: 16f0 27bd 700e 19bd 9c9c f9bd 8c16 0b3c
00000240: db48 d13c 7c50 263d 87bf 6ebd 595a d2bd
00000250: 3f21 7c3d 79cb 4d3d b9c4 8c3d 650f 693d
00000260: 3d89 523d 385b f8bd e181 123d 2740 8bbd
00000270: d335 1c3d 37e9 c2bc 47fc b3bd 7ed0 a83c
00000280: 370d 4c39 9c06 8cbd e564 903d ea96 4bbd
00000290: f536 983d ea86 30bd 2770 8cbd 5560 c4bd
000002a0: cb6e 923b 053b f23d 63e3 cd3d ee4c 5b3d
000002b0: 6f82 7dbc b2b9 c23c c084 543d 5efb 91bc
000002c0: 48ce c6bc 0f8d f83d b1f7 a43d ee82 18bd
000002d0: 7ea8 64bc 7092 aebc 07cf c63d 8568 5fbd
000002e0: 1c5b 00be 6cf6 343d a7e9 b53c 5d9d c6bc
000002f0: 16b6 9cbc a57c 70bd 65a2 64bd 2e61 243c
00000300: 251d 8ebd 5a69 1d3e 9738 87bd 8056 e8bd
00000310: aae4 96bd 06b2 b9bc 56ec dc3d 6c3e d13c
00000320: 925d 62bd d7a5 00bd 01cb 783d c610 8e3d
00000330: 5f05 093d bd82 793d 8c34 1fbd f455 273d
00000340: 458c 893d 02e2 3c3c 06e4 8bbd 9c67 233d
00000350: c567 a63c 7bc7 62bc 3103 ab3d 0350 033e
00000360: 0cd2 93bd 8291 c53d d5bd e93d 6c31 babc
00000370: 7e17 84bd 7861 34bd a631 eabd d5fd cdbd
00000380: b90d ca3d 254c a7bc 90dd d1bc b944 91bc
00000390: b600 da3c f3b7 fb3d 5994 11bd bcfb a4bd
000003a0: 8531 7a3e 972b 93bd d087 cbba f2df 023c
000003b0: ed4a 8e3d 891d edbd 6404 b73d 6dc2 873d
000003c0: 61f3 83bb 4546 303d 6fdd a33d a8c3 bfbd
000003d0: 98d1 133d 0a30 ab3d 94b7 96bd aea4 9e3d
000003e0: 7acc 1c3e 0006 933d 12e2 f83c fc7c 7cbd
000003f0: 012a 4b3d 4715 0bbc cc6f ed3d 3f38 8cbd
0.056409955 0.035626687 0.06807 -0.08172886 -0.06536124 0.064267844 -0.02991333 0.02310429
0.031350534 -0.046755385 -0.084048145 0.08832007 -0.047114428 -0.059432585 0.029383074 0.021364553
0.09208598 -0.035172798 -0.14017576 -0.041893553 0.1093154 0.040449202 -0.026850766 -0.08064551
-0.059189644 0.0475543 0.032466903 0.12034515 0.05759769 0.046570353 0.117407516 -0.17782126
-0.05838635 0.057331253 -0.06460649 0.091856524 0.026560148 0.069638684 -0.12973699 -0.06603439
-0.006407132 -0.15737896 0.11786238 0.025688842 -0.09884466 -0.018568214 -0.026688525 -0.09449453
-0.14268489 -0.0016761429 -0.009260804 0.09639207 0.021546159 -0.063082695 0.019845463 -0.06774492
-0.0309302 -0.06544621 -0.037919603 -0.056621604 -0.082381845 -0.022749001 0.12515426 0.09738114
-0.089159004 -0.07868495 0.09054971 -0.025740597 -0.022833873 0.06635349 0.01907146 0.089459695
0.03590381 0.046336345 -0.062737435 0.07973775 -0.041086204 0.04878908 0.016926454 -0.15458198
0.08269785 -0.07202787 -0.009731251 0.041747868 0.04933923 -0.019323675 0.13946313 0.0023556524
-0.008232025 -0.10643712 0.104875155 -0.08090982 -0.06998653 0.07647824 -0.027581416 0.057923373
-0.08345415 -0.08439956 -0.047424715 -0.0007952896 0.09801745 0.026348505 -0.06335239 0.0830694
0.10683342 0.04809569 -0.2166717 0.0711717 -0.030944929 -0.124008924 -0.032436203 0.039498344
-0.08919936 -0.11092929 0.009901652 -0.044141572 0.06950969 -0.030341007 0.11106631 0.0018949158
-0.03287026 0.08548901 0.011864356 0.03784503 -0.04053349 -0.053166077 0.074335136 -0.08106193
-0.043929078 0.11971534 0.047451437 0.054380476 0.13681483 -0.08845668 0.0333096 0.04264857
-0.07313907 -0.14048629 -0.09119546 0.032065958 -0.04100045 -0.037367284 -0.12188074 0.008489262
0.025547436 0.0406041 -0.058288123 -0.10271139 0.061555143 0.050242875 0.06873459 0.056899447
0.051400412 -0.121267736 0.035768393 -0.067993455 0.03813727 -0.023792846 -0.087883525 0.02060723
0.00019459879 -0.06837198 0.07050494 -0.04970447 0.07432357 -0.043097414 -0.06857329 -0.095886864
0.004468774 0.11827663 0.10053136 0.053540163 -0.015472992 0.023770187 0.051884413 -0.017820057
-0.024268284 0.1213628 0.08055056 -0.03723424 -0.013956187 -0.021310061 0.09707456 -0.054543037
-0.12534755 0.04418032 0.02220614 -0.024244959 -0.019129794 -0.05871262 -0.055818934 0.010032935
-0.06939153 0.1537222 -0.066025905 -0.113446236 -0.07367833 -0.022667896 0.10787265 0.02554246
-0.055265017 -0.031408157 0.060740475 0.06936793 0.033452388 0.060915697 -0.038868472 0.040853456
0.067162074 0.011528494 -0.068306014 0.03989373 0.020313153 -0.013841505 0.08350218 0.12823491
-0.07217798 0.09646894 0.11413161 -0.022728644 -0.06449793 -0.044038266 -0.11435251 -0.1005818
0.09865899 -0.02042205 -0.025618345 -0.017732965 0.026611667 0.12290945 -0.035541866 -0.08055827
0.24432953 -0.071860485 -0.0015528146 0.007987963 0.06947885 -0.11577899 0.08936384 0.06628881
-0.0040268158 0.043035764 0.080012195 -0.0936349 0.036088556 0.08358772 -0.073592335 0.07746254
0.15312377 0.07178879 0.030381236 -0.061642632 0.049600605 -0.00848896 0.11593589 -0.068466656

fc2.weight f4 [600, 300]
00000000: 4a99 99bc 8aa0 f4bd 1a9d 6ebd 45f9 e93d
00000010: 6c48 3e3d 55b2 1f3e 1003 03bd 5758 c7bd
00000020: bdd3 013c 6deb c5bd 8330 9f3d a66f be3c
00000030: 0795 cb3a 773b 413d 8c8e f13c 6455 50bd
00000040: 1077 7dbd c13f c4bd 74d8 3e3d 4ec4 083e
00000050: 5599 c0bd cf6f 30be 27d1 91bd 000d 163d
00000060: eba9 8bbd 36df cc3d 0491 e2bd c3b2 51bd
00000070: f508 50bd fdfa a9bc 251d 78bd cfb9 823c
00000080: abe0 9d3d bce1 72bd 36a8 e73c c6e8 f83d
00000090: bde0 85bd cbe2 19bd 5038 583d dd66 fe3c
000000a0: c60e a9bc dcfb 813d 368b 7dbd 31ee 523d
000000b0: 067d 45bd 5170 d4bc 92cb 213d 94b7 9dbb
000000c0: 6f8b 163c b38e 36bd 6c13 0b3d 0029 6bbd
000000d0: 10ec 593d ea1e b53d 57b1 a23d 3dcb 73bc
000000e0: 7de7 8cbc 1705 283e baaf 1f3c f61a cdbc
000000f0: c89a 4fbc 8587 eabc fe53 9dbd aa5e 07bc
00000100: 8434 2abd 4220 3e3c a83a 4b3b 0a8a 26bd
00000110: 7d35 593c 4c6c d1bc 2772 f43d 1311 aebc
00000120: e32f f3bd fd58 92bd b6e4 a9bd 09d8 75bd
00000130: eeba b93d 3082 52bd e245 abbd e341 8d3d
00000140: d2cb 2cbc a9ab 993d 32df bcbc faa1 06bc
00000150: 3285 b93c 6d97 c7bd 77ec c3bd 6f78 61bd
00000160: a45a f03d d23f 373c 2fc0 843d 110d ef3d
00000170: e302 9d3b dabf 8abb abd8 48bd 82d6 bebd
00000180: c571 a73b 74d0 163d 3723 793d 0426 953d
00000190: 0314 d83b 2b9e 7e3c ab91 28be 6f2d eabd
000001a0: 16c8 c23d 926e 9bbc df39 3a3d c8fd 6a3d
000001b0: 8d0f 7abc 2941 263c 535a 85bd 068d 8fbd
000001c0: 7e7f 703d 8753 8e3d bf17 8abd 698c 0d3e
000001d0: 5dcb 203e ba40 65bc 45aa c2bd 17e4 a8bd
000001e0: 4948 943d b028 fbbc 8af9 1b3e c0ba 263e
000001f0: f90d 1d3d 7ed1 b83c 7bd3 55bc eedd 8e3d
00000200: f8f2 2a3d d7c9 b5bd 0d98 3fbd e67b 10bd
00000210: bb1d 66bd 9dd3 1b3c 5473 1cbd e308 153d
00000220: 6131 a83d 0558 bc3d 7b55 243d 69f7 d43c
00000230: 86ab 9fbd 46e5 c2bb 7e10 8dbd 7f7a 213e
00000240: 23c0 973c 44ee 17bd a2d9 303d 1c34 babc
00000250: 85fb 0ebd 031c e5bc a14b 56bd f8e7 03bd
00000260: 5d9c 9a3c 3ad0 c63d 9e96 073d 432f 5f3b
00000270: 4484 b2bd 17ce 8d3c 4624 313d a618 de3d
00000280: d0e8 93bd aabf 1b3e 3994 f6bc a5d2 b33c
00000290: 7104 0d3c 891c 7d3d 46f3 23be b368 9bbc
000002a0: a161 7cbd 0a87 57bd 0b58 4e3d 6d5b bcbc
000002b0: 012f e0bd 2f7c ce3d a077 aebd f86f 8abc
000002c0: aec4 e8bc 7aa1 9abd a8fc 3bbd a449 383b
000002d0: 3a72 b5bd 2d99 63bd 1196 88bc ec70 093d
000002e0: f925 a03d 742e 373a 988a 62bd cec9 1f3e
000002f0: 9865 8ebd 0456 57bc 5463 ce3c 8fc0 0e3d
00000300: 19c3 0d3d 5429 55bd f7e2 1c3d f5a1 843d
00000310: 530c f23d 74d5 a53d 1ed4 2f3d 46dd c8bc
00000320: 4f65 133d a885 56bc 3322 d2bd 1ae6 dbbd
00000330: 2d4f d0bd e742 c83c 1a08 91bc 2ca7 2fbe
00000340: 98aa 67bd 0d96 8c3d 7db6 f8bc 4d4d d53c
00000350: f36d 08be 498e c43c f6cd 0dbd 9d32 60bd
00000360: 3df9 033e 3717 603d f7a5 9bbd 9a21 c9bc
00000370: f4e6 92bc 08b4 cebc 9a5c 843d 1d5a 5e3d
00000380: b87b 1abd ed4e d8bd 0126 cfbd 12d0 6ebd
00000390: 78dc a23d 6c71 a3bd e777 903d e52d 113d
000003a0: 63a3 43bd dbf2 083d b0ac 463c c4fe 31be
000003b0: c769 b03d 6c90 813d 57fb 3ebd afb0 2fbd
000003c0: 536b ab3d f4bb 293c 13ba 30bd 17cb 9a3d
000003d0: eb93 1f3c 0342 01bd 48f1 223d c748 08bd
000003e0: 6a2a b0bd e8fd 01bd 76c6 583d 4dbc a53d
000003f0: b584 943d 92f6 babc a3ee ffbc 6fd6 9fbc
-0.018749852 -0.11944683 -0.058255292 0.114244975 0.046455786 0.15595372 -0.031985343 -0.09733646
0.0079240175 -0.096640445 0.07772925 0.023246597 0.0015532085 0.04717585 0.029486917 -0.050862685
-0.061881125 -0.095824726 0.046593145 0.13356134 -0.09404246 -0.17230152 -0.07119971 0.03663349
-0.06819519 0.100035116 -0.11062816 -0.05119587 -0.050789792 -0.020749563 -0.06057467 0.015957741
0.07708868 -0.05929731 0.028278451 0.12153773 -0.06537006 -0.037569802 0.05278808 0.031054908
-0.020636927 0.063468665 -0.06190034 0.05149669 -0.048214935 -0.025932463 0.03950078 -0.004813144
0.009188517 -0.044569682 0.03395407 -0.057412148 0.053203642 0.08843787 0.07943981 -0.014879999
-0.017200226 0.16408192 0.009746486 -0.02503727 -0.01267118 -0.028629074 -0.07682036 -0.008262316
-0.04155399 0.011604371 0.0031010304 -0.040658988 0.0132573815 -0.025564335 0.11935835 -0.021248376
-0.11874368 -0.071458794 -0.08295576 -0.06002048 0.09068857 -0.051393688 -0.083629385 0.068973325
-0.010546641 0.07503445 -0.023055647 -0.008217329 0.02264652 -0.09745679 -0.095665865 -0.055046495
0.11736038 0.01118465 0.064819686 0.11672414 0.004791604 -0.0042342963 -0.049034756 -0.09318258
0.005109998 0.03681989 0.0608246 0.072826415 0.0065941825 0.01554064 -0.16461818 -0.11434447
0.095108196 -0.018973622 0.045465346 0.05737093 -0.015262497 0.010147371 -0.065113686 -0.0700932
0.058715336 0.06949525 -0.067428105 0.13823093 0.15702577 -0.013992483 -0.095051326 -0.0824663
0.0724035 -0.03065905 0.1523191 0.16282177 0.038343403 0.022560831 -0.013050909 0.069759235
0.04173562 -0.088763885 -0.046775866 -0.03527441 -0.056180697 0.009510902 -0.038195923 0.03638543
0.08212543 0.09196476 0.040120583 0.02599688 -0.077963874 -0.0059477417 -0.06887911 0.15769385
0.018524235 -0.037092462 0.0431763 -0.022729926 -0.034907836 -0.027967459 -0.05231822 -0.032203645
0.018873388 0.09707685 0.033102624 0.003405527 -0.08716634 0.017310185 0.043247484 0.10844545
-0.0722214 0.15209833 -0.030099975 0.02195103 0.008607016 0.06179479 -0.1601077 -0.018970823
-0.061616544 -0.052619018 0.050376933 -0.022992814 -0.10946465 0.1008228 -0.085189104 -0.016899094
-0.028414097 -0.075503305 -0.04589525 0.0028120065 -0.088596776 -0.055566 -0.01667312 0.033554956
0.07819743 0.0006987818 -0.055307955 0.15604326 -0.06952971 -0.013143066 0.025193848 0.034851607
0.034609888 -0.052041367 0.038302388 0.06476203 0.11818757 0.080973536 0.0429269 -0.024519574
0.035985287 -0.01309339 -0.10260429 -0.10737248 -0.101713516 0.024445964 -0.017704058 -0.17153615
-0.056559175 0.068645574 -0.030360455 0.026037836 -0.13323192 0.023993628 -0.034620248 -0.05473577
0.12888046 0.05470964 -0.07600015 -0.024552155 -0.017932393 -0.02523233 0.06462975 0.054285157
-0.037715644 -0.10561929 -0.101146705 -0.0583039 0.07952207 -0.07980618 0.070541196 0.03544416
-0.04776324 0.03343473 0.012126133 -0.17382342 0.086139254 0.063263744 -0.046626415 -0.042893108
0.0837008 0.010359753 -0.043146204 0.075582676 0.009739856 -0.031557094 0.039780885 -0.03327253
-0.0860184 -0.031736284 0.052923642 0.08092556 0.07251874 -0.022822652 -0.03124172 -0.01951143

fc2.bias f4 [600]
00000000: 0359 e33c 7e01 893d fb66 f63c 0ea8 463d
00000010: c635 e93c 8731 06bd 32f0 9b3d a701 70bd
00000020: 06cd a53d eb25 3fbe ba58 01be 02ef 363d
00000030: d2c0 6e3d d342 0f3d 7737 473d d58f c43d
00000040: 5096 31be b959 bcbd 6b70 82bb 4463 25bc
00000050: f297 17bd 6bfc b33d f1c6 9cbd f7fb a1bd
00000060: 5220 89bd a384 ea3c 9cc1 f2bd 89c5 9fbd
00000070: f1e8 9cbd 6c90 5bbd 9a70 ac3d 7a51 d63c
00000080: c36b 7c3d 057d 1cbd 553b 60bc 4a5b a2bc
00000090: 594a cebc 3e34 2e3d 2aaf 04bd 1a88 bd3c
000000a0: cdb9 253d 4b63 2abd 3bff 00be 49f4 d63d
000000b0: f2a1 1b3e 6b92 07bd d37a 2dbd a466 f5bc
000000c0: 4197 cb3d 37a9 823d 42ee 683d 72a0 a03d
000000d0: 0ee1 973d 3474 fabb c654 083c 5dbc c6bd
000000e0: fae2 ae3d a19e 21be 9f36 2abd e8e3 963d
000000f0: 8db9 3a3d 16dd 973d c952 9fbd 754e f4bd
00000100: 90f4 5b3d 2b85 383e 1804 d9bc 3a05 29bd
00000110: 6aea 17bd 7a76 573d 73b2 963a f4ae ab3d
00000120: 531f a3bd 4e74 bb3c 6679 613d 8c71 183d
00000130: d12a 1cbc 9849 75bd 416a 963d 090e 2dbe
00000140: f39f b13d beda 12bb 0dab 59bd bb50 333e
00000150: 2287 a13d 7e33 e6bc fa81 a13d 4a20 94bd
00000160: 6b07 043d 610f 103e f00c b0bd 4785 00bd
00000170: 2eba b93d 46b6 59bd c146 cdbc 1de7 0f3e
00000180: ec24 dfbd 6ac2 83bd c49e f93d 72a9 9cbd
00000190: 7b81 03be 8157 fd3d 4fa8 273d 960b 2c3e
000001a0: e66e 99bd 9d0e 023e ee2b 42bd 5b0c fd3c
000001b0: d8fa 30be 4a93 d9bb aea9 13be 1c4c 91bd
000001c0: d170 ac3d e576 0d3c 9a4f 9d3d c2f1 a73d
000001d0: bf52 6b3d 9eca c23d 4962 0c3e 5550 34be
000001e0: a001 ad3d 9b59 d5bd 9e00 12bd 8b4c a93d
000001f0: e351 25be 0a43 963d b273 aebd e648 ed3c
00000200: 37e7 b93d 2182 d83a e82f a2bd bf47 413d
00000210: 5519 fc3d 4e7d 623d d675 e33d 83ce 0bbd
00000220: 482b 933b 9d7c 93bd 206f b73d 2f10 f6bc
00000230: b4dc 13be d0f8 78bc dc50 58bc e608 eebc
00000240: 2ed8 a63d ad30 97bd 3220 a2bd e690 54bd
00000250: 6527 7d3d c3a4 74bd e83e 9b3d 3855 b8bc
00000260: c48b 3e3d 5413 423d 8d49 d33d 15bc e93d
00000270: 1c8d be3c 8e1d bc3d 4e28 6bbd c04c c43d
00000280: c2dc edbc e6da 1c3e 2d2b 9abd e33f 873d
00000290: 4f6c 0b3d 836b 0b3d 35ba 20be 1e77 c0bd
000002a0: aa7b a23d 51a6 813d 704f 253c d451 5e3d
000002b0: 0c09 243d aa95 1b3c c38b ffbc ff85 383d
000002c0: 4317 7bbd a49a 023e cefe b0bd 5b77 003e
000002d0: 9b9d 25bc 9515 4c3b 6da3 353d dca8 69bd
000002e0: 36b4 903d e87b 00be 2a7b b53d a6a6 bbbd
000002f0: b0e7 953d c4d4 0c3d bf3c 36bb c012 89bd
00000300: cdcf cdbd b41c 8dbd 4c6d 60bd 2d8e 11bc
00000310: 0ef1 7f3c 7700 0c3d f000 aebd ff8f 743d
00000320: a915 1e3e 0a49 d9bd 0ec3 ad3d 841a 86bd
00000330: c32f 963d b4f2 1f3e e683 bd3d 2a6d 033d
00000340: b7a2 8b3d e683 28bd 5ba4 27bd 28d9 0d3d
00000350: 69de 643d f591 1f3d c867 2f3d 2efb 9fbd
00000360: d219 be3d 34fa 97bd 3048 25bc 4dd9 f73c
00000370: 85f7 cf39 d6d9 98bd 94e2 64bd 8ea6 a33d
00000380: b7fe a03d 83cc 8dbc fee4 de3d 81ea 653d
00000390: 92c2 e7bd bcf4 32bd 7b31 3d3d 21ec 69bd
000003a0: 0fa8 b03d aa7d 9f3d 79c8 9bbd 5ff2 33bd
000003b0: 0ce2 833d ee12 92bd 3661 8cbd bb22 263d
000003c0: 4097 92bd 8995 943d 8ed6 a1bd bd64 58bc
000003d0: 8749 90bd 0937 dcbc 41b5 cc3d f87b 323e
000003e0: fd7c 2dbc e50a cf3b eae5 13bc d14b 14bc
000003f0: a812 b53d 66fb 56bd c4a5 d9bc d668 aa3d
0.027752405 0.06689738 0.030078402 0.048500113 0.028468024 -0.032762077 0.07614173 -0.058595326
0.08095746 -0.18666808 -0.12631503 0.04466153 0.058289357 0.034975838 0.04863688 0.09597746
-0.17342496 -0.09196801 -0.0039806864 -0.010094468 -0.03701014 0.08788379 -0.076551326 -0.079093866
-0.06695618 0.0286277 -0.11853334 -0.07801349 -0.076616175 -0.05360453 0.084199145 0.026161898
0.061626207 -0.038205165 -0.013686021 -0.01981892 -0.025181936 0.04253029 -0.032393612 0.023136187
0.040460397 -0.0415986 -0.12597363 0.104958124 0.15198496 -0.03309862 -0.042353462 -0.02995617
0.09940959 0.063799314 0.056867845 0.078431025 0.07415973 -0.007643247 0.008320993 -0.09703896
0.08539386 -0.15783168 -0.041555997 0.073676884 0.04558711 0.07415216 -0.07779462 -0.11929027
0.05370003 0.1801955 -0.02649121 -0.04126475 -0.03708879 0.052603222 0.0011497274 0.08382979
-0.07964959 0.022882607 0.055047415 0.03721766 -0.009531693 -0.059884638 0.07344485 -0.16899885
0.08673086 -0.0022408213 -0.053141642 0.17511265 0.07887103 -0.028100725 0.07886119 -0.07232721
0.032233637 0.14068367 -0.08596218 -0.031377103 0.09068714 -0.053152345 -0.025058152 0.14053006
-0.10895714 -0.06433566 0.12188485 -0.07649507 -0.12842362 0.12370206 0.040931996 0.16801295
-0.07491855 0.12700887 -0.047405176 0.03088968 -0.1728319 -0.0066398727 -0.14420196 -0.07094595
0.084199555 0.008634304 0.076811984 0.082004085 0.05745196 0.095113024 0.13709368 -0.17608769
0.084475756 -0.104174815 -0.03564512 0.082665525 -0.16144519 0.073370054 -0.08518161 0.028965425
0.09077304 0.0016518274 -0.07919294 0.047187563 0.12309519 0.05529528 0.1110646 -0.03413249
0.0044912435 -0.072015025 0.08956742 -0.030037014 -0.1443966 -0.01519604 -0.013202872 -0.029056977
0.08146702 -0.07382331 -0.07916297 -0.051896 0.061805148 -0.05972744 0.07580358 -0.022501573
0.04652001 0.047381714 0.10316763 0.11412827 0.023260646 0.091853246 -0.057411484 0.095849514
-0.02903593 0.15317878 -0.075277664 0.06603982 0.034038838 0.034038078 -0.15696032 -0.0939772
0.07933743 0.063305505 0.01008974 0.054277256 0.04004769 0.009496132 -0.031194573 0.045049664
-0.06130148 0.12754303 -0.0864235 0.1254553 -0.010108377 0.0031140794 0.044345308 -0.057045802
0.070656225 -0.12547266 0.08861382 -0.09162645 0.073195815 0.034382597 -0.0027807204 -0.066930294
-0.100494005 -0.0689024 -0.054791734 -0.008883995 0.015621437 0.03418013 -0.084962726 0.059707638
0.1543795 -0.10609634 0.08484469 -0.06548026 0.073333286 0.15619928 0.09253673 0.03208653
0.06818145 -0.041141413 -0.040928226 0.034630924 0.05587617 0.038957555 0.042823583 -0.078115806
0.092822686 -0.07420769 -0.010088012 0.030254984 0.00039666533 -0.07463424 -0.055880144 0.07990752
0.07861083 -0.017309433 0.108835205 0.056131843 -0.11316408 -0.04369043 0.046189766 -0.057109956
0.08625805 0.077876404 -0.076065965 -0.043932315 0.064395994 -0.07132517 -0.06854479 0.040560465
-0.07157755 0.07255084 -0.07902251 -0.013207612 -0.07045274 -0.026881712 0.09995509 0.17430103
-0.010588882 0.0063184374 -0.009026984 -0.009051279 0.08841449 -0.052485846 -0.026568301 0.08320777

fc3.weight f4 [1, 600]
00000000: 9483 47bd 02fa f6ba 658a 083b 3baf 9bb8
00000010: 3a13 7b38 214d 2aba 2dd8 d4bb e91d 8e39
00000020: 6d65 35bd 11bb 7cb7 8045 9c3b 7aea 2639
00000030: a6fa 51ba 3be4 2bb6 e132 60bc 29d1 b63c
00000040: 20a2 d939 3857 36ba 3f79 abbc 6aaf c3bb
00000050: 757a e73a f216 f638 e8dd 8a3a 5582 713a
00000060: e9ca 4339 ddaf 1aba 0678 7d3a 4eaf 0639
00000070: 470b e23b 7500 913a fb45 fd39 93f7 603c
00000080: 60a3 b6ba 9ffa cab9 6d00 50bc 80f0 2e3b
00000090: a575 02bb 2954 553a 833b 413a df67 413c
000000a0: bb5f e039 9518 19b9 b7c8 b9b8 99e0 493c
000000b0: c87e b8b9 8923 9c3b e0b2 5dbc be78 84bb
000000c0: 5e0f d0ba 8735 aaba e610 0f38 f89c ccb8
000000d0: c47b 28bb e5a1 adbc 0c2c d839 1b0f acbb
000000e0: b085 abbb 4930 973b f459 013a 9851 363b
000000f0: 1666 013d 759c 7339 3d3b 283a be46 f0ba
00000100: cc7c a5b9 abd4 e3b9 9034 893b b3a5 12b9
00000110: 9f12 adb9 d449 7bba 14b0 0d3a 56df db39
00000120: 9547 603a 43bf 36bb 8088 86ba aa79 6939
00000130: f50a 2bbd ea89 563a 4504 07bd 3340 0a3a
00000140: 11ed 93b9 d0d5 1abc bba7 fc3a 909a 01ba
00000150: 2d2d c7bb 8c14 81bc c205 9db8 bdb9 ff38
00000160: 5dc4 863c e680 7f39 0ec6 e939 a608 9039
00000170: 18f1 8a39 1573 3b3c de42 e4bb 493e 393c
00000180: 3f36 793a 9149 133a af0a 01ba d9df b93b
00000190: 3ebc 423c 7c0b 163d 4769 a93a dfc0 d4ba
000001a0: 16b5 1b3a 2dd4 30bb 753e 203b e4f5 1a3b
000001b0: d30d ae3a db13 af3b 222d c53b 669e 253b
000001c0: bb11 d33c bb47 3a3c 8204 d6ba 606b 63ba
000001d0: 2fbb 0a37 15ab 9739 d171 ee3c 97a8 dd39
000001e0: c1c2 2b39 37f7 68bb fa33 0c3a bedb 803b
000001f0: 31d5 043a 0e77 9eb9 ab13 83b9 2569 b63c
00000200: af64 3cba 3a2f d9b9 efcd 8e39 539a 20bc
00000210: bcab 17ba 81cd cfb9 6db7 3e3b b2d7 44bc
00000220: 46a6 8b3a aa09 ff39 a688 bdb9 761e 81bb
00000230: f1a1 65bc 2b7b 553b 89e2 38bb 54fb 6eb9
00000240: c63f d4bb 63aa 1839 c3cd 89ba e873 b43c
00000250: 2783 aeba 2bc2 7d3a cc22 583a ef79 86b8
00000260: d254 59b9 d35f f4bb 6967 433d f22b 7eba
00000270: fd96 613b e9ea f539 bd91 3dbb e2c9 deb9
00000280: 4b33 5db9 a553 12bc 9bbb c938 73bd 103b
00000290: 78e5 cf39 ad22 3eba 9d1a 063c 2e2d 8fbb
000002a0: a8b8 4e39 6d3b acba cd0c 713a 70ab 2ebb
000002b0: 29f9 3f3b 9f68 95bb d574 d239 a30e df3a
000002c0: c3ae 863a 9ba0 53bb b269 953b b39e dbb8
000002d0: a3af a8b9 9a94 13ba 6ab6 9939 d4a5 0938
000002e0: 17b4 5fbc 9d9e d1ba 6e57 0db9 17f7 86bc
000002f0: fe54 17b9 8b09 25ba 2bee 09ba 9e46 1739
00000300: a2eb 89bc 45bb 083d 6fdc 9639 ca12 2fbc
00000310: 88ad 13bc a8b4 f63b 8aaf 16b9 dc72 3b3a
00000320: 7b36 2bbb 02d4 76bb 307e bbb9 0632 8c39
00000330: a256 dab9 35f0 353d fdcf cd3c 469e 363b
00000340: b4f7 d8b9 989a 13ba ffdc 003a 1072 03b9
00000350: e95c 88ba 85a2 edba 0a81 98b9 5276 3939
00000360: c881 a43c df8b 153c f694 fdbb 5bee 803b
00000370: 55a3 e6bc c5f5 143a 68ec 8c3c 7449 01b9
00000380: 4aaf cdbb ed2b f739 08d7 c5b9 ecab b8ba
00000390: 2230 a03a 9b0a 293a ca77 fab9 1d63 28bd
000003a0: f6a1 8f39 6bff 7d39 7287 a1bb 2c2e 283a
000003b0: 739c 81ba 0bea 9d39 6999 863a 6599 913a
000003c0: 24d2 8738 f693 623a 5135 c038 4c15 2cba
000003d0: 55e2 ff39 1eee 4e3a ee26 d139 786e 1a3d
000003e0: 7601 d7bc 6ac5 b53c 36e6 21ba 1c3c f5bc
000003f0: ff8d 16b9 0740 813a a120 393a 81bb 9038
-0.048709467 -0.0018842819 0.0020834443 -7.423615e-05 5.986097e-05 -0.00064964785 -0.0064954967 0.00027106635
-0.04428618 -1.5063925e-05 0.0047690272 0.00015918343 -0.0008010067 -2.5613833e-06 -0.0136840055 0.022316532
0.00041510258 -0.00069557456 -0.020931838 -0.0059718387 0.0017660396 0.00011734468 0.0010594698 0.00092128414
0.00018672239 -0.00059008395 0.0009669069 0.00012844542 0.006898317 0.0011062758 0.0004830806 0.013730901
-0.0013934188 -0.0003871517 -0.012695414 0.0026693642 -0.0019906547 0.0008137846 0.00073712337 0.01180455
0.00042795934 -0.00014600375 -8.8588735e-05 0.012321615 -0.00035189674 0.0047649783 -0.013531417 -0.004042714
-0.001587372 -0.0012985923 3.4109595e-05 -9.756716e-05 -0.0025708536 -0.021195361 0.00041231548 -0.005250824
-0.0052344427 0.0046139103 0.00049343635 0.002781963 0.031591497 0.0002323257 0.00064175186 -0.001833163
-0.00031564233 -0.00043455264 0.004187174 -0.00013985373 -0.00033011005 -0.00095858914 0.0005404961 0.00041937333
0.00085555884 -0.0027884997 -0.0010264069 0.00022265935 -0.041758496 0.0008184003 -0.032963056 0.00052738487
-0.00028214653 -0.009450391 0.0019276062 -0.0004943991 -0.0060783834 -0.015756868 -7.487416e-05 0.00012193944
0.016451055 0.00024366713 0.00044588785 0.00027472264 0.0002650104 0.011441012 -0.006965979 0.011306354
0.00095066795 0.0005618567 -0.00049225515 0.0056724367 0.011885701 0.036632046 0.0012925052 -0.0016231796
0.00059397647 -0.0026981935 0.002445129 0.0023645097 0.0013279266 0.005342943 0.006017343 0.0025271415
0.02576529 0.011369641 -0.0016328248 -0.0008675363 8.269023e-06 0.0002892843 0.029107006 0.00042278014
0.00016380382 -0.0035547742 0.0005348321 0.0039324453 0.00050671684 -0.0003022481 -0.0002500092 0.022266934
-0.0007186634 -0.00041424652 0.00027237783 -0.009802419 -0.0005785783 -0.0003963523 0.002910103 -0.012014316
0.0010654412 0.0004864459 -0.000361507 -0.003940399 -0.014015661 0.0032574635 -0.0028211197 -0.00022791076
-0.006477329 0.00014559324 -0.0010513592 0.022027925 -0.0013314233 0.00096801174 0.0008244931 -6.41233e-05
-0.0002072633 -0.007457712 0.04770604 -0.00096958794 0.0034422271 0.00046905063 -0.0028925978 -0.00042493554
-0.0002109531 -0.008931075 9.619371e-05 0.0022085577 0.00039653084 -0.0007253092 0.008185056 -0.0043693995
0.00019714481 -0.0013140269 0.0009195328 -0.0026652478 0.0029292798 -0.004559591 0.00040141368 0.0017017912
0.0010275472 -0.0032291773 0.004559719 -0.00010472294 -0.00032174317 -0.00056297483 0.00029318343 3.2817785e-05
-0.013653777 -0.0015992705 -0.00013479378 -0.016475243 -0.00014432144 -0.00062956725 -0.0005261625 0.00014426789
-0.016835991 0.03338172 0.00028774465 -0.010685632 -0.009013541 0.00752886 -0.00014370508 0.0007150599
-0.0026125002 -0.0037662988 -0.00035761436 0.0002674015 -0.00041644747 0.044418532 0.02512359 0.0027865334
-0.00041383284 -0.0005630641 0.00049157435 -0.00012535625 -0.0010403666 -0.00181301 -0.0002908784 0.00017687053
0.020081416 0.009127586 -0.007738705 0.003934664 -0.028154055 0.00056823745 0.017202571 -0.00012329762
-0.0062769996 0.00047144238 -0.0003773498 -0.0014089323 0.0012221376 0.0006448419 -0.00047772966 -0.041110147
0.00027395756 0.00024223111 -0.0049294764 0.00064155716 -0.0009888544 0.0003011975 0.0010269108 0.0011108337
6.4764434e-05 0.0008643264 9.1652044e-05 -0.0006564453 0.0004880602 0.00078937586 0.0003989259 0.037703007
-0.026245814 0.02218886 -0.00061759667 -0.029935889 -0.00014358012 0.0009861 0.0007062052 6.9013804e-05
