GAIL/weights/GAIL-100_discriminator.pth (torch_old, 765501 bytes, 5 tensors)

fc1.weight f4 [300, 32]
0	0x3d8d48d1	0.06898654
1	0xba01b68e	-0.0004948162
2	0xbe3a342d	-0.18183966
3	0x3dc7d4ff	0.09757423
4	0x3d0742e5	0.03302278
5	0xbc46053b	-0.012086208
6	0x3c170524	0.009217534
7	0x3b1e8378	0.0024187248
8	0x3be0b76e	0.006857804
9	0x3bf038c6	0.0073309867
10	0x3bc900b1	0.0061341156
11	0x3bc74571	0.006081276
12	0xbb1d7051	-0.0024023245
13	0xbc2a361f	-0.01038888
14	0xbcb98058	-0.022644207
15	0xbd14a751	-0.036292378
16	0xbd8d8eff	-0.0691204
17	0x3d4a69e2	0.049417384
18	0xbcd8fd52	-0.02648798
19	0x3e085ecc	0.13317412
20	0xbcb03638	-0.021510229
21	0x3bd57fff	0.0065155025
22	0xbed85d37	-0.42258617
23	0xbf42753a	-0.75960124
24	0x3cf41a52	0.029797707
25	0x3c8912a8	0.016732529
26	0x3c41b2fa	0.0118224565
27	0xbb45daf4	-0.003019032
28	0xbc37d211	-0.011219517
29	0x3d34ff31	0.044188682
30	0x3d1d46aa	0.03839747
31	0x3d511222	0.051042683
32	0x3e673edb	0.22582571
33	0x3dc88f37	0.09792941
34	0x3cab11df	0.020882545
35	0x3eaa3f58	0.33251452
36	0x3e1e6b51	0.15470625
37	0x3db57c7a	0.08861633
38	0x3d506d0a	0.050885238
39	0x3d3f2e58	0.046675056
40	0x3d36bcd5	0.044613678
41	0x3d1e7c2c	0.03869264
42	0x3d0a1460	0.033710837
43	0x3cfb9ef0	0.030715436
44	0x3cf5ba12	0.029995952
45	0x3cf31150	0.029671341
46	0x3d14a3e2	0.036289103
47	0x3caef53a	0.021357168
48	0x3b4ce125	0.0031262126
49	0xbda611ca	-0.08108862
50	0xbc17c16e	-0.009262426
51	0xbd5a9766	-0.05336704
52	0xbd476b56	-0.048686348
53	0x3d4d4618	0.050115675
54	0xbdf32366	-0.11871986
55	0xbeb91fee	-0.36157173
56	0x3d7d4a98	0.061838716
57	0x3d580168	0.052735716
58	0x3d48d537	0.049031463
59	0x3d4b0e67	0.049574282
60	0x3ca71668	0.020396426
61	0x3c169bfe	0.009192465
62	0x3e0b1b62	0.13584664
63	0xbeb0bdd7	-0.34519836
64	0xbe3f262a	-0.18666902
65	0xbdc8d6a1	-0.09806562
66	0xbd0ff1b4	-0.035142615
67	0xbdc6521c	-0.0968363
68	0xbd3221a4	-0.043489113
69	0xbc9e9025	-0.019355843
70	0xbcf95147	-0.030434264
71	0xbcaa61ae	-0.02079853
72	0xbcc28ab7	-0.023747785
73	0xbcee0d6a	-0.02905913
74	0xbd0cd49a	-0.03438244
75	0xbd1df608	-0.03856471
76	0xbd216df3	-0.039411496
77	0xbd2567d5	-0.040382225
78	0xbd64f814	-0.05590065
79	0xbd912473	-0.0708703
80	0xbddc4102	-0.10754587
81	0xbdccd877	-0.10002225
82	0xbc65b3e4	-0.01401994
83	0x3dcbfa6d	0.09959874
84	0x3d61aadd	0.05509459
85	0x3cf851b6	0.0303124
86	0xbe52cc7d	-0.20585819
87	0x3da3f8b9	0.080064245
88	0xbb8cd0fb	-0.0042973734
89	0x3bd6dfca	0.0065574395
90	0x3c669731	0.014074133
91	0x3caa7b07	0.020810617
92	0xbd96d94a	-0.07365663
93	0xbd062d9b	-0.032758337
94	0x3c2fc670	0.0107284635
95	0x3d8cbb3a	0.06871648
96	0xbeaf85bc	-0.3428172
97	0xbdcc38f5	-0.09971801
98	0x3d80dbcc	0.06291923
99	0x3d736344	0.05942084
100	0x3bb0f6d8	0.00540052
101	0x3d39137a	0.04518459
102	0x3ca8f208	0.020623222
103	0x3cefbbc6	0.029264342
104	0x3c6e1269	0.0145307565
105	0x3c35ad08	0.011088617
106	0x3c2991fb	0.010349746
107	0x3bd54de9	0.0065095318
108	0x3c1b5921	0.009481699
109	0x3a469027	0.0007574581
110	0xbc37a2e4	-0.01120827
111	0xbc84ca30	-0.016209692
112	0x3ba679c2	0.0050804326
113	0x3d31ec0a	0.043437995
114	0x3db64d5f	0.08901476
115	0x3e3248de	0.17410609
116	0xbb9418f0	-0.0045195743
117	0x3c3d10d1	0.011539654
118	0x3d641e43	0.055692922
119	0xbdd0c756	-0.1019427
120	0xbb8759bd	-0.0041305707
121	0x3bf49f48	0.007465277
122	0x3c07afa4	0.008281622
123	0x3ca56cd7	0.0201935
124	0x3ce273fb	0.027643194
125	0x3d472ec8	0.0486286
126	0x3d8f7d6b	0.070063435
127	0x3b8410ff	0.0040303464
128	0x3eee25b4	0.4651314
129	0x3df231b2	0.11825885
130	0xbd342606	-0.043981574
131	0xbd9ab637	-0.07554286
132	0xbcd7b315	-0.02633051
133	0xbd6581b8	-0.056031913
134	0xbccfc467	-0.025362207
135	0xbd03f174	-0.03221269
136	0xbc8cdf0e	-0.017196205
137	0xbc591932	-0.013250636
138	0xbc38061a	-0.0112319235
139	0xbbc981cd	-0.0061495067
140	0xbc09ac4e	-0.008402897
141	0x3b0ba0af	0.0021305492
142	0x3c89d590	0.016825467
143	0x3ced6a14	0.028981246
144	0x3cf92d3d	0.03041708
145	0xbc1fc3bf	-0.009751259
146	0xbda27e6d	-0.0793427
147	0xbe22cc41	-0.15898229
148	0x3cf0f8f7	0.02941559
149	0xbcb42b32	-0.021993253
150	0xbc570b81	-0.013125301
151	0x3d10ae68	0.035322577
152	0xba82bb84	-0.0009974097
153	0xbc51102f	-0.012760206
154	0xbc8fef5e	-0.017570194
155	0xbcf044fe	-0.029329773
156	0xbc6cde0f	-0.01445724
157	0xbd3c871b	-0.046027284
158	0xbd990364	-0.0747135
159	0xbc80e3c2	-0.015733603
160	0xbf07b2ff	-0.530075
161	0xbda5a607	-0.08088308
162	0x3df41249	0.1191755
163	0xbc05b120	-0.008159906
164	0xbc0eb4fb	-0.008710141
165	0x3d4a0708	0.04932311
166	0x3cae7716	0.021297019
167	0x3cf9b1d8	0.03048031
168	0x3ca1e208	0.0197611
169	0x3c8a3e97	0.016875548
170	0x3c8d4e83	0.017249351
171	0x3c7ffa2d	0.015623611
172	0x3cbbbeac	0.022918068
173	0x3cb695d3	0.022288239
174	0x3caa86dc	0.02081626
175	0x3cd44a10	0.025914222
176	0x3d0e7610	0.034780562
177	0xbbfe8cca	-0.007768248
178	0x3db6df0c	0.089292616
179	0x3dc0d4a3	0.09415557
180	0x3d74a34f	0.059726056
181	0x3d5ce2c8	0.053927213
182	0x3d9e738e	0.07736884
183	0x3eedb1db	0.46424755
184	0x3c996570	0.018725127
185	0x3d05b401	0.03264237
186	0x3d39351f	0.045216676
187	0x3d6f2691	0.05838639
188	0x3c3aa428	0.011391677
189	0x3d08e6c5	0.033423204
190	0x3d8b4f2c	0.0680221
191	0x3a40e23f	0.0007357932
192	0x3d947c0f	0.07250225
193	0xbd14fa06	-0.036371253
194	0xbe2d2e98	-0.16912305
195	0xbdf082be	-0.11743687
196	0xbddd1d85	-0.10796646
197	0xbd54411e	-0.051819913
198	0xbd83c3a4	-0.064338
199	0xbd2c0c64	-0.042004004
200	0xbd382be8	-0.044963747
201	0xbd458f07	-0.048232105
202	0xbd4cad17	-0.04996976
203	0xbd56a097	-0.052399244
204	0xbd46ccba	-0.048535086
205	0xbd4f7953	-0.050652813
206	0xbd71e0fa	-0.059052445
207	0xbd83750b	-0.064188085
208	0xbd3cc2a4	-0.04608406
209	0xbdad27c2	-0.08454849
210	0xbb70df65	-0.0036754247
211	0x3d21172d	0.039328743
212	0xbbd81bf0	-0.0065951273
213	0xbc1fdd05	-0.009757285
214	0xbcccd228	-0.025002554
215	0x3cb1cfb9	0.021705495
216	0xbd24032e	-0.040042095
217	0xbcc8535b	-0.02445381
218	0xbcc14b0e	-0.02359536
219	0xbc17235f	-0.009224742
220	0xbcc2366c	-0.023707591
221	0xbd0b9e10	-0.034086287
222	0xbc83b84c	-0.01607909
223	0xbe21ef25	-0.15813883
224	0x3d328fca	0.04359416
225	0xbd64585d	-0.055748332
226	0xbe470efa	-0.19439307
227	0xbdfbd105	-0.12295727
228	0xbde1ea5d	-0.110310294
229	0xbd4c4166	-0.049867056
230	0xbd788708	-0.06067565
231	0xbd1b818a	-0.037965335
232	0xbd29d2b5	-0.04146071
233	0xbd37f580	-0.04491186
234	0xbd3f5611	-0.04671294
235	0xbd4a843f	-0.049442526
236	0xbd3a4815	-0.0454789
237	0xbd435d8b	-0.04769663
238	0xbd7080eb	-0.058716696
239	0xbd878417	-0.06616991
240	0xbd57ee22	-0.052717336
241	0xbdb2cd72	-0.08730592
242	0xbcf06d0e	-0.029348876
243	0x3da2dfbe	0.07952832
244	0x3caf1bf8	0.021375641
245	0xbc125fd1	-0.008933977
246	0xbdb7247d	-0.089425065
247	0xbd163d3b	-0.036679488
248	0xbd222abf	-0.039591547
249	0xbcc1ca4e	-0.023656037
250	0xbcc2ad22	-0.023764197
251	0xbc14eb56	-0.009089312
252	0xbcf8f69f	-0.030391036
253	0xbce644b5	-0.028108934
254	0xbaa5d840	-0.0012652948
255	0xbdfda388	-0.12384707

fc1.bias f4 [300]
0	0xbd4b549e	-0.049641244
1	0x3caf0a5e	0.021367248
2	0xbba259de	-0.0049545607
3	0x3d26314f	0.040574368
4	0xbcf5138a	-0.029916544
5	0x3d50a166	0.05093517
6	0x3d284da5	0.041089673
7	0x3d11d09e	0.035599343
8	0xbcb9827b	-0.022645226
9	0x3c99cc30	0.018774122
10	0x3d74288a	0.059608974
11	0x3d62dfc8	0.055389196
12	0x3d6ff2d4	0.05858119
13	0x3d9df544	0.07712796
14	0x3d07623f	0.03305268
15	0xbd43ad2a	-0.047772564
16	0x3b99fb4c	0.0046991464
17	0x3caa3194	0.020775594
18	0xbcb87140	-0.02251494
19	0xbd01b075	-0.031662423
20	0xbd76b030	-0.06022662
21	0xbc9da0f4	-0.019241787
22	0x3cec9500	0.028879642
23	0x3d904917	0.07045191
24	0xbd1f18e8	-0.03884211
25	0xbb5d9400	-0.0033810139
26	0x3ca92cb5	0.0206512
27	0xbc4d8f3b	-0.012546356
28	0xbd1a1eb3	-0.037626933
29	0x3a9a7e24	0.001178686
30	0x3c98f3cf	0.018670944
31	0xbd013a1a	-0.03154955
32	0xbd17b493	-0.037037443
33	0x3c0fc16e	0.008774145
34	0xbd5fb11c	-0.054612264
35	0x3c61d6cc	0.013784122
36	0x3d47162b	0.048605125
37	0xbd33aa40	-0.043863535
38	0xbd552497	-0.052036848
39	0xbc121118	-0.008915208
40	0xbc9212ac	-0.01783117
41	0xbd1a2e71	-0.037641946
42	0x3b78532e	0.0037891376
43	0x3d842b41	0.064535625
44	0xbd31ef81	-0.0434413
45	0xbd7156dd	-0.05892073
46	0x3d3933f5	0.045215566
47	0xbcbe2fe4	-0.023216195
48	0x3d2c655e	0.04208886
49	0x3cf3773a	0.029719938
50	0x3d0d8e2b	0.03455941
51	0x3cd0ac66	0.025472831
52	0xbd5b6b6a	-0.053569235
53	0xbd005bdd	-0.031337608
54	0x3d275723	0.040854584
55	0xbdae5363	-0.085119985
56	0xbd0c6b2a	-0.034281887
57	0x3cf30209	0.029664056
58	0x3ce35764	0.027751632
59	0x3d817cf6	0.063226625
60	0xbcdc8843	-0.026920443
61	0xbcf8d7ec	-0.030376397
62	0xbcc2760a	-0.023737926
63	0x3d17b7ed	0.03704064
64	0x3cb360a3	0.021896666
65	0xbcfbfb59	-0.0307595
66	0xbcbeb723	-0.023280686
67	0x3d87d6e4	0.06632784
68	0x3d771009	0.060318027
69	0x3d6dee94	0.058088854
70	0x3d48731b	0.048937898
71	0xbd47f37d	-0.048816193
72	0x3c4b5410	0.012410179
73	0x3d3bb553	0.04582722
74	0x3cd752e9	0.026284652
75	0xbc50226c	-0.012703519
76	0xbd5e32c6	-0.05424764
77	0xbd37a0c4	-0.044831052
78	0x3d474494	0.048649386
79	0xbcef614e	-0.029221203
80	0x3d0d7b42	0.034541376
81	0x3d4a9413	0.04945762
82	0xbd1acf5d	-0.037795413
83	0x3c85fc5a	0.016355682
84	0xbd53f228	-0.05174461
85	0xbd17e1f1	-0.03708071
86	0xbd3a72d1	-0.045519654
87	0xbd01d045	-0.031692762
88	0xbd15cf20	-0.036574483
89	0x3c803611	0.01565078
90	0xbcea0913	-0.02856878
91	0xbd15c53e	-0.036565058
92	0x38dc8e62	0.00010516938
93	0xbd9026bd	-0.07038639
94	0xbce35256	-0.027749222
95	0x3d8cf9dc	0.068835944
96	0xbd41229c	-0.047152147
97	0x3d0dc534	0.034611896
98	0xbdd048fd	-0.101701714
99	0xbbe7114f	-0.007051624
100	0x3d351e22	0.04421819
101	0xbbcf085c	-0.006318135
102	0x3d748849	0.059700284
103	0xbd94c495	-0.072640575
104	0xbce68118	-0.028137729
105	0x3d5e0452	0.05420334
106	0xbd8198d0	-0.06327975
107	0x3ce09c57	0.027418299
108	0xbcb73b06	-0.022367012
109	0x3d09fd27	0.03368869
110	0xbc1d04d1	-0.009583668
111	0x3cf49be9	0.0298595
112	0xbd6d744c	-0.057972237
113	0x3d3a7514	0.04552181
114	0xbcec5c1e	-0.028852519
115	0xbb7abb82	-0.0038258736
116	0x3cb03dcf	0.021513848
117	0xbcc41c15	-0.023939172
118	0x3d6ef582	0.058339603
119	0xbd01a80f	-0.031654414
120	0x3cc5c74c	0.024142884
121	0xbd252f69	-0.040328417
122	0x3ce14b4b	0.027501723
123	0x3d63f421	0.05565274
124	0xbcd7b585	-0.026331672
125	0xbd8758cc	-0.066087335
126	0x3d00188c	0.03127341
127	0xbd4b483e	-0.049629442
128	0x3d738789	0.05945543
129	0x3d909184	0.07059005
130	0x3d7c55ff	0.06160545
131	0xbd2c0565	-0.041997332
132	0xbccdb805	-0.025112161
133	0xbd251a5d	-0.040308345
134	0x3c9d32a7	0.019189192
135	0x3d365863	0.044517886
136	0x3c8b5997	0.017010493
137	0x3d307f37	0.04309007
138	0xbcb50288	-0.022095934
139	0x3cdbe93b	0.026844611
140	0x3d865a90	0.06560242
141	0x3d2eb7fe	0.042655937
142	0xbd31b11a	-0.043381788
143	0xbd465161	-0.048417453
144	0xbd1c9d0e	-0.038235717
145	0x3d8449f0	0.06459415
146	0xbcb3e5f0	-0.021960229
147	0x3d05d5d5	0.03267463
148	0x3d1a5dd8	0.037687153
149	0x3c92a7a8	0.01790221
150	0x3d39a6ba	0.04532502
151	0x3d30987b	0.043114167
152	0x3cca1694	0.02466897
153	0x3cb877c6	0.02251805
154	0xbcc26a51	-0.023732336
155	0x3ca1b5dd	0.01974004
156	0xbd489ed7	-0.048979606
157	0xbcab7ec2	-0.020934466
158	0xbca69b56	-0.020337742
159	0x3cd86c83	0.02641893
160	0x3cb9f3e0	0.022699296
161	0xbcb520ac	-0.022110306
162	0xbca86c85	-0.020559559
163	0x3d82f5c5	0.06394533
164	0xbd00161b	-0.03127108
165	0x3d0fd905	0.035119075
166	0x3cde0c6f	0.027105538
167	0x3d8a70b4	0.06759778
168	0xbc7093bb	-0.014683659
169	0xbcdb8e58	-0.026801273
170	0xbd2a456d	-0.041570116
171	0xbca4c63f	-0.020114062
172	0x3cd582ec	0.026063405
173	0xbc7c0688	-0.015382417
174	0xbceacbe7	-0.028661681
175	0x3cd20d34	0.025641061
176	0xbce23e1b	-0.027617505
177	0x3c9d7a97	0.019223494
178	0x3d1af14d	0.03782778
179	0xbd2a05a5	-0.04150929
180	0xbc9f754d	-0.019465113
181	0xbd727c77	-0.05920073
182	0x3c91e4b8	0.017809257
183	0x3d1bcc85	0.038036842
184	0xbca7a441	-0.020464065
185	0xbcc09843	-0.023510104
186	0x3daec107	0.08532911
187	0x3d4e01cc	0.050294682
188	0xbcf71470	-0.030161113
189	0xbca4dbfb	-0.020124426
190	0xbca929fe	-0.020649906
191	0xbd242050	-0.040069878
192	0xbcb073c4	-0.021539576
193	0xbd1dfc71	-0.038570825
194	0x3dba4714	0.09095588
195	0x3d8e965c	0.069622725
196	0x3c6bd13a	0.014393145
197	0x3d190c96	0.03736552
198	0x3c9ba604	0.01900006
199	0xbd8f1d6f	-0.06988036
200	0x3dbaa5ad	0.091136314
201	0xbd492586	-0.04910805
202	0xbda992b9	-0.08279938
203	0xbd1c42d3	-0.038149666
204	0x3c9bc5ff	0.01901531
205	0xbcd7ebf7	-0.026357634
206	0x3d830675	0.06397716
207	0xbda7c8d7	-0.08192604
208	0xbd19c9b4	-0.037545875
209	0x3d42395b	0.04741798
210	0xbce63738	-0.028102502
211	0xbcb1a4bb	-0.021684995
212	0x3ce1a90f	0.027546434
213	0xbd297a48	-0.041376382
214	0xbd429c4f	-0.04751235
215	0xbdc32e0b	-0.095302664
216	0x3ceef411	0.029169114
217	0xbca4665e	-0.020068344
218	0xbd154656	-0.03644403
219	0xbcaa3659	-0.020777868
220	0xbd180821	-0.037117127
221	0x3c8b0884	0.016971834
222	0xbdaa2aa9	-0.08308918
223	0xbd38bb1f	-0.045100328
224	0xbd238ece	-0.03993111
225	0x3d5a5d24	0.053311482
226	0x3ada07a3	0.0016634356
227	0xbc5fc485	-0.013657694
228	0xbccc970a	-0.024974365
229	0xbcf7d94f	-0.030254988
230	0x3c3f59c1	0.011679114
231	0xbd52e37b	-0.051486474
232	0xbc8f19b3	-0.017468309
233	0x3ca84090	0.020538598
234	0xbcfa3a5e	-0.03054541
235	0xbcba1ca9	-0.022718744
236	0xbcab5c35	-0.020917991
237	0xbcb0e623	-0.021594113
238	0xbc2ce554	-0.010552723
239	0xbd045fb4	-0.032317832
240	0xbd373bed	-0.044734884
241	0xbca87d35	-0.020567516
242	0x3d1b4368	0.03790608
243	0x3dc9cdd6	0.09853713
244	0x3c9cdc3a	0.019147981
245	0x3d1b7aed	0.037959028
246	0x3c99f718	0.018794581
247	0xbc87baa5	-0.016568491
248	0x3ce729dd	0.028218204
249	0xbcf3d319	-0.029763745
250	0xbcae8400	-0.021303177
251	0x3d031ff8	0.03201291
252	0xbd299383	-0.041400444
253	0x3d494abe	0.049143545
254	0xbcfe7ba0	-0.031064808
255	0xbd718822	-0.058967717

fc2.weight f4 [600, 300]
0	0xbb673d9c	-0.0035284525
1	0x3cebaeb4	0.028769828
2	0x3d0bd0c7	0.034134652
3	0xbca9ecb1	-0.020742746
4	0x3cbb0232	0.022828195
5	0x3a705e33	0.000916931
6	0x3c560566	0.0130628105
7	0x3c4d011b	0.012512471
8	0xbd58770e	-0.052847914
9	0x3d5df2c9	0.054186616
10	0x397295c3	0.00023134709
11	0xbc60cb29	-0.013720312
12	0xbc24a205	-0.010048394
13	0xbc0cdb5b	-0.00859722
14	0x3d1ff355	0.03905042
15	0x3c83fcfb	0.016111841
16	0xbd8befe8	-0.06832868
17	0xbcb564a1	-0.02214271
18	0x3cbe87c1	0.023258092
19	0xbcc011b9	-0.02344595
20	0xbcf7fcb1	-0.03027186
21	0xbd6e27da	-0.058143474
22	0x3ca171cc	0.019707583
23	0xbbe63282	-0.007025064
24	0xbca72453	-0.020403063
25	0x3d0ad871	0.03389782
26	0x3d808215	0.06274811
27	0xbcfe3d65	-0.031035135
28	0x3cb15acb	0.021649739
29	0xbd79768f	-0.060904082
30	0x3d5fb524	0.05461611
31	0x3d5e83ce	0.054324917
32	0x3b48a411	0.003061537
33	0xbd07d727	-0.03316417
34	0xbc99bf85	-0.018768081
35	0x3caf3775	0.021388749
36	0xbc952b50	-0.01820913
37	0xbc42a14c	-0.0118792765
38	0x3c9708f8	0.018436894
39	0x3da1b467	0.07895737
40	0xbd015222	-0.03157247
41	0xbcaeb744	-0.021327622
42	0xbd99d011	-0.07510389
43	0xbc502fc7	-0.0127067035
44	0xbc71f841	-0.014768661
45	0x3c87acd0	0.016561896
46	0x3d125ac8	0.035731107
47	0xbaeecdf4	-0.0018219338
48	0xbbf593a6	-0.0074944077
49	0x3c00b02c	0.007854503
50	0x3cae7afe	0.021298882
51	0xbcac75e3	-0.021052307
52	0xbcf5053a	-0.029909719
53	0xbd56cf8b	-0.052444022
54	0xbc027b3a	-0.00796395
55	0xbcd4150b	-0.02588894
56	0xbc4a5948	-0.012350388
57	0x3cae8af3	0.02130649
58	0x3d23c01a	0.039978124
59	0xbc838f77	-0.01605962
60	0x3c668f2a	0.014072219
61	0xbaac0f3a	-0.0013127096
62	0xbd73970d	-0.059470225
63	0xbcb10656	-0.021609467
64	0x3ceab53c	0.028650872
65	0xbd617a17	-0.055048075
66	0x3cb0a521	0.021563115
67	0xbbf4ab3c	-0.007466702
68	0xbc9b70e1	-0.018974723
69	0x3c4fd85d	0.012685862
70	0x3cf20dac	0.029547535
71	0xbce32204	-0.02772618
72	0x3c81ab44	0.015828736
73	0xbca6fb0a	-0.020383377
74	0x3d28a6ff	0.041174885
75	0xbd6f87be	-0.058479063
76	0x3c948e91	0.018134387
77	0x3ca669c1	0.0203141
78	0xbca46ab0	-0.020070404
79	0x3cb43238	0.021996602
80	0xbc3fcd28	-0.011706628
81	0xbc9bc8c3	-0.01901663
82	0xbca53151	-0.020165117
83	0xbd96516e	-0.0733975
84	0xbb87518d	-0.0041295947
85	0x3cb80548	0.022463456
86	0xbce3166e	-0.027720656
87	0x3ca84c9e	0.020544346
88	0xbb83f23e	-0.0040266803
89	0x3adc9b5f	0.0016830972
90	0xbd3b2e89	-0.045698676
91	0x3cb8e188	0.02256848
92	0x3d0b9ac0	0.034083128
93	0x3c31ffc6	0.010864204
94	0xbd5ace86	-0.053419612
95	0x3cf38da8	0.029730633
96	0x3ca28e99	0.019843386
97	0xbcb9856d	-0.02264663
98	0xbc428562	-0.011872621
99	0xbd0599ba	-0.03261731
100	0x3c5b1561	0.013371796
101	0xbd0b0779	-0.033942673
102	0xbc529ef5	-0.012855281
103	0xbcf17095	-0.029472629
104	0xbcf985af	-0.030459253
105	0x3ceaeda2	0.028677765
106	0x39c7808b	0.0003805201
107	0xbc8634eb	-0.016382655
108	0xbd5be2f5	-0.05368324
109	0x3d1e8d3e	0.038708918
110	0xbd69b366	-0.057055853
111	0x3d1d1393	0.038348746
112	0xbcf8bbb4	-0.030362941
113	0xbc7254ec	-0.014790755
114	0xbd48edc5	-0.04905488
115	0x3ca1ca55	0.0197498
116	0x3d784fc0	0.06062293
117	0x39bd25d3	0.0003607707
118	0x3a429964	0.00074233697
119	0xbc1f12ad	-0.0097090425
120	0x3cabb42c	0.020959936
121	0xbc580558	-0.013184868
122	0x3d6ff462	0.05858267
123	0x3bc71ff4	0.006076807
124	0xbd7d2c99	-0.06181011
125	0xbcacd128	-0.021095827
126	0x3d1bf657	0.038076725
127	0x3c9c27d7	0.019061966
128	0xbcada7f4	-0.02119825
129	0x3cb1aa82	0.02168775
130	0xbc8b779d	-0.01702481
131	0x3ca52e7e	0.02016377
132	0xbb208df8	-0.0024498682
133	0x3cacf61e	0.021113452
134	0x3ca9c40a	0.020723362
135	0x3cf2c54a	0.02963509
136	0x3d066d7f	0.032819267
137	0xbcaa6e3a	-0.020804513
138	0xbd771e9f	-0.060331937
139	0x3cf5e893	0.030018127
140	0xbc7051a8	-0.014667906
141	0xbca726b3	-0.020404195
142	0x3c7eea34	0.015558768
143	0x3ca016bc	0.01954209
144	0xbd6c523c	-0.057695612
145	0xbc775526	-0.015095985
146	0xbcf7365e	-0.030177291
147	0x3d032330	0.03201598
148	0x3d789228	0.06068626
149	0x3d6a06a2	0.05713523
150	0x3c29a3de	0.01035401
151	0xbcd83029	-0.026390152
152	0x3d5a192f	0.053246673
153	0x3c8ad07e	0.01694512
154	0xbbfc5976	-0.0077010943
155	0x3d77882f	0.06043261
156	0xbd1294d0	-0.03578645
157	0x3dad0c57	0.08449619
158	0xbcdfad8a	-0.02730443
159	0xbcb937fd	-0.022609705
160	0x3d37ad4b	0.044843
161	0xbd6355f4	-0.055501893
162	0xbc96aea1	-0.018393816
163	0x3cb0aaca	0.021565814
164	0xbccde190	-0.02513197
165	0x3c7cf842	0.015440049
166	0xbdb3e0df	-0.08783125
167	0xbc772ddb	-0.015086616
168	0xbd1532b2	-0.0364253
169	0xbd17ae1b	-0.037031274
170	0x3d070b86	0.032969974
171	0xbd5ba586	-0.053624652
172	0x3d4f8618	0.05066499
173	0xbd1a5deb	-0.037687223
174	0x3c34589b	0.011007453
175	0x3cb06f1b	0.021537354
176	0xbd383b61	-0.044978503
177	0x3d619ec9	0.05508307
178	0x3c2ca06c	0.010536294
179	0x3d19c5b1	0.03754205
180	0xbd5dedb0	-0.054181755
181	0xb8fe1593	-0.00012115682
182	0x3d5c3088	0.05375722
183	0xb9b6ab3a	-0.0003484132
184	0xbd6f9a49	-0.058496747
185	0xbd53d752	-0.051719017
186	0x3cd2fad4	0.02575437
187	0xbc910a11	-0.017704995
188	0x3cdb6e03	0.026785856
189	0xbd6742cb	-0.056460183
190	0x3b1d4661	0.0023998248
191	0x3cb1941f	0.021677075
192	0xbc384040	-0.011245787
193	0xbd139644	-0.036031976
194	0x3cdd9f59	0.027053522
195	0xbbf47ef1	-0.0074614217
196	0x3d61c993	0.055123877
197	0xbcb806f3	-0.022464251
198	0x3d6090a1	0.05482543
199	0x3c246dc3	0.010035935
200	0x3b367bc2	0.0027844761
201	0x3c72ddf2	0.014823424
202	0x3b823201	0.003973246
203	0xbb72b108	-0.0037031788
204	0x3d596bcf	0.05308133
205	0xbd61d234	-0.055132106
206	0xbc11cd89	-0.008899101
207	0x3ae2b749	0.0017297055
208	0xbc62d690	-0.013845101
209	0xbc9abfe8	-0.018890336
210	0xbc3cd3c7	-0.011525101
211	0x3da879e2	0.08226372
212	0xbc287455	-0.010281642
213	0x3c9e6a04	0.019337662
214	0x3ca73bc9	0.02041425
215	0xbc32d1e5	-0.010914301
216	0x3be325bd	0.006931989
217	0xbd5a75fb	-0.05333517
218	0x3cb3adce	0.021933462
219	0x3cb6ecd2	0.022329722
220	0x3cdd7a3d	0.027035827
221	0x3c77c187	0.015121824
222	0xbce5e80e	-0.028064754
223	0x3ca8f8da	0.020626474
224	0x3cb39575	0.021921853
225	0x3dc38981	0.09547711
226	0x3c9e3aa4	0.019315071
227	0xbb4bd122	-0.0031099995
228	0xbd07205c	-0.032989845
229	0xbc4075b9	-0.011746817
230	0x3c473ee2	0.0121609885
231	0xbcf8f3d5	-0.030389706
232	0x3ca887b6	0.020572525
233	0xbca4d0d0	-0.0201191
234	0xbd2217e4	-0.039573565
235	0x3c95f986	0.018307459
236	0x3cb34151	0.021881731
237	0xbcbc1228	-0.022957876
238	0xbc81dc7f	-0.015852211
239	0xbd2684e0	-0.040654063
240	0x3ca67bd6	0.020322721
241	0xbcab20f6	-0.02088974
242	0xbafc043c	-0.0019227336
243	0x3c7d358c	0.015454661
244	0x3d783d8b	0.060605567
245	0x3b8b280e	0.0042467183
246	0x3d5a5dca	0.0533121
247	0xbd5cac21	-0.053875092
248	0x3d4d615f	0.05014169
249	0x3cbb13eb	0.022836646
250	0xbd5b0a01	-0.053476337
251	0x3ca81fc4	0.02052296
252	0x3cae8b14	0.021306552
253	0x3c7ce3bc	0.0154351555
254	0xbd0cc3a6	-0.034366272
255	0xbc29890f	-0.010347619

fc2.bias f4 [600]
0	0xbbc8ec02	-0.00613165
1	0xbd367fea	-0.044555582
2	0x3bfc3a8c	0.007697409
3	0x3bcd88b7	0.006272401
4	0xbd3b2a3d	-0.04569458
5	0x3b6f1966	0.0036483645
6	0x3d3bb155	0.045823414
7	0x3de8e6d9	0.11372156
8	0xbc9494e8	-0.01813741
9	0x3cd0d0bf	0.025490163
10	0xbd6c897f	-0.057748314
11	0x3ca015d3	0.019541657
12	0xbba5ab69	-0.005055834
13	0x3ddb3665	0.10703734
14	0xbc34a23c	-0.011025008
15	0xbd7e8adf	-0.062144157
16	0xbd39d36c	-0.045367643
17	0x3c2a84cf	0.010407641
18	0xbcd84e8c	-0.026404642
19	0x3cad8f6b	0.021186551
20	0x3ca65047	0.020301951
21	0x3cf895ed	0.030344928
22	0xbcadc8e1	-0.02121395
23	0x3cdbb0bf	0.026817678
24	0x3cbead3c	0.023275964
25	0xbb98089e	-0.004639699
26	0x3d46fa28	0.04857841
27	0x3cb6c51c	0.022310786
28	0x3c915479	0.017740475
29	0xbc9591c5	-0.018257985
30	0x3d0285d0	0.031865895
31	0x3bd60e1e	0.0065324446
32	0x3cc45c6d	0.023969853
33	0xbc43c583	-0.011948946
34	0x3cdefa2e	0.027218904
35	0xbcfc09eb	-0.030766448
36	0x3ca799de	0.020459112
37	0x3b6e431e	0.0036355923
38	0xbcf156be	-0.029460307
39	0x3ae7954b	0.0017668394
40	0x3c8f973b	0.017528167
41	0x3d9b3de4	0.07580164
42	0x3ce6b27e	0.028161284
43	0x3d7eb981	0.06218863
44	0xbbc212ca	-0.00592265
45	0xbb3af60d	-0.0028528005
46	0xbcdcc2a1	-0.026948275
47	0x3cd075de	0.025446828
48	0x3ced0f5c	0.028937988
49	0xbd306bf3	-0.0430717
50	0x3d56c4c1	0.052433733
51	0x3d321c96	0.043484293
52	0xbcde2c9e	-0.027120885
53	0xbd87102c	-0.065948814
54	0x3c03d428	0.008046187
55	0xbcb6c169	-0.022309022
56	0xbcc52bab	-0.024068674
57	0x3d65d074	0.056107
58	0xbca7f8d3	-0.02050439
59	0xbdbf9298	-0.093541324
60	0x3b868885	0.00410563
61	0xbb926ad3	-0.004468301
62	0xbd3e023b	-0.046388846
63	0xbd019e36	-0.031645022
64	0x3beeeb1a	0.00729121
65	0xbc5c77e0	-0.013456315
66	0xbc9eee47	-0.019400729
67	0x3d35695a	0.044289924
68	0x3d22edee	0.03977769
69	0x3c9bfb45	0.019040713
70	0x3d3e2b4c	0.04642801
71	0xbb66b57b	-0.0035203386
72	0x3b7320d4	0.0037098425
73	0xbcb9acf1	-0.022665473
74	0xbcfcf443	-0.030878192
75	0x3bbe4889	0.0058069867
76	0xbc8303e6	-0.01599307
77	0xbbb7d7fc	-0.005610464
78	0x3c009a1b	0.007849242
79	0xbcbd4c00	-0.023107529
80	0x3b59e4f7	0.0033248046
81	0xbc328818	-0.010896705
82	0xbcaf315a	-0.021385837
83	0xbc8d7d8b	-0.017271778
84	0xbc8208bd	-0.015873307
85	0x3d084b06	0.033274673
86	0x3d3bec58	0.04587969
87	0x3d0c5431	0.03425998
88	0x3c9125e7	0.017718269
89	0x3d806b3b	0.062704526
90	0x3cc534d5	0.024073044
91	0x3c80baa7	0.015714003
92	0xbd2c4d32	-0.042065807
93	0x3d052e47	0.032514837
94	0x3bce8cb2	0.0063033933
95	0xbca1fe73	-0.019774651
96	0xbb2e5b88	-0.002660485
97	0x3d39472f	0.0452339
98	0x3ce17143	0.027519828
99	0x3c22d8a7	0.009939349
100	0xbb5f73cc	-0.003409612
101	0xbd2d9b34	-0.04238434
102	0x3cc01129	0.023445683
103	0xbca6980e	-0.020336177
104	0x3cae73bd	0.021295423
105	0xbc891420	-0.01673323
106	0x3d792b68	0.06083241
107	0x3811b823	3.4742185e-05
108	0xbc368db1	-0.01114218
109	0xbe004a46	-0.12528333
110	0x39876454	0.00025823957
111	0x3cc32242	0.023820046
112	0x3aac739e	0.0013157015
113	0xbb42a19b	-0.0029698375
114	0x3d3776fe	0.044791214
115	0x3debe7ab	0.115187965
116	0xbd809dcb	-0.062800966
117	0x3a0295fc	0.0004981456
118	0xbd1730f9	-0.03691194
119	0x3ce213cd	0.027597332
120	0x3c51bdf0	0.012801632
121	0x3d6c46a8	0.05768457
122	0xbbd46ac9	-0.0064824563
123	0x3d10ef04	0.035384193
124	0xbd6c55be	-0.057698958
125	0x3bf4aeab	0.007467111
126	0x3ce6bf10	0.028167278
127	0x3bc31319	0.0059532044
128	0xbcef93c0	-0.029245257
129	0xbb85e382	-0.004085959
130	0xbccf6f1d	-0.025321538
131	0xbcbc0014	-0.022949256
132	0x3cba063b	0.022708049
133	0x3cb73f85	0.022369156
134	0x3c938bc0	0.018010974
135	0xbc86fe83	-0.016478783
136	0xbb859948	-0.0040771104
137	0xbc004aec	-0.007830363
138	0xbcac1c8c	-0.021009706
139	0x3cd693c8	0.026193514
140	0x3c766f6f	0.015041216
141	0xbd009c4d	-0.03139906
142	0x3bc61cf1	0.0060459306
143	0x3cc131ae	0.02358326
144	0xbd0b2735	-0.033972938
145	0x3c72fbf7	0.014830581
146	0x3ccecd29	0.025244312
147	0x3c07a0b5	0.008278062
148	0x3d09636c	0.03354208
149	0xbb92ebbf	-0.0044836695
150	0x3d0a6b9f	0.03379404
151	0xbbd6515e	-0.0065404614
152	0xbd2432b4	-0.040087417
153	0x3c724abe	0.014788328
154	0x3d0b2db4	0.033979133
155	0x3d0c1e0f	0.034208354
156	0x3a7571d9	0.0009362973
157	0x3cb6dbe9	0.022321658
158	0x3d21cf80	0.039504528
159	0x3bded54e	0.0068003302
160	0xbd683493	-0.056690764
161	0xbd05fdc6	-0.03271272
162	0xbcabed7c	-0.020987265
163	0x3a7fdac9	0.00097600796
164	0xbcb325e8	-0.021868661
165	0xbb0a9b49	-0.0021149686
166	0x3dba17e9	0.09086592
167	0xbc37fc0a	-0.011229524
168	0xb803e8ad	-3.144953e-05
169	0x3d49fd36	0.049313746
170	0x3cd574f6	0.026056748
171	0x3cdf768b	0.027278205
172	0xbc4b8773	-0.01242243
173	0x3cf9a068	0.030471995
174	0xbd139450	-0.036030114
175	0xbdf5e789	-0.120070525
176	0x3b86b465	0.00411086
177	0xbd20d170	-0.039262235
178	0x3ca08cd6	0.019598406
179	0xbce2e403	-0.027696615
180	0xbcdb990e	-0.02680638
181	0xbcf67b03	-0.030087953
182	0x3c66d867	0.01408968
183	0x3c7d3e65	0.015456771
184	0xbb4c9757	-0.0031218135
185	0x3cc68f97	0.02423839
186	0xbcbe4934	-0.023228265
187	0x3cae07b2	0.021243904
188	0x3bc2fc1b	0.0059504635
189	0xbbb68eff	-0.0055712457
190	0xbcfe5926	-0.031048369
191	0x3d157561	0.036488894
192	0xbd441527	-0.047871735
193	0x3d6eee06	0.058332466
194	0xbd0d37e3	-0.034477126
195	0xbd3554c9	-0.04427031
196	0x3aa9c28a	0.0012951654
197	0xbac16c30	-0.0014756974
198	0xbd11ebfb	-0.03562544
199	0x3c14dd09	0.009085902
200	0xbc35299e	-0.011057286
201	0xbcd8a359	-0.026445078
202	0x3c0a0e4e	0.008426262
203	0xbcadb9c1	-0.021206738
204	0x3cc645c1	0.024203183
205	0x3cdca448	0.026933804
206	0x3cba9787	0.022777332
207	0x3c8879ea	0.016659696
208	0xbd7b5504	-0.061360374
209	0x3d041105	0.032242794
210	0x3caf7444	0.021417744
211	0x3cf0f614	0.029414214
212	0x3d7ff04b	0.06248502
213	0xbc056a55	-0.008143027
214	0xbd4d732d	-0.05015867
215	0xbcff33f2	-0.0311527
216	0xbd77efc0	-0.060531378
217	0xbca9e0c9	-0.020737069
218	0xbc53b780	-0.012922168
219	0x3da782ec	0.08179268
220	0xbc84a4aa	-0.0161918
221	0xbd33c0fe	-0.043885224
222	0xbcb3a187	-0.021927608
223	0x3cf69638	0.030100927
224	0x3d3d262c	0.04617898
225	0x3d41b059	0.04728732
226	0xbd0a0d52	-0.03370411
227	0xbc586f0e	-0.013210071
228	0xbd41e562	-0.047337897
229	0x3bac756c	0.005263021
230	0x3cd63a97	0.026150985
231	0xbbd2c9b2	-0.0064327354
232	0xbd372dc7	-0.04472139
233	0x3d5fa427	0.054599907
234	0x3a37bc96	0.00070089975
235	0xbc8e23e9	-0.017351108
236	0x3d1c7ed7	0.0382069
237	0x3d37ded4	0.04489024
238	0xbb1bcb60	-0.0023772344
239	0xbbe70627	-0.007050294
240	0x3cac3ab5	0.021024087
241	0x39adce53	0.00033150855
242	0xbc79a522	-0.015237125
243	0xbd3928b9	-0.04520485
244	0x3ce45407	0.027872099
245	0xbc7c2d2a	-0.015391627
246	0xbcfaad56	-0.030600231
247	0xbd31bf77	-0.043395486
248	0xbaea32a4	-0.0017867875
249	0xba2a0776	-0.0006486097
250	0x3cce8c21	0.025213303
251	0xbb650e09	-0.0034950993
252	0xbc82c701	-0.015964033
253	0x3ccff8cc	0.02538719
254	0x3d801638	0.06254238
255	0xbc706101	-0.014671565

fc3.weight f4 [1, 600]
0	0x3c323375	0.010876526
1	0x39c005c9	0.00036625404
2	0x3a61f3ad	0.00086193794
3	0xbb725779	-0.0036978407
4	0x3a904951	0.0011008178
5	0xbdf5dcb2	-0.12004985
6	0xbad910aa	-0.0016560752
7	0xbd2da24a	-0.0423911
8	0x3c8328e2	0.016010705
9	0xbbfa86f4	-0.007645482
10	0x3d0f9409	0.035053287
11	0xbb50c58b	-0.0031856026
12	0xbc9d1f18	-0.019179866
13	0xbd49a025	-0.04922499
14	0xbcaae8b0	-0.020862907
15	0x3d3112a0	0.043230653
16	0x3adec979	0.0016997299
17	0x3a506fe0	0.0007951241
18	0x3d3c77d2	0.046012707
19	0xbb66f3e4	-0.0035240585
20	0xbba38121	-0.0049897586
21	0x3d0a9dcf	0.033841904
22	0x3b4aefa7	0.0030965598
23	0x3ce8a3d8	0.02839844
24	0xbcf98dcd	-0.030463124
25	0x3d00cd6b	0.0314459
26	0x3c9e7ddb	0.019347122
27	0xbc5057b7	-0.012716225
28	0xbad7104b	-0.0016408054
29	0x3baa2d34	0.005193377
30	0xbb87aaf5	-0.0041402527
31	0xbb81f40d	-0.0039658607
32	0xbc4e2b58	-0.012583576
33	0x3c2ebace	0.010664655
34	0xbc2cc761	-0.0105455825
35	0xbce78149	-0.02825989
36	0xba4209b7	-0.00074019603
37	0xbc4ebbd5	-0.012618025
38	0xbd0747ce	-0.033027463
39	0x3c878d7f	0.016546963
40	0x39dab947	0.00041718243
41	0xb90611d3	-0.00012785876
42	0xbcea0b45	-0.028569827
43	0xbd2ba5c3	-0.04190613
44	0x3df83b52	0.121206895
45	0x3b44a916	0.003000801
46	0xbce81116	-0.02832846
47	0xbbe8f600	-0.0071094036
48	0xbce3f4fb	-0.027826777
49	0xbd0f36e1	-0.034964446
50	0xb9d4f2f6	-0.0004061681
51	0xbc8d8b90	-0.017278463
52	0xbcf3d37e	-0.029763933
53	0x3d488a6b	0.04896013
54	0xbc540f37	-0.012943081
55	0x3b08f69a	0.002089894
56	0x3c34f12c	0.011043828
57	0xbcf3aa99	-0.029744433
58	0x3a575681	0.0008214489
59	0x3d471197	0.04860076
60	0x3c99f7af	0.018794863
61	0x3dee30cf	0.11630403
62	0xbc58bac9	-0.013228127
63	0x3b831f6f	0.00400155
64	0xbc4a1db4	-0.012336183
65	0x38c1b5b1	9.2368e-05
66	0xbd05e282	-0.032686718
67	0x3a581890	0.0008243406
68	0xba8a9230	-0.0010572132
69	0xbb4283ef	-0.002968069
70	0xbad24c2c	-0.001604443
71	0xbc90b5d2	-0.017664824
72	0x3d0c7e02	0.034299858
73	0x3a108865	0.00055134884
74	0x3cfc5833	0.030803775
75	0x3c9e1a75	0.019299725
76	0x3b262e50	0.0025357194
77	0xbce6c215	-0.028168717
78	0xbc375bc5	-0.011191313
79	0x3935acc3	0.00017325864
80	0xbc43f36f	-0.011959895
81	0x3b96c3e1	0.0046009873
82	0xb92ce969	-0.0001649015
83	0x3b54f7f5	0.0032496427
84	0x3c0fb248	0.008770533
85	0xb99688b6	-0.00028712087
86	0xbad6a6ef	-0.0016376654
87	0x3cdf6e9e	0.027274426
88	0x391c67f3	0.00014916043
89	0xbd2c5d81	-0.04208136
90	0xbb2913aa	-0.0025799074
91	0xbbdc7831	-0.006728195
92	0x3ab18297	0.0013542947
93	0x3ce879a5	0.028378317
94	0xbc0d86ae	-0.008638067
95	0x3bc4dd9f	0.0060078646
96	0x3c1545b0	0.009110853
97	0xbad72237	-0.0016413395
98	0xbcc9ff0d	-0.02465775
99	0xbbedf7b3	-0.007262194
100	0xbd0e4079	-0.034729455
101	0xb9fa82b3	-0.00047781094
102	0xbac59792	-0.0015075079
103	0x3a35c29c	0.0006933601
104	0x3d15013d	0.036378134
105	0x3b966ab7	0.004590358
106	0xbd42fc1b	-0.047603708
107	0x39873e7d	0.00025795764
108	0x3d05ac5f	0.03263509
109	0x3d018954	0.031625107
110	0xbc752af3	-0.014963853
111	0xbab3dbae	-0.0013722086
112	0x3c845e7f	0.01615834
113	0x3c50475b	0.012712325
114	0xbad97ed8	-0.0016593589
115	0xbd25b81f	-0.040458795
116	0x3d2f9041	0.04286218
117	0x3c809569	0.015696244
118	0x3b5c5a1f	0.0033623052
119	0xba155021	-0.0005695839
120	0xbb8f3a2e	-0.004370949
121	0xbd143aaf	-0.036188778
122	0x3c476920	0.01217106
123	0x3d17bf3e	0.037047617
124	0x3d148389	0.036258254
125	0x3ca84db4	0.020544864
126	0x3cffe796	0.031238358
127	0xbc1ce2e0	-0.009575576
128	0x3ccf90ce	0.025337603
129	0x3c44f83e	0.012022076
130	0x3a3146f4	0.0006762587
131	0x3ca32b58	0.019918129
132	0xba250df8	-0.0006296332
133	0xbba86d7d	-0.005140005
134	0xbb8de1f1	-0.004329913
135	0x3c246fea	0.010036448
136	0xbc94974e	-0.018138554
137	0x3a30ec25	0.00067490555
138	0x3cb5a705	0.022174368
139	0x3ce947d4	0.028476633
140	0xbad469f7	-0.0016205896
141	0x3a962c96	0.001145738
142	0xbc34323a	-0.010998303
143	0xbc1f8436	-0.009736111
144	0xb88bbfcc	-6.6637615e-05
145	0xbb723c37	-0.003696216
146	0xbcceadd6	-0.025229376
147	0x397315a9	0.00023182355
148	0xb956a6d4	-0.00020470779
149	0xbc996f50	-0.018729836
150	0x3d124fdd	0.035720695
151	0x3c1eabcc	0.009684514
152	0x3a839810	0.0010039825
153	0xbb20f920	-0.0024562553
154	0xb9711647	-0.0002299185
155	0x3ca14d61	0.019690217
156	0xbc1e76dd	-0.009671894
157	0xbad92fc7	-0.0016570025
158	0x3d3eb105	0.046555538
159	0xba8c4213	-0.0010700844
160	0x3d4ea88c	0.050453708
161	0x3a2a303e	0.0006492174
162	0x3a44afbb	0.00075029925
163	0xbc69fa76	-0.014280906
164	0x3c309278	0.010777108
165	0x3ab12e49	0.0013517822
166	0xbd46b30c	-0.048510596
167	0x3c27d7e1	0.010244341
168	0xbde00880	-0.10939121
169	0x3d5a90a4	0.053360596
170	0xbcd2f22b	-0.02575024
171	0x3d06c924	0.032906666
172	0x3be9f446	0.0071397154
173	0x3d0760d4	0.033051327
174	0x3d39f594	0.045400217
175	0x3d132b92	0.035930224
176	0xbc436ae1	-0.011927337
177	0xbb288279	-0.0025712533
178	0xbaf9d847	-0.0019061648
179	0xbcea9b79	-0.028638588
180	0x3a0c3c8e	0.00053495995
181	0xbd0bb1aa	-0.03410498
182	0xbb2956fe	-0.0025839205
183	0xbc23455c	-0.009965267
184	0x3c60c32d	0.0137184085
185	0xb96ea0e1	-0.00022757381
186	0x3a927e7e	0.0011176614
187	0x3cf5eaf5	0.030019263
188	0xbc182eab	-0.00928847
189	0x3c328053	0.010894853
190	0x3be8c3ec	0.007103434
191	0x3a9f256a	0.0012141888
192	0xbc6a3e42	-0.01429707
193	0x3aa8b2e6	0.0012870699
194	0xbcdcbb55	-0.026944796
195	0x3d2a1d13	0.041531634
196	0xbc67a577	-0.014138571
197	0xbc84c1c6	-0.01620568
198	0xbd123db8	-0.03570339
199	0x3ca9f66b	0.020747384
200	0xbcfa171b	-0.030528596
201	0x3c30caa4	0.010790501
202	0xbc4ea680	-0.012612939
203	0x3a3a8d6e	0.00071164116
204	0xb941a758	-0.00018468255
205	0xbbedbefa	-0.007255432
206	0xbad77c94	-0.0016440325
207	0xba9951fd	-0.0011697408
208	0x3be6bae3	0.0070413216
209	0xba575682	-0.000821449
210	0xb9bef6ff	-0.0003642365
211	0x3d084709	0.03327087
212	0xbd30f3a3	-0.0432011
213	0x3c10635c	0.008812752
214	0x3dec3e94	0.11535373
215	0xbcebc5f1	-0.02878091
216	0x3d4a0345	0.049319524
217	0x3b822507	0.003971699
218	0x3a366b66	0.00069587526
219	0xbd676549	-0.056493077
220	0x3b10a4aa	0.0022070804
221	0xbc365f02	-0.01113105
222	0x3b93f5bb	0.0045153773
223	0xba22b0f0	-0.00062061753
224	0xbaceea25	-0.0015786333
225	0xbacf45a2	-0.0015813599
226	0x39d0de8b	0.0003983866
227	0x3bb60976	0.005555327
228	0x3824b25d	3.926676e-05
229	0xbde4ee15	-0.11178223
230	0xbc1fd8ab	-0.0097562475
231	0x3c622331	0.013802336
232	0x3ade6ea3	0.0016970228
233	0x3dbe2413	0.09284224
234	0xbc6aaa77	-0.014322869
235	0x3aef1483	0.0018240366
236	0xb8d0c228	-9.954377e-05
237	0xbadbb280	-0.0016761571
238	0x39fce362	0.000482346
239	0x3c01cff9	0.00792312
240	0xbba0f2e1	-0.004911766
241	0x3c7afd41	0.0153191695
242	0xbd003ff1	-0.03131098
243	0xb97b85a4	-0.0002398701
244	0xb8f6cff6	-0.0001176893
245	0x3bd3b1ba	0.0064603956
246	0x39b9247d	0.00035313136
247	0xbd0cc2e1	-0.03436554
248	0xbc88d3cc	-0.016702555
249	0x3c6cc212	0.014450567
250	0xb9c35b7b	-0.00037261457
251	0x3df8d656	0.12150256
252	0x3baced9a	0.0052773478
253	0x3ce7e8f6	0.028309327
254	0xbd2af59f	-0.04173815
255	0xba7a0686	-0.0009537715
