GAIL/weights/GAIL-100_actor.pth (torch_old, 767283 bytes, 7 tensors)

fc1.weight f4 [300, 29]
000000 c7 a1 c6 3b 5d 57 a3 3c 4e 3f aa 3c 7b fc a0 3c
       0.006061766 0.019939119 0.02078214 0.019651642
000010 4f 95 95 3c 9b 9a 89 3c de 0b 83 3c c6 2d 80 3c
       0.018259672 0.016797354 0.01599687 0.015646826
000020 cf d1 77 3c 27 62 75 3c a1 d3 75 3c ab cd 78 3c
       0.015125706 0.014977015 0.01500407 0.015185754
000030 fd 74 75 3c 3e 51 76 3c 32 e0 79 3c a0 89 82 3c
       0.014981505 0.015034018 0.015251206 0.015934765
000040 4f 85 8a 3c 27 a4 95 3c bc 8e aa 3c d3 eb af 3c
       0.01690927 0.01826675 0.020820014 0.021474754
000050 bd 69 ac 3c 3a 86 95 3c 58 2e 54 3c 75 32 02 3d
       0.021046514 0.01825248 0.012950502 0.0317864
000060 74 ac 95 3c 22 02 98 3c 65 a2 96 3c ed c2 95 3c
       0.018270709 0.018555705 0.018387983 0.018281424
000070 24 ed a4 3c 9f 40 84 3c 78 f2 e1 3c b9 e4 e8 3c
       0.020132609 0.016144095 0.027581438 0.028429376
000080 14 df de 3c 72 18 d0 3c a5 5d c3 3c 25 32 bc 3c
       0.027205981 0.025402281 0.023848364 0.02297313
000090 fe 69 b8 3c 3e 30 b5 3c c1 7c b2 3c 69 ad b2 3c
       0.022511479 0.02211773 0.021788003 0.021811204
0000a0 b6 04 b4 3c 25 f0 b2 3c 52 3d b4 3c 35 68 b4 3c
       0.021974903 0.021843025 0.022001896 0.022022346
0000b0 19 2e bd 3c 37 ad c4 3c 26 65 d3 3c b0 90 eb 3c
       0.02309327 0.024008377 0.025805067 0.028755516
0000c0 60 08 eb 3c a4 26 e3 3c 68 92 d0 3c de 5a a5 3c
       0.028690517 0.027728386 0.025460437 0.02018493
0000d0 3a 61 0d 3d 98 c8 d0 3c aa 60 d0 3c 88 27 d2 3c
       0.03451655 0.025486276 0.025436718 0.025653616
0000e0 e8 37 d2 3c f7 d5 df 3c 29 94 9b 3c 0b 48 ff 3c
       0.025661424 0.027323706 0.018991547 0.031162282
0000f0 99 f3 05 3d 2a 39 00 3d 19 7f f3 3c 55 ca e5 3c
       0.032703016 0.031304516 0.02972369 0.028050581
000100 96 29 e0 3c e3 84 db 3c c9 75 da 3c 7e 87 d6 3c
       0.02736358 0.026796764 0.026667492 0.026187655
000110 31 25 d7 3c 18 0c d7 3c 49 14 d9 3c 8e be d8 3c
       0.026262851 0.026250884 0.02649893 0.026458051
000120 87 6c da 3c c8 be e1 3c df ed e8 3c e7 08 f7 3c
       0.026663078 0.027556792 0.028433738 0.030155612
000130 ec 80 06 3d 3c 41 05 3d 05 2b 01 3d ec 72 f5 3c
       0.032837793 0.032532915 0.031535167 0.029962026
000140 34 c5 c0 3c fa 3f 0c 3d 51 68 f7 3c 3a 7f f6 3c
       0.023531534 0.0342407 0.03020111 0.030089963
000150 1a de f6 3c 32 65 f6 3c d0 33 02 3d 31 1d 70 b8
       0.030135203 0.03007755 0.031787694 -5.7247646e-05
000160 87 d4 0b b9 c9 b1 60 37 8f 71 09 38 f3 53 10 b9
       -0.00013335246 1.3392834e-05 3.2769105e-05 -0.00013764184
000170 1a 58 56 39 c9 6b 11 b8 46 14 e4 b5 30 d5 08 38
       0.00020441451 -3.4671077e-05 -1.6993224e-06 3.2623473e-05
000180 63 15 ac 36 81 44 04 b9 eb 9f 60 b8 63 c3 93 37
       5.128489e-06 -0.0001261402 -5.3554697e-05 1.761475e-05
000190 10 b6 ad 37 06 ca 73 38 4e 9f 24 b8 cd 43 83 b7
       2.0707987e-05 5.8123864e-05 -3.924901e-05 -1.564799e-05
0001a0 b6 62 ec 38 d5 93 d6 38 dc a9 ab b8 37 23 12 b9
       0.00011271743 0.00010231851 -8.185554e-05 -0.00013936764
0001b0 35 97 18 b7 a4 ce ac b7 76 7c 84 b7 07 50 05 b9
       -9.095112e-06 -2.0600222e-05 -1.5793583e-05 -0.00012713681
0001c0 69 e5 84 b7 f8 c4 00 38 0f 4b 78 b7 f1 84 d1 b8
       -1.5842454e-05 3.070102e-05 -1.4799428e-05 -9.990659e-05
0001d0 7a 35 7a 3c 5a 7f d6 3c a7 02 e1 3c 48 45 d3 3c
       0.015271539 0.026183773 0.027467085 0.025789872
0001e0 ca 11 c7 3c 67 81 ba 3c fc 4e b3 3c 60 01 af 3c
       0.024300475 0.022766782 0.021888249 0.02136296
0001f0 89 72 ab 3c de 57 aa 3c 62 1e ab 3c ce 16 ab 3c
       0.020928638 0.020793851 0.020888511 0.020884898
000200 53 46 aa 3c 5f b9 aa 3c de c0 ab 3c 8a 53 b6 3c
       0.020785486 0.020840345 0.02096599 0.022256631
000210 e5 37 be 3c 5b 28 ca 3c 48 ff e2 3c da 9c e3 3c
       0.023220012 0.024677446 0.027709618 0.027784754
000220 ef ea d9 3c c2 c1 c7 3c 95 0a 9f 3c e5 d2 0d 3d
       0.026601283 0.024384383 0.019414226 0.034624953
000230 ee 34 c8 3c 26 fb c7 3c dc 9f c9 3c d4 95 c7 3c
       0.024439301 0.02441175 0.02461236 0.024363436
000240 2f b6 d7 3c 30 c5 ac b7 71 12 99 b8 48 56 8e b5
       0.02633199 -2.059582e-05 -7.2990435e-05 -1.0604936e-06
000250 31 c4 5c b8 33 f1 63 b8 1f d6 fd 38 fb 4a 90 37
       -5.2634805e-05 -5.434565e-05 0.00012103863 1.7201053e-05
000260 04 65 fb b8 60 94 2d 38 11 7d 7e 37 2f 79 1e b8
       -0.00011987428 4.13846e-05 1.5168699e-05 -3.7782997e-05
000270 2b 44 8f b8 68 a2 e6 b8 ab 1d f0 b7 ca f4 1f 36
       -6.8314686e-05 -0.00010997505 -2.8624045e-05 2.3835332e-06
000280 a6 9a 22 39 a7 00 5c 38 eb bc 59 38 21 48 a3 b7
       0.00015507135 5.2452695e-05 5.1912775e-05 -1.9464702e-05
000290 cc b1 34 38 ad f1 8e 39 80 23 f0 38 fe c6 d7 b7
       4.308093e-05 0.00027264413 0.00011450704 -2.572266e-05
0002a0 e0 e0 c4 38 f5 14 0d 38 e9 27 ef b5 14 57 e2 37
       9.3878945e-05 3.3636537e-05 -1.7818503e-06 2.6981848e-05
0002b0 57 3a a9 b9 d6 43 19 36 42 2a 99 3c 8c 31 fe 3c
       -0.00032277658 2.2838262e-06 0.018696908 0.031029485
0002c0 77 1d 05 3d 12 bd fe 3c c4 61 f3 3c 6a 03 e6 3c
       0.032498803 0.031096015 0.029709704 0.0280778
0002d0 8f 1a e0 3c 55 13 db 3c 77 72 d8 3c 02 10 d6 3c
       0.027356414 0.026742617 0.026421769 0.02613068
0002e0 c5 09 d8 3c f4 43 d7 3c 60 1f d6 3c 8e 67 d8 3c
       0.026371846 0.02627752 0.026138008 0.026416566
0002f0 06 c3 da 3c 9e 71 e1 3c 69 86 e7 3c 31 b2 f4 3c
       0.026704323 0.027519997 0.028262334 0.029870125
000300 99 93 05 3d 17 42 05 3d eb 78 01 3d 02 05 f4 3c
       0.032611463 0.03253373 0.031609457 0.029787544
000310 b5 64 bf 3c 50 05 0c 3d 4f 49 f5 3c 62 4d f5 3c
       0.02336345 0.034184754 0.029942183 0.029944126
000320 a6 e4 f6 3c 31 23 f6 3c dc 93 01 3d db 38 9b 3c
       0.030138325 0.030046077 0.03163515 0.01894801
000330 fd 52 ff 3c 2b a8 04 3d dc 65 fe 3c c9 03 f1 3c
       0.031167502 0.03238694 0.03105443 0.02942075
000340 00 f1 e5 3c 86 6d df 3c 43 51 d9 3c 9f 6b d8 3c
       0.02806902 0.027273905 0.026528006 0.026418505
000350 c8 c1 d6 3c 7e 00 d6 3c 64 46 d6 3c d9 c4 d5 3c
       0.026215449 0.026123282 0.026156612 0.02609484
000360 c3 3a d7 3c 46 72 d8 3c 67 ea e0 3c 85 52 e6 3c
       0.026273137 0.026421677 0.027455522 0.02811552
000370 37 13 f4 3c 79 17 06 3d 49 43 05 3d 0b 3a 01 3d
       0.029794319 0.03273723 0.03253487 0.031549495
000380 c7 fa f2 3c 04 8d c0 3c f0 bc 0b 3d 95 5f f4 3c
       0.029660596 0.023504741 0.03411573 0.029830733
000390 10 64 f3 3c f4 5e f6 3c 78 fb f5 3c e2 ac 00 3d
       0.0297108 0.030074574 0.030027136 0.031414874
0003a0 aa 93 28 b8 5b 84 5d 38 53 33 0e b8 2b bf d8 b8
       -4.0191844e-05 5.281377e-05 -3.3903238e-05 -0.000103352904
0003b0 5f cb 69 39 ba 6c 4d b8 95 12 2f 38 52 be 23 38
       0.00022296373 -4.897707e-05 4.1740557e-05 3.9039478e-05
0003c0 aa b9 0e b8 fd f1 90 b8 e7 cc ad b8 ab 8e df 38
       -3.402835e-05 -6.911529e-05 -8.287449e-05 0.000106600426
0003d0 7c 07 c1 38 73 60 95 b8 db f3 09 b9 a6 da 09 38
       9.204351e-05 -7.122839e-05 -0.00013156181 3.2866978e-05
0003e0 ea b3 bc 38 22 cb 0d b9 08 64 f2 37 b6 69 1d 38
       8.99805e-05 -0.00013522481 2.8895229e-05 3.7530168e-05
0003f0 4d f0 30 b8 03 db 65 37 4c 0c ec b6 49 a0 d5 37
       -4.2185467e-05 1.3700456e-05 -7.0347796e-06 2.5466217e-05

fc1.bias f4 [300]
000000 09 ad a7 3c e4 c2 e3 3c 14 5a 04 3d f8 97 c5 b7
       0.020468252 0.027802892 0.032312468 -2.3554996e-05
000010 33 b9 da 3c 67 dd 4c b8 7a d7 03 3d 82 5b 03 3d
       0.026699638 -4.8843587e-05 0.032187916 0.03206969
000020 1d b7 97 b8 06 59 05 3d 00 00 00 00 00 63 3a b8
       -7.2343486e-05 0.032555602 0.0 -4.4438057e-05
000030 9f 5e 1b b8 83 9b e2 b7 0c a4 10 b8 d4 91 ff 3c
       -3.7043003e-05 -2.7013715e-05 -3.4485056e-05 0.031197466
000040 11 f9 04 3d 4f 36 03 3d b4 22 3c b7 63 13 05 3d
       0.03246409 0.032034215 -1.1213753e-05 0.03248919
000050 69 53 05 3d fb a6 9e b8 4a 97 03 3d 91 d4 03 3d
       0.03255025 -7.5651296e-05 0.032126702 0.03218514
000060 a6 31 b6 3c 07 52 04 3d 53 0e 05 3d 7f 5a 29 b7
       0.022240471 0.03230479 0.032484364 -1.0094255e-05
000070 a6 36 be 3c a8 9c 05 3d e0 05 04 3d ca 61 04 3d
       0.023219418 0.032620102 0.032232165 0.03231982
000080 00 00 00 00 6c 67 04 3d 00 00 00 00 e0 91 04 3d
       0.0 0.032325193 0.0 0.03236568
000090 24 7e c1 3c df f2 02 3d 2a 2b e2 b7 48 8d ff 3c
       0.023619719 0.0319699 -2.69614e-05 0.031195298
0000a0 2e 19 05 3d 1d ee 03 3d 74 2f 05 3d 36 fb 7c b8
       0.032494716 0.032209504 0.032515958 -6.031544e-05
0000b0 11 cb 04 3d 22 ff 03 3d 33 65 20 b7 c1 79 b3 3c
       0.03242022 0.032225735 -9.560305e-06 0.021908643
0000c0 09 39 04 3d a4 84 b3 3c 00 00 00 00 62 86 03 3d
       0.032280955 0.021913834 0.0 0.03211058
0000d0 90 45 05 3d b4 9a 03 3d b1 a8 02 3d 2f 59 fd 3c
       0.032537043 0.03212996 0.031899158 0.030926315
0000e0 50 fd d2 3c 00 00 00 00 00 00 00 00 ac 28 c1 3c
       0.025755554 0.0 0.0 0.023578964
0000f0 18 90 d1 3c b2 8d 9d b7 79 5c 03 3d ba 06 b6 3c
       0.025581405 -1.878184e-05 0.03207061 0.022220004
000100 00 00 00 00 9f 8c 04 3d 09 1a c5 3c 34 9f 9c b7
       0.0 0.03236067 0.024060266 -1.8670784e-05
000110 5a 7b 72 b8 00 00 00 00 5a 08 f2 3c 03 3c 04 3d
       -5.7812176e-05 0.0 0.029544998 0.032283794
000120 19 b5 2b b6 ce d0 04 3d 78 2b 02 3d 6d 97 02 3d
       -2.5586398e-06 0.032425694 0.031779736 0.031882692
000130 00 00 00 00 bb c1 fa 3c ed cc 04 3d 0c fe f7 b6
       0.0 0.030609956 0.032421995 -7.3907486e-06
000140 56 66 04 3d 7e 6c 05 3d 08 15 05 3d 00 00 00 00
       0.032324158 0.03257417 0.03249076 0.0
000150 d1 14 05 3d 28 b2 05 3d 2e c5 ea b7 48 05 05 3d
       0.032490555 0.032640606 -2.7986793e-05 0.03247574
000160 fb e4 f8 3c 9e 80 05 3d 8f dd 04 3d d8 9a cc b6
       0.030382624 0.032593362 0.032437857 -6.0977e-06
000170 00 00 00 00 57 94 04 3d 21 67 02 3d 09 48 7d b8
       0.0 0.03236803 0.031836633 -6.038699e-05
000180 a4 26 04 3d 00 dd 09 b8 17 4f 49 b7 00 00 00 00
       0.032263413 -3.2869168e-05 -1.1998948e-05 0.0
000190 00 00 00 00 e7 51 fa 3c f1 da f4 3c 59 09 a3 3c
       0.0 0.030556632 0.029889556 0.019901918
0001a0 58 22 04 3d fb af 03 3d d2 2c d8 3c 00 00 00 00
       0.032259315 0.03215025 0.02638856 0.0
0001b0 09 3f 05 3d f7 8e 3d b8 0d 3d 7e b8 00 00 00 00
       0.032530818 -4.5194258e-05 -6.0615177e-05 0.0
0001c0 f4 30 05 3d 8b 5a 1a b5 53 01 01 3d 57 5b 04 3d
       0.03251739 -5.750123e-07 0.031495403 0.03231367
0001d0 e3 8c 04 3d 0a 01 05 3d 3b b6 01 3d 15 a3 03 3d
       0.032360923 0.032471694 0.03166793 0.03213795
0001e0 d0 4c b9 3c 00 00 00 00 c3 5e e2 3c 3a f5 de 3c
       0.022619635 0.0 0.027633077 0.027216543
0001f0 b9 b2 02 3d a4 10 eb b6 f8 fc a2 3c 70 2c 2b b8
       0.031908724 -7.005483e-06 0.019896016 -4.0810963e-05
000200 00 00 00 00 29 38 04 3d 00 00 00 00 69 a6 01 3d
       0.0 0.03228012 0.0 0.03165284
000210 d4 fa b1 3c 28 7e 03 3d be 66 02 3d cb e4 fb 3c
       0.02172605 0.032102734 0.031836264 0.030748745
000220 fe 7d 04 3d 00 00 00 00 92 6c 03 3d 00 00 00 00
       0.032346718 0.0 0.032085963 0.0
000230 86 d0 03 3d 08 43 04 3d c7 47 03 3d ff b0 38 b8
       0.032181285 0.03229049 0.032050874 -4.403386e-05
000240 0b a8 ba 3c 44 11 04 3d 07 37 fa 3c 86 79 9c b7
       0.022785207 0.03224303 0.030543817 -1.8653238e-05
000250 59 1e 04 3d 74 d2 02 3d c5 f2 fe 3c 62 4a 03 3d
       0.032255504 0.031938985 0.03112162 0.03205336
000260 78 52 04 3d 00 00 00 00 95 6c db b7 60 cf 04 3d
       0.03230521 0.0 -2.6157397e-05 0.03242433
000270 0c 84 04 3d e7 5a 8d b8 8d 47 05 3d 8c 0a 03 3d
       0.032352492 -6.740336e-05 0.03253894 0.03199248
000280 51 d7 03 3d 58 b4 03 3d a4 6d 03 3d fe 9d 00 3d
       0.032187764 0.03215441 0.032086983 0.031400673
000290 57 9c 04 3d d9 a1 af 3c c2 b4 ff 3c c5 a4 05 3d
       0.03237566 0.02143948 0.031214122 0.03262784
0002a0 a0 52 02 3d 00 00 00 00 8b 6b 04 3d 6c fd 03 3d
       0.03181708 0.0 0.032329123 0.032224104
0002b0 76 1b 10 b7 d5 40 05 3d ac d8 3f b7 bf 57 1d b8
       -8.589463e-06 0.03253253 -1.1434935e-05 -3.7513437e-05
0002c0 55 17 bc 3c b4 ec a0 b8 00 00 00 00 66 cd 95 b8
       0.022960344 -7.673484e-05 0.0 -7.143132e-05
0002d0 ca 13 02 3d 00 00 00 00 3c 87 f0 3c 2d a6 cc 3c
       0.031757154 0.0 0.02936136 0.024981583
0002e0 00 00 00 00 83 a5 03 3d ee 2f 04 3d 63 fb a5 b8
       0.0 0.032140266 0.03227227 -7.9146375e-05
0002f0 00 00 00 00 6b 50 03 3d 71 0d 05 3d 24 d3 bd 3c
       0.0 0.032059114 0.03248352 0.023171969
000300 2d ee ac b7 ea 8a 03 3d 44 0e fb 3c 12 38 9e b7
       -2.0614907e-05 0.0321149 0.03064645 -1.8861178e-05
000310 00 00 00 00 dd ff 03 3d 70 73 f8 3c 00 00 00 00
       0.0 0.032226432 0.030328482 0.0
000320 78 ca 3b b8 00 00 00 00 d4 aa 03 3d c3 ae 00 3d
       -4.4772838e-05 0.0 0.032145336 0.031416666
000330 01 ee 04 3d 4e f1 01 3d 66 45 01 3d b5 0c da 3c
       0.03245354 0.031724267 0.031560324 0.026617387
000340 9c b5 00 3d 00 00 00 00 a2 c0 03 3d 94 3a 04 3d
       0.031423196 0.0 0.03216613 0.032282427
000350 00 00 00 00 7d 73 b0 3c 35 20 05 3d f0 11 8c b7
       0.0 0.021539444 0.03250142 -1.6697653e-05
000360 02 6a 11 b8 00 00 00 00 ab ca 04 3d 29 4a b1 b4
       -3.466942e-05 0.0 0.03241984 -3.3022778e-07
000370 1f 18 d6 3c fd d0 03 3d fd 18 e0 3c 72 6f 04 3d
       0.026134549 0.03218173 0.027355665 0.032332845
000380 77 bd a2 3c 8e fd 04 3d 30 e6 4f b8 15 21 05 3d
       0.019865735 0.03246837 -4.9567025e-05 0.032502253
000390 00 00 00 00 86 e3 01 3d 92 7a 05 3d 00 00 00 00
       0.0 0.031711124 0.032587595 0.0
0003a0 d6 7c f5 3c 60 1a 05 3d 98 33 42 b8 57 df d8 3c
       0.029966753 0.032495856 -4.6301255e-05 0.026473684
0003b0 00 c3 10 b8 00 00 00 00 63 45 03 3d b7 00 b0 3c
       -3.4513883e-05 0.0 0.032048594 0.021484716
0003c0 00 00 00 00 1e 7a 70 b8 d1 e2 03 3d 60 e7 02 3d
       0.0 -5.733419e-05 0.03219873 0.031958938
0003d0 4a 31 04 3d f1 60 05 3d 37 6f 02 3d f0 ca 04 3d
       0.03227357 0.032563154 0.031844344 0.0324201
0003e0 43 fb 03 3d 85 dc 03 3d b8 73 02 3d fd 12 03 3d
       0.032222044 0.032192726 0.03184864 0.03200053
0003f0 81 db 03 3d 20 10 03 3d 00 23 04 3d 6a 81 e1 3c
       0.032191757 0.0319978 0.03225994 0.02752753

fc2.weight f4 [600, 300]
000000 50 8b b9 3c bd 80 ab 3c 58 12 ba 3c 90 27 fb b8
       0.022649437 0.02093541 0.022713825 -0.00011975982
000010 43 35 a3 3c 0f 11 16 39 05 4c b9 3c ea 7a ba 3c
       0.019922858 0.0001431147 0.022619257 0.022763688
000020 63 be 42 b8 0a 77 ba 3c ca 8a c2 38 f3 d2 a3 b9
       -4.6430516e-05 0.02276184 9.276492e-05 -0.00031246952
000030 ac 37 73 b8 6c 43 45 37 7f 9c 57 b8 01 06 ba 3c
       -5.7987563e-05 1.1757813e-05 -5.1405743e-05 0.022707941
000040 9c c8 b9 3c dd d7 b7 3c f1 df 76 35 bb eb b9 3c
       0.022678666 0.022441799 9.196802e-07 0.022695413
000050 48 0d b9 3c 80 47 0b 38 69 69 ba 3c 02 46 ba 3c
       0.02258934 3.3206772e-05 0.022755342 0.02273846
000060 7d e4 a3 3c d7 1e b9 3c cd 46 b8 3c 37 42 ee b7
       0.020006413 0.022597713 0.022494698 -2.8402645e-05
000070 3e e4 b7 3c 90 fa b9 3c f6 7b ba 3c 0a e0 b8 3c
       0.022447702 0.022702485 0.022764187 0.022567768
000080 9d 1b c7 b8 83 1a b9 3c 5a 58 80 38 46 e5 b7 3c
       -9.494203e-05 0.02259565 6.1199724e-05 0.022448193
000090 52 5f 9a 3c c2 8e ba 3c ac 30 11 38 68 43 ba 3c
       0.01884428 0.02277315 3.4616023e-05 0.02273722
0000a0 b3 a7 b9 3c 37 b2 b8 3c 2a b9 b9 3c ab da 35 38
       0.022662973 0.022545917 0.0226713 4.3357413e-05
0000b0 6e 55 b9 3c 9a 3e b9 3c b1 59 7c b8 3e 62 af 3c
       0.022623744 0.022612859 -6.0165014e-05 0.02140915
0000c0 a9 aa b9 3c 4d dd bc 3c 64 a8 ab 38 e7 59 b9 3c
       0.022664385 0.023054743 8.1852806e-05 0.022625877
0000d0 06 65 b8 3c 64 04 bb 3c f6 4b b9 3c 39 df ba 3c
       0.02250911 0.022829242 0.022619229 0.022811519
0000e0 e5 6a 9e 3c 2d ca 63 38 6f c6 4b b9 a2 45 9a 3c
       0.01933808 5.430931e-05 -0.00019433511 0.018832032
0000f0 93 c7 9f 3c 44 1a 60 38 76 80 b8 3c 5b c1 a5 3c
       0.019504344 5.3430223e-05 0.022522192 0.0202338
000100 c8 6a b6 38 81 0d b9 3c 94 05 9a 3c d3 5d 2c b8
       8.698326e-05 0.022589447 0.018801488 -4.1095376e-05
000110 3a 86 fd 37 6d a4 17 b8 b5 19 b4 3c 51 a1 b7 3c
       3.0222454e-05 -3.615434e-05 0.021984914 0.022415789
000120 82 d5 89 b6 63 15 ba 3c 94 89 bb 3c 61 a4 b8 3c
       -4.1077737e-06 0.022715276 0.02289275 0.02253932
000130 08 71 1f 38 83 63 bb 3c 10 d7 b8 3c a1 c2 d0 38
       3.8013823e-05 0.0228746 0.022563487 9.954465e-05
000140 3d fe b8 3c 4d 22 b9 3c dd 90 b9 3c da 38 ea b8
       0.022582168 0.022599364 0.022652084 -0.00011168579
000150 2a ce b8 3c 1c 84 b8 3c c4 5a 80 38 10 c5 b8 3c
       0.022559244 0.022523932 6.120422e-05 0.022554904
000160 f6 49 f1 bb 37 6c b8 3c 22 42 b9 3c da 24 a2 b8
       -0.007363553 0.022512538 0.022614542 -7.731626e-05
000170 4b 34 f4 b8 c5 49 b9 3c 3c 78 b9 3c 2a 50 e5 37
       -0.00011644567 0.022618184 0.02264034 2.7336257e-05
000180 1c d4 b8 3c 46 33 68 39 3e 68 c1 b8 a8 7e 7b 38
       0.02256208 0.00022144345 -9.222374e-05 5.996102e-05
000190 89 83 ac 38 67 bc ba 3c 62 4e b7 3c 62 4c ba 3c
       8.2260995e-05 0.022794915 0.022376243 0.0227415
0001a0 19 f1 b9 3c 30 ae b7 3c 2a 63 b5 3c 62 7b 8b b8
       0.022697972 0.022421926 0.022142012 -6.651018e-05
0001b0 fc ed ba 3c 54 9a bb b8 72 c2 14 39 37 f8 a7 b8
       0.022818558 -8.945601e-05 0.00014186816 -8.009414e-05
0001c0 50 00 ba 3c d4 7e ec 37 4d b8 ba 3c 5f d6 b7 3c
       0.022705227 2.8192451e-05 0.02279296 0.022441087
0001d0 4f 3d ba 3c a6 3c b9 3c 8b ae b9 3c 0b f3 b8 3c
       0.022734312 0.022611927 0.022666236 0.02257683
0001e0 7e 7a 9e 3c 88 33 e6 b8 09 e4 aa 3c 0e bc a7 3c
       0.019345518 -0.00010976853 0.020860689 0.020475414
0001f0 7d e4 b9 3c 37 19 a8 b7 7f 68 bc 3c 21 88 85 b7
       0.02269196 -2.0038902e-05 0.022999046 -1.5918225e-05
000200 30 1d 7a b9 3b 87 b9 3c 61 0e c6 38 d5 a7 b9 3c
       -0.00023852731 0.02264749 9.444054e-05 0.022663036
000210 cc 7b c3 3c 59 37 b9 3c 48 e9 b9 3c 46 0d ba 3c
       0.023862742 0.0226094 0.022694245 0.022711407
000220 a7 47 bb 3c 80 92 39 b9 31 bf ba 3c 61 84 ce b8
       0.022861315 -0.0001769755 0.022796245 -9.847503e-05
000230 eb 3c b9 3c b4 60 b9 3c b2 d7 ba 3c 3d 2a 5e b9
       0.022612056 0.02262912 0.02280793 -0.00021187305
000240 6c 9d 9d 3c 4e 90 b9 3c 33 d9 b9 3c e6 34 4f b8
       0.019240104 0.022651818 0.022686576 -4.940191e-05
000250 63 27 b9 3c 1b 67 ba 3c 00 21 ba 3c 88 23 b8 3c
       0.022601789 0.022754243 0.022720814 0.02247788
000260 db 45 ba 3c ad 6e a1 b8 67 e3 c2 b8 42 d2 b8 3c
       0.022738388 -7.697693e-05 -9.292998e-05 0.022561196
000270 fb c2 b9 3c 28 3b 36 b8 50 66 b9 3c e7 66 ba 3c
       0.022675982 -4.3447275e-05 0.022631794 0.022754146
000280 df 56 ba 3c 68 9b b9 3c 5d d0 b9 3c 7c fd b9 3c
       0.022746501 0.022657111 0.022682363 0.022703879
000290 86 b1 b9 3c 4f 6b b8 3c 77 ba b9 3c b0 93 b9 3c
       0.022667658 0.022512106 0.022671921 0.02265343
0002a0 0f cf b9 3c fb fd 2c b9 6e 12 b9 3c f7 b9 b9 3c
       0.022681741 -0.00016497813 0.022591796 0.022671683
0002b0 20 34 0f 39 7f 86 b8 3c b5 89 fc b6 8a 38 a9 b5
       0.00013656961 0.02252507 -7.5262165e-06 -1.2607936e-06
0002c0 61 f2 99 3c 20 ad 2c b8 21 a6 78 38 26 84 6e b8
       0.018792333 -4.116923e-05 5.9282527e-05 -5.6866695e-05
0002d0 78 94 b9 3c 43 51 2c 38 a1 45 b5 3c 29 83 9e 3c
       0.022653803 4.1083676e-05 0.022127928 0.019349651
0002e0 71 2f 06 39 06 12 b9 3c 7f 6d b8 3c 8f a9 00 39
       0.00012796909 0.022591602 0.02251315 0.00012270197
0002f0 35 8f a0 38 f8 15 bb 3c a5 85 b8 3c 13 c0 9b 3c
       7.656069e-05 0.022837624 0.022524664 0.019012487
000300 28 5d ad 38 c5 1e b8 3c 8c 19 b9 3c d8 76 e5 b7
       8.2666345e-05 0.02247561 0.02259519 -2.7354268e-05
000310 c5 12 a5 b7 ab ae b9 3c f7 d9 b8 3c 5c 42 ec 36
       -1.9678273e-05 0.022666296 0.022564871 7.0410733e-06
000320 19 7d ba 38 0e 9e 9b 38 96 29 b9 3c d1 d0 b8 3c
       8.8924724e-05 7.420416e-05 0.022602838 0.022560509
000330 a0 14 ba 3c 49 da b8 3c a1 b9 ba 3c 70 98 a5 3c
       0.022714913 0.022565024 0.022793593 0.02021429
000340 22 ed ba 3c 4b e9 cb b8 dc 80 ba 3c e3 a3 b8 3c
       0.022818152 -9.7232485e-05 0.022766523 0.022539085
000350 a7 c0 7c 36 e0 27 ca 3c 42 bd b9 3c f7 ce 24 b7
       3.7663065e-06 0.024677217 0.022673253 -9.8233495e-06
000360 a3 19 1c 38 f9 77 8e b7 3c 1e b8 3c f4 9a 0a b8
       3.7217174e-05 -1.6983586e-05 0.022475354 -3.3046075e-05
000370 03 c6 a1 3c 9a d6 b9 3c 41 ec a5 3c 72 06 b9 3c
       0.01974774 0.022685338 0.020254256 0.022586081
000380 e8 8b bb 3c f9 8b b9 3c 29 d5 10 38 f3 8b b9 3c
       0.022893861 0.022649752 3.4530796e-05 0.02264974
000390 cc 9a 4e b7 25 b2 ba 3c 1d ff b8 3c ef 37 c3 36
       -1.2314598e-05 0.022790024 0.022582585 5.8179644e-06
0003a0 b5 dc b6 3c a1 0f b9 3c 18 c6 00 b9 28 c6 a3 3c
       0.022322038 0.02259046 -0.00012280827 0.01999195
0003b0 19 a5 92 38 c2 dc 9c b7 17 0e b9 3c 79 20 c8 3c
       6.992574e-05 -1.8699448e-05 0.022589726 0.024429547
0003c0 da 46 6a 38 c4 5e c2 38 4f 58 b9 3c e4 08 b8 3c
       5.5855933e-05 9.268292e-05 0.022625117 0.022465177
0003d0 63 d7 b9 3c a0 5c b7 3c b7 5e ba 3c 67 0b b9 3c
       0.022685712 0.022383034 0.022750242 0.022588445
0003e0 d0 a7 b8 3c 1b 3a ba 3c 79 67 ba 3c 5f b1 b9 3c
       0.022540957 0.022732785 0.022754418 0.022667585
0003f0 6b 7c b9 3c f4 28 b9 3c d1 82 b9 3c 1a 07 a8 3c
       0.022642335 0.022602536 0.022645386 0.020511199

fc2.bias f4 [600]
000000 fe 1b ae 3c 30 af f9 3c 00 00 00 00 8a 51 f6 3c
       0.021253582 0.030479044 0.0 0.030068178
000010 54 a1 80 b4 1d 85 d8 b4 96 94 b4 b8 9f 9f 7a b4
       -2.395924e-07 -4.0329988e-07 -8.610745e-05 -2.3341134e-07
000020 16 26 d0 b9 00 00 00 00 25 0d 8d b8 22 85 1b b6
       -0.00039701228 0.0 -6.725852e-05 -2.3174293e-06
000030 00 00 00 00 00 00 00 00 3d 03 35 3c 7a 1a 4e 3c
       0.0 0.0 0.011048135 0.012579555
000040 8c 65 c3 b4 db b8 f4 3c d1 fb 8b b8 d0 bf ae b9
       -3.6395465e-07 0.029873302 -6.674941e-05 -0.00033330778
000050 6e f6 f5 3c 46 39 88 b4 ef 79 f4 3c 00 00 00 00
       0.030024733 -2.5373646e-07 0.029843299 0.0
000060 c2 42 43 b7 89 34 71 b9 67 41 10 b8 53 9b f4 3c
       -1.1638449e-05 -0.00023003122 -3.4393186e-05 0.02985922
000070 00 00 00 00 0c 86 b5 b9 35 45 4b 3c 9f 6b 58 3c
       0.0 -0.00034622883 0.012406637 0.013209253
000080 8a c6 83 3c 00 00 00 00 54 3e f8 3c 88 e4 0a ba
       0.016085882 0.0 0.030303158 -0.0005298336
000090 ef ea f7 3c c5 66 f7 3c 01 05 f6 3c 00 00 00 00
       0.030263392 0.030200372 0.030031683 0.0
0000a0 c8 06 f8 3c 0a ac f7 3c 19 4c 2b b9 d6 54 f4 3c
       0.030276671 0.030233402 -0.0001633618 0.02982561
0000b0 89 93 04 b9 b4 66 f8 3c cb 19 e7 b8 48 1d f4 3c
       -0.00012643462 0.03032241 -0.00011019743 0.029799119
0000c0 38 54 b6 b9 02 ba f6 3c 5a 21 0f b4 c5 f2 f3 3c
       -0.00034776493 0.030117992 -1.3330046e-07 0.029778847
0000d0 1c d5 72 b9 ac 0b f6 3c 00 00 00 00 30 47 f7 3c
       -0.00023158308 0.030034862 0.0 0.030185312
0000e0 bb ca f6 3c 46 22 f4 3c b9 8b 7a b3 00 00 00 00
       0.030125966 0.0298015 -5.8334738e-08 0.0
0000f0 4f b0 f5 3c 53 9a 42 b4 b1 82 11 b4 6f cf ab b4
       0.029991297 -1.8123801e-07 -1.3551723e-07 -3.200216e-07
000100 f2 6a 91 3c 3c b0 04 b8 fc 13 f8 3c 3e d3 f7 3c
       0.01775119 -3.1635383e-05 0.030282967 0.030252095
000110 67 f1 f7 3c b6 c9 f8 3c 10 26 96 3c 40 5e e8 b8
       0.030266477 0.03036962 0.018328696 -0.000110801775
000120 5a eb 2c b7 6f 6e f7 3c 54 74 cb b4 3b d7 f5 3c
       -1.0306796e-05 0.030204026 -3.7896336e-07 0.030009856
000130 51 97 41 3c 4d b2 f5 3c 53 b3 47 3c ef 88 e9 b3
       0.011815862 0.029992247 0.01218875 -1.0874816e-07
000140 00 00 00 00 bf 1b 88 b9 85 c5 f7 3c 00 00 00 00
       0.0 -0.00025960614 0.030245552 0.0
000150 93 08 f6 3c 9e e9 5a 3c ca 6e a7 b2 8f 67 85 3c
       0.030033385 0.013361363 -1.949174e-08 0.016284732
000160 00 00 00 00 25 19 fb 3c ec 24 44 3c a4 bd f5 3c
       0.0 0.030651638 0.0119716935 0.029997654
000170 dc 7a 06 3d 4f 66 91 b4 bb 2d 86 b9 73 d3 07 3d
       0.03283201 -2.7082794e-07 -0.00025592544 0.033160638
000180 ef b9 01 3d f5 01 0a b9 6f 5a fa 3c 67 f2 22 b4
       0.03167146 -0.00013161435 0.0305607 -1.5175611e-07
000190 f2 50 07 b9 02 e3 05 3d 48 1c 3f 3c 1f af f8 3c
       -0.00012904758 0.032687195 0.011664458 0.030356942
0001a0 5c d8 f6 3c 0c 77 f5 3c fc fc 9a 3c 00 00 00 00
       0.030132465 0.029963993 0.01891946 0.0
0001b0 e5 e8 f6 3c 07 67 f8 3c d3 41 f9 3c 26 5a f8 3c
       0.03014035 0.030322565 0.030426895 0.030316424
0001c0 35 29 f7 3c 40 ac f7 3c 0d f3 b4 b9 57 9a 9e b4
       0.030171016 0.030233502 -0.00034513362 -2.954209e-07
0001d0 74 a4 92 b6 d5 cf f7 3c 00 00 00 00 8a 12 fc 3c
       -4.370284e-06 0.03025047 0.0 0.030770559
0001e0 00 00 00 00 e8 4e e2 b5 87 6f 04 3d cb 6f 0c b9
       0.0 -1.6861277e-06 0.032332923 -0.00013393087
0001f0 00 00 00 00 00 00 00 00 ab cd f4 3c a0 26 f5 3c
       0.0 0.0 0.029883226 0.029925644
000200 66 5d f8 3c d5 e9 f5 3c 63 89 f6 3c b6 42 81 b9
       0.030317973 0.030018726 0.030094808 -0.000246545
000210 51 32 84 b8 00 00 00 00 81 eb 1b b9 85 dd a1 b9
       -6.303623e-05 0.0 -0.00014869684 -0.00030873358
000220 f0 f3 9a 3c f1 2d 3d b4 bc 30 f4 3c bc 31 f7 3c
       0.018915147 -1.761871e-07 0.029808395 0.030175082
000230 30 8c fe 3c fe 5e 95 b8 00 00 00 00 91 88 ee b9
       0.031072706 -7.122567e-05 0.0 -0.00045496647
000240 48 89 f8 3c f1 63 f5 3c 6a 18 47 ba 94 07 f6 3c
       0.030338898 0.029954882 -0.00075948855 0.03003291
000250 3e 51 01 ba aa cd b8 b9 00 00 00 00 b2 a5 e8 b9
       -0.00049330655 -0.00035248447 0.0 -0.0004437394
000260 c0 04 f7 3c 00 00 00 00 00 00 00 00 80 9f f7 3c
       0.030153632 0.0 0.0 0.030227423
000270 4e 93 77 b9 ed 10 32 3c c4 a5 f9 3c 58 49 f8 3c
       -0.00023610631 0.010868293 0.030474551 0.03030841
000280 40 44 7d 3c 44 20 53 b3 3f eb f8 3c 69 fe e9 b9
       0.015458167 -4.915661e-08 0.030385612 -0.00044630773
000290 81 d3 0d b9 ad 14 1e b8 aa c9 f5 3c 1e 9a f7 3c
       -0.00013525599 -3.768939e-05 0.030003387 0.030224856
0002a0 1c bc 80 3c ce 42 0c b5 c9 6c fa 3c b0 44 46 b9
       0.015714698 -5.225128e-07 0.03056945 -0.0001890834
0002b0 05 c0 76 b9 a7 50 f6 3c 00 00 00 00 25 d4 0c b5
       -0.00023531921 0.030067755 0.0 -5.2462775e-07
0002c0 d5 7d 9c b8 23 82 f5 3c fa 5a f8 3c 73 48 c0 b5
       -7.462098e-05 0.02996928 0.030316819 -1.43262e-06
0002d0 37 64 39 3c 3a ea 45 3c 00 00 00 00 52 c6 8f b4
       0.011315397 0.01207977 0.0 -2.6780123e-07
0002e0 8e ca f7 3c 77 e4 f7 3c d0 a8 2b 3c 00 00 00 00
       0.030247953 0.030260308 0.01047726 0.0
0002f0 07 cb f7 3c 46 f6 f7 3c 93 cd a5 b8 65 b6 02 3d
       0.030248178 0.0302688 -7.906104e-05 0.031912226
000300 50 f7 24 3c 01 11 01 3d 00 00 00 00 87 bd 86 b9
       0.0100687295 0.031510357 0.0 -0.0002569968
000310 83 22 f5 3c 2f 02 7b 3c c7 83 8f b4 55 b4 c2 b2
       0.029923683 0.015320345 -2.6731706e-07 -2.2666578e-08
000320 0b 45 73 3c 6f 37 f4 3c 72 ac 3b b4 00 00 00 00
       0.014848004 0.029811589 -1.7478467e-07 0.0
000330 00 00 00 00 3d c1 f2 3c eb a9 78 3c 50 95 f7 b2
       0.0 0.029633159 0.01517723 -2.8822484e-08
000340 8f d7 f5 3c 00 00 00 00 36 88 f6 3c 2a f3 f5 3c
       0.030010013 0.0 0.030094247 0.030023176
000350 83 2d f5 3c 7e de 48 b9 00 00 00 00 54 27 a1 b9
       0.029928928 -0.00019156371 0.0 -0.00030737615
000360 b5 f3 97 3a 00 00 00 00 5d 2d 0c b7 aa 97 6e b9
       0.0011593016 0.0 -8.355212e-06 -0.00022753948
000370 91 b5 f6 3c 66 eb 01 3c df 7a f7 3c 47 2d da 3c
       0.030115874 0.0079296585 0.030209957 0.026632918
000380 ea c8 f5 3c 0b ea b1 b4 00 00 00 00 b6 4e 89 b9
       0.03000303 -3.3139108e-07 0.0 -0.0002618932
000390 09 46 45 b4 c7 39 07 3d 00 00 00 00 af 04 0c 3d
       -1.8372533e-07 0.033014085 0.0 0.034184154
0003a0 00 00 00 00 00 00 00 00 09 8a 0e b5 c6 97 59 b9
       0.0 0.0 -5.309999e-07 -0.00020751273
0003b0 7a 65 48 3c 1c 01 f5 3c 2a 4b c4 3c 09 32 55 b9
       0.012231225 0.029907756 0.023961622 -0.00020331902
0003c0 49 b7 91 b9 8b 22 0c 3d f2 0e fd 3c 3d 0a ab b9
       -0.00027793113 0.03421263 0.030890916 -0.0003262329
0003d0 03 f5 f5 3c 66 d3 f6 3c d8 71 f4 3c 07 be f3 3c
       0.030024057 0.0301301 0.029839441 0.029753698
0003e0 00 00 00 00 41 e7 27 3c c8 3d 22 3c 91 b9 0d b4
       0.0 0.010248006 0.009902425 -1.3199157e-07
0003f0 5a d6 f4 3c 4a a3 f6 3c 00 00 00 00 8a 92 f8 3c
       0.029887367 0.03010716 0.0 0.030343313

steering.weight f4 [1, 600]
000000 0f 9c a5 3b ca 82 99 3a 87 c8 19 37 65 24 c8 3a
       0.005054004 0.0011711952 9.1662e-06 0.0015269635
000010 a4 db f9 37 b9 10 9c 38 fd fe 0f b7 b4 2c 1b 39
       2.9785391e-05 7.4417745e-05 -8.582833e-06 0.00014798605
000020 a8 23 db 37 a4 c2 fe 38 0b 7a 7f b8 4e 28 8d 38
       2.6123438e-05 0.000121479185 -6.09104e-05 6.730911e-05
000030 9f 91 94 b7 ab 99 30 b8 e6 6f c3 3b 4f 06 80 b9
       -1.7710785e-05 -4.2104784e-05 0.005964267 -0.00024418763
000040 49 51 bd 35 24 65 b9 3a eb fc ca b6 ce 68 2f 38
       1.4105254e-06 0.0014144522 -6.0495126e-06 4.182086e-05
000050 d2 9a c1 3a 35 d5 88 38 aa 25 ea 3a 48 11 9d b7
       0.0014770871 6.524698e-05 0.0017864008 -1.8723906e-05
000060 17 9e d6 38 33 f4 f9 38 f0 ab 6a 38 23 12 d3 3a
       0.00010233762 0.00011918731 5.5950077e-05 0.0016103428
000070 66 94 2b b9 48 be 28 39 e3 4a ef 3b f7 c3 06 3c
       -0.00016363114 0.00016092614 0.0073026284 0.008225433
000080 25 e6 1c bc 99 67 b0 b7 f5 34 db 3a b5 2f 1f 38
       -0.009576355 -2.1029076e-05 0.0016724156 3.7952985e-05
000090 de b2 ef 3a 65 66 e7 3a 13 36 c4 3a ab 32 f9 37
       0.001828756 0.0017654417 0.0014969729 2.9706707e-05
0000a0 a1 93 ee 3a be 60 90 3a 3a 2e 6e 38 4d cd b4 3a
       0.0018201956 0.001101516 5.6786674e-05 0.0013794095
0000b0 c7 20 aa 38 32 62 f7 3a ab 33 c3 35 ee 33 b6 3a
       8.112337e-05 0.0018873869 1.454367e-06 0.0013900974
0000c0 4b 01 c3 37 e9 4b b9 3a e1 cf a5 38 95 5c ba 3a
       2.3246414e-05 0.0014137003 7.9065336e-05 0.0014218265
0000d0 84 12 8b 38 f3 a2 b4 3a fa 56 01 39 31 2c b2 3a
       6.631485e-05 0.0013781473 0.000123348 0.0013593492
0000e0 db 92 e7 3a c9 9b c0 3a 27 66 8a 38 91 48 46 38
       0.0017667668 0.0014694865 6.59938e-05 4.727446e-05
0000f0 01 21 ac 3a 76 ba 9e 38 88 c2 44 38 83 c1 4e 38
       0.0013132395 7.568758e-05 4.6911213e-05 4.929445e-05
000100 a3 ef cb 3b 76 05 22 37 40 65 ba 3a cd 22 8b 3a
       0.0062236353 9.657224e-06 0.0014220849 0.001061523
000110 9b 56 d9 3a 9e d7 a9 3a 1a ad c5 3b ee 27 ff 38
       0.0016581597 0.0012957936 0.006032598 0.00012166785
000120 07 06 f4 36 b4 70 d7 3a aa c2 52 39 50 37 ee 3a
       7.2724683e-06 0.0016436786 0.00020099679 0.0018174443
000130 36 98 d7 3b 78 43 b0 3a d1 d6 e2 3b 91 9d 98 b8
       0.0065794243 0.0013447842 0.006922581 -7.277274e-05
000140 70 e4 08 39 9c c5 2c 39 b4 0d 9b 3a b7 d9 da 38
       0.0001305507 0.00016476813 0.0011829645 0.000104356026
000150 bc ec d5 3a b3 fc 04 3c f3 e0 86 38 ed 91 e5 3b
       0.0016321163 0.008116889 6.431518e-05 0.007005921
000160 b9 c8 43 b7 50 6e 03 3b 3c ba 90 b7 b1 bb bb 3a
       -1.166964e-05 0.0020054765 -1.725286e-05 0.0014322904
000170 6d a5 26 3b 21 a8 de 38 df 29 03 38 e1 3f 2a 3b
       0.0025428191 0.00010617101 3.127183e-05 0.0025978016
000180 44 a7 11 3b d7 8a 30 39 12 1b 85 3a 28 57 3e 37
       0.0022224942 0.0001683639 0.0010155162 1.1345175e-05
000190 1d c3 1b 39 f2 bf 2a 3b ec 4b 8c 3a 38 f9 84 3a
       0.00014854637 0.002605435 0.0010703779 0.0010145074
0001a0 9b 74 b2 3a c3 5b c2 3a 2c c4 bc 3b d0 1f d3 38
       0.0013615073 0.0014828373 0.00576069 0.000100671896
0001b0 56 52 b8 3a 5f d9 fe 3a 33 f3 e8 3a a5 f6 ab 3a
       0.0014062624 0.0019443444 0.0017772674 0.001311977
0001c0 45 d7 d1 3a 49 19 97 3a 52 23 90 38 31 7c 4c 38
       0.001600959 0.0011527921 6.873034e-05 4.8753052e-05
0001d0 66 4a 05 38 a6 f1 d5 3a e6 fd 5e b8 fa 69 f8 3a
       3.177896e-05 0.0016322627 -5.3165386e-05 0.0018952482
0001e0 c9 54 74 38 5b c3 e7 38 0f c3 25 3b 14 e3 05 b8
       5.8253096e-05 0.00011051326 0.0025293266 -3.1921154e-05
0001f0 09 a8 20 b9 62 07 be 37 4e 37 af 3a 55 cb d6 3a
       -0.00015321387 2.2653203e-05 0.0013367923 0.0016387502
000200 f0 68 95 3a b3 49 b3 3a db c2 bc 3a cb 45 22 39
       0.0011399072 0.001367858 0.0014401333 0.00015475524
000210 e8 b9 a9 38 44 9a f3 b8 52 df 81 b8 09 44 85 38
       8.093176e-05 -0.00011615877 -6.192796e-05 6.354607e-05
000220 4f 2e a2 bc 14 36 ca 38 9c f7 d9 3a 42 f1 cd 3a
       -0.019797472 9.6421834e-05 0.001662958 0.0015712159
000230 fd 29 09 3b 5e 7f 4f b8 b6 6a a2 b8 f8 88 14 39
       0.0020929568 -4.9471266e-05 -7.7446384e-05 0.00014165405
000240 9b 38 8b 3a 7b ff db 3a e7 87 59 3a 16 d8 b9 3a
       0.0010621728 0.0016784513 0.0008298144 0.0014178779
000250 68 c7 2f 39 c9 75 8a 38 8b 47 16 39 b3 92 3b 38
       0.00016763585 6.602292e-05 0.00014331767 4.47209e-05
000260 44 2d da 3a c2 f9 d7 b8 69 d8 8a 37 72 98 d0 3a
       0.001664557 -0.0001029852 1.6551656e-05 0.0015914573
000270 80 f7 b9 38 09 a0 6f bb 3d 2d d7 3a 8a d0 ee 3a
       8.867588e-05 -0.0036563894 0.001641668 0.0018220108
000280 cb 28 f8 3b 37 ed 09 38 93 6b 9c 3a 2a 7f 41 b7
       0.0075732223 3.288427e-05 0.0011933915 -1.1533304e-05
000290 ec d6 c1 38 20 b3 89 38 69 71 d2 3a 3d 6d d7 3a
       9.2429895e-05 6.566034e-05 0.0016055527 0.0016435754
0002a0 d2 a0 f4 3b a4 2f fd 38 de 29 fd 3a e7 b0 e0 b7
       0.0074654603 0.00012072854 0.0019314846 -2.6785257e-05
0002b0 20 92 67 b7 73 7b c9 3a 97 27 ce 38 dd 75 57 38
       -1.3802695e-05 0.0015371874 9.83022e-05 5.1369763e-05
0002c0 a9 96 ed b7 f6 be cc 3a 17 fa c1 3a db 35 01 38
       -2.8322758e-05 0.0015620876 0.0014799264 3.0806154e-05
0002d0 39 5c 75 3b 8d dd e5 3b 8c 6e 1f b9 bc c8 0c 39
       0.0037439002 0.0070149363 -0.00015204604 0.0001342622
0002e0 fe 02 a1 3a 1d 93 e4 3a eb 0e 96 3b 27 f7 b8 b8
       0.0012284217 0.0017438863 0.004579415 -8.8198394e-05
0002f0 50 b2 a6 3a 45 7e a6 3a 51 3f 13 36 9e 16 1e 3b
       0.0012717936 0.0012702426 2.1941562e-06 0.0024122368
000300 e5 6a fb 3a 48 92 0a 3b 0a 5a 5b b9 3f 00 b9 37
       0.0019181637 0.002114432 -0.0002091901 2.2053833e-05
000310 cb fc ae 3a e0 bd f9 3b c1 88 10 39 7b bd 82 38
       0.0013350485 0.007621512 0.00013783855 6.2341765e-05
000320 b4 51 02 3c 8b 8c c4 3a c8 13 0e 38 12 81 9f b6
       0.00795405 0.0014995498 3.387386e-05 -4.753595e-06
000330 1b d0 5a b9 a1 c0 c7 3a 65 99 fd 3b fa 32 c6 38
       -0.00020867625 0.0015239903 0.0077392333 9.450871e-05
000340 92 6e b4 3a 40 ca 9c b7 59 c6 aa 3a 9d f0 bc 3a
       0.0013765863 -1.869083e-05 0.0013029083 0.001441497
000350 9a e8 c5 3a 14 88 0f 38 c6 cc 91 b8 ae 2d 09 39
       0.0015099228 3.422059e-05 -6.952281e-05 0.00013082355
000360 d6 fa 55 bb 25 80 ca b7 19 0b 86 38 5f 74 48 39
       -0.003265073 -2.4139948e-05 6.391685e-05 0.00019116838
000370 f6 4d c7 3a 17 3d 0d bc 62 a7 b7 3a 62 95 87 3b
       0.0015205729 -0.008620522 0.0014011676 0.004137681
000380 f4 f1 9c 3a fc 61 92 38 24 47 73 38 49 e3 9f 39
       0.0011973963 6.9800735e-05 5.800197e-05 0.00030496184
000390 d0 2a 1a 39 2a 66 2c 3b 76 f2 33 38 9c 85 3d 3b
       0.00014702533 0.0026306012 4.2902735e-05 0.0028918749
0003a0 b7 29 51 b9 b9 7e 0d 39 0f a8 b5 b8 79 0d e7 34
       -0.00019947333 0.00013494016 -8.662056e-05 4.3036906e-07
0003b0 60 b4 0f 3a c0 f8 b0 3a 2a 01 99 3b 15 98 23 b8
       0.0005481895 0.0013501868 0.004669328 -3.9003866e-05
0003c0 a3 7c 36 38 c0 34 47 3b 3a 3a 00 3b 19 c4 44 39
       4.350826e-05 0.0030396432 0.0019565956 0.00018765069
0003d0 8e 46 b5 3a dc da b6 3a b2 2a c0 3a e5 5c d7 3a
       0.0013830231 0.0013950723 0.0014661162 0.0016430883
0003e0 e1 d5 23 39 fc c1 26 bb 78 06 e9 3a 3b 3c b2 38
       0.00015624567 -0.0025445214 0.0017778417 8.49892e-05
0003f0 83 fa d0 3a ad 7e 93 3a 41 d0 cc 38 bd 1c 8d 3a
       0.0015943799 0.0011252962 9.766268e-05 0.0010766011

acceleration.weight f4 [1, 600]
000000 fa 3e 75 3b ea 98 1e 3c f1 99 cc 37 ca 6c 1f 3c
       0.003742157 0.009680012 2.439038e-05 0.009730527
000010 3c 3b 63 38 90 cd 83 38 51 a1 0c b9 d3 7e 1f b9
       5.4176184e-05 6.284856e-05 -0.00013411535 -0.00015210667
000020 07 75 38 38 08 ad 93 38 01 8b 80 b9 71 ce c8 b8
       4.397801e-05 7.041736e-05 -0.00024517628 -9.575196e-05
000030 a6 30 10 b9 8b 7b 43 38 3f 52 f5 38 39 a6 ed bb
       -0.00013751033 4.660668e-05 0.0001169783 -0.0072524813
000040 5e 59 7b b8 7f d6 1e 3c 17 79 4c 38 7c 1a 54 38
       -5.9926293e-05 0.009694695 4.8750164e-05 5.0569404e-05
000050 ee e6 21 3c 22 0f 98 36 1f de 19 3c 55 c7 8a b8
       0.009881718 4.5317147e-06 0.009391337 -6.617481e-05
000060 a5 0c 11 b9 b2 c5 eb 38 3f ba 32 39 19 b3 1b 3c
       -0.00013832988 0.00011242497 0.00017044785 0.009503149
000070 77 e9 19 37 88 f9 81 b8 91 97 b7 3a 0f 49 03 3b
       9.173868e-06 -6.197678e-05 0.0014006962 0.002003256
000080 6f b8 12 bd 5f 68 98 38 92 d4 1b 3c 1c f7 92 b9
       -0.03582042 7.2673654e-05 0.00951113 -0.000280314
000090 83 76 15 3c bf f2 16 3c 8d 22 1d 3c b4 af 39 39
       0.009122494 0.009213149 0.009590757 0.0001770843
0000a0 7b 2a 1a 3c 75 e5 1f 3c e3 d5 ce 34 36 bf 21 3c
       0.009409542 0.009759297 3.8526113e-07 0.009872248
0000b0 d8 7e b1 37 b5 e9 11 3c f8 5a ea b8 9a 85 19 3c
       2.115911e-05 0.008905818 -0.00011174934 0.009370232
0000c0 9d db e7 b8 28 13 1c 3c 0a 95 e5 b8 68 e7 1f 3c
       -0.000110558445 0.009526052 -0.000109473316 0.009759761
0000d0 d8 17 3a b8 85 92 22 3c 45 cc 89 b8 50 9d 1a 3c
       -4.4368062e-05 0.009922628 -6.570717e-05 0.00943692
0000e0 46 5e 19 3c 8f 87 1f 3c 5b 6e cb b7 de 85 9d b8
       0.009360855 0.0097369095 -2.4250874e-05 -7.511278e-05
0000f0 e9 2e 1c 3c 8a 43 02 38 21 52 2a 39 4f 97 cd 38
       0.009532669 3.1057316e-05 0.00016243059 9.803345e-05
000100 ac c6 4a 3b 83 0e 58 38 fa c8 18 3c 9a 05 21 3c
       0.0030941172 5.1511928e-05 0.00932526 0.009827996
000110 37 a4 20 3c b9 c1 1d 3c 07 d9 46 3b 2b d7 b7 b8
       0.009804777 0.009628707 0.003034176 -8.766198e-05
000120 2e 3d de b8 7f af 1e 3c 77 ae 21 39 8e 5d 16 3c
       -0.000105971805 0.009685396 0.0001541915 0.009177579
000130 84 28 2e 3a 9d 23 21 3c c6 c6 82 3a b6 eb 03 b9
       0.00066436105 0.009835151 0.0009977452 -0.00012580943
000140 2e f6 0c b9 e3 cd 23 b9 c8 4b 22 3c 83 f9 d0 38
       -0.0001344315 -0.0001562159 0.009905763 9.964688e-05
000150 33 47 1e 3c a8 d6 03 3b 66 27 c7 38 6d 36 3e 3b
       0.00966053 0.0020116959 9.496398e-05 0.002902414
000160 02 f0 05 37 64 0b 14 3c 1b ca f4 bb c4 81 23 3c
       7.983299e-06 0.009035919 -0.007470382 0.009979669
000170 d9 a7 05 3c dd f9 d7 37 c4 4a e0 b8 6b 50 f9 3b
       0.008157694 2.5746349e-05 -0.000106950785 0.0076084635
000180 d8 3f 0a 3c 4d 61 8d b8 66 44 1a 3c ec de e3 38
       0.008438073 -6.7415276e-05 0.0094157215 0.00010865726
000190 23 72 2e b7 4d 07 01 3c 55 fe fc bb 88 bc 23 3c
       -1.0397783e-05 0.007875276 -0.0077207484 0.00999368
0001a0 89 67 1e 3c 1b 97 20 3c 64 e1 60 3b 29 a0 be 38
       0.009668239 0.009801651 0.003431403 9.089738e-05
0001b0 f0 f5 22 3c 0f e3 16 3c 05 cd 1a 3c 13 bc 1e 3c
       0.009946331 0.009209408 0.0094482945 0.009688395
0001c0 4e 20 1d 3c b5 df 1e 3c 39 24 4e 38 5c 53 b3 38
       0.009590222 0.009696891 4.9147962e-05 8.550912e-05
0001d0 da 7c 13 b7 52 65 1d 3c e3 86 38 b8 01 7c 1c 3c
       -8.790952e-06 0.009606676 -4.399464e-05 0.009551049
0001e0 20 fe 4e b8 d7 93 63 b8 b2 e3 06 3c bf bb 92 b8
       -4.93509e-05 -5.4258704e-05 0.008232998 -6.996793e-05
0001f0 d8 8b ef b8 2b 99 e1 b7 44 f9 23 3c 55 e7 18 3c
       -0.00011422456 -2.6893415e-05 0.01000816 0.009332498
000200 6e e1 1c 3c ce 85 21 3c 6b ac 21 3c 17 a0 5b b9
       0.009575231 0.009858562 0.009867768 -0.00020945106
000210 6c b2 eb 37 25 0d 23 39 60 8a a5 38 ea 10 c6 b8
       2.8097267e-05 0.00015549788 7.8935875e-05 -9.444526e-05
000220 b7 20 17 3c 7e 13 28 b9 d4 36 1a 3c 82 89 1b 3c
       0.009224108 -0.0001602899 0.009412486 0.009493234
000230 89 aa 16 3c 96 6c 42 b7 92 0f d4 38 0f 41 51 39
       0.009195932 -1.1588583e-05 0.00010111848 0.0001995603
000240 77 3b 1f 3c dd 1e 19 3c cf cb e7 39 31 8c 1f 3c
       0.009718767 0.009345737 0.00044211603 0.009738014
000250 3b 17 00 b8 e1 92 18 b9 c2 c5 23 34 4b 60 22 37
       -3.0539213e-05 -0.00014550566 1.5252502e-07 9.678372e-06
000260 1d 93 1d 3c 3c 34 69 34 e2 a7 f9 b8 3a df 1c 3c
       0.009617594 2.1718819e-07 -0.00011904516 0.009574706
000270 b1 b4 22 b8 fb 8a a7 bb 4c 7a 1d 3c e2 55 1a 3c
       -3.879209e-05 -0.0051130033 0.009611677 0.00941989
000280 05 8c 2c 3b e0 ae 99 37 94 de 1e 3c d4 ad 0b b9
       0.0026328575 1.8320454e-05 0.009696621 -0.00013320829
000290 d0 b1 23 38 eb da 5f 38 82 9d 1a 3c 73 44 1e 3c
       3.902783e-05 5.3371226e-05 0.009436967 0.009659874
0002a0 68 f4 3f 3b ce 36 0b b7 7b f2 14 3c df 7e 62 b8
       0.0029289965 -8.297806e-06 0.009091015 -5.4000757e-05
0002b0 54 f7 4e 38 ce 42 1a 3c f9 6c a5 38 e9 3d 43 b6
       4.934457e-05 0.009415342 7.888111e-05 -2.90933e-06
0002c0 aa 9d b2 b5 33 15 1c 3c 32 f4 1e 3c 36 9f bd b8
       -1.330792e-06 0.009526539 0.009701775 -9.041878e-05
0002d0 a4 c2 82 bb 3b 06 8e 3a f4 3b 9a b7 3b 3d af 38
       -0.003990488 0.0010835597 -1.8386148e-05 8.356055e-05
0002e0 bd fe 1d 3c 51 f6 19 3c ec 56 fe ba 44 10 1d b8
       0.009643254 0.009397105 -0.0019404567 -3.7446865e-05
0002f0 53 87 1c 3c 4f d0 1f 3c c9 cf 5b b5 b6 9d 04 3c
       0.009553748 0.0097542545 -8.1886225e-07 0.008094242
000300 34 db dc bb fc ff 11 3c 29 e2 7d 37 3f 5b 0c b9
       -0.0067399982 0.008911129 1.5132632e-05 -0.00013385432
000310 0d b7 21 3c e3 0d 30 3b bd 64 6a 39 f3 ab 96 38
       0.009870303 0.0026863746 0.00022353507 7.1845854e-05
000320 10 45 2a 3b a6 77 1b 3c 8e 6e b2 35 39 dc 9e b8
       0.0025981106 0.009488976 1.3294209e-06 -7.575047e-05
000330 75 7f 33 38 31 32 1d 3c 84 dd 34 3b 39 00 f1 38
       4.279563e-05 0.009594486 0.0027597854 0.00011491817
000340 1e ac 1e 3c 6b 7e c3 37 0e 6d 1c 3c 4e d5 1c 3c
       0.009684591 2.330468e-05 0.009547485 0.00957234
000350 ad cb 1b 3c 65 88 65 38 b9 0b 00 39 1a b5 b6 38
       0.009509009 5.4724882e-05 0.00012211398 8.712169e-05
000360 b7 ac 6e bb 83 67 b4 b8 58 c6 ae b8 cf e8 17 b9
       -0.0036418864 -8.6023494e-05 -8.333911e-05 -0.0001448721
000370 dc f9 20 3c f9 0e f2 bb d9 d0 1a 3c c3 42 87 3b
       0.009825196 -0.007387039 0.009449207 0.0041278317
000380 e6 ba 1e 3c a5 18 9a 38 0a 32 02 39 6c 37 77 b7
       0.009688115 7.347883e-05 0.00012416407 -1.4735251e-05
000390 32 a0 75 b7 f1 7a 07 3c a8 57 b5 37 eb 5b f3 3b
       -1.4640436e-05 0.008269058 2.16177e-05 0.007426729
0003a0 50 a9 99 b8 1d 2a 09 39 ad 69 43 b9 27 6f 4c b8
       -7.3271454e-05 0.00013081027 -0.00018636016 -4.874091e-05
0003b0 9a 84 f9 bb 40 d5 1d 3c 25 a0 79 3b db 15 c6 b7
       -0.0076146843 0.009633362 0.0038089838 -2.3613617e-05
0003c0 5c 7f 38 b7 8d 73 d0 3b 4b 0a 12 3c 5f fe 30 b8
       -1.0996908e-05 0.006361431 0.008913587 -4.219857e-05
0003d0 99 41 22 3c b6 f4 1d 3c 2d 27 22 3c fa 45 1b 3c
       0.009903335 0.009640863 0.009897036 0.009477133
0003e0 30 19 30 39 a8 33 b5 bb 4a 7b e4 bb fe 1c b0 38
       0.00016794051 -0.0055298395 -0.006972705 8.397734e-05
0003f0 3c ac 18 3c ae 28 1e 3c eb 43 16 b8 4c f3 1d 3c
       0.009318408 0.0096532535 -3.582604e-05 0.009640526
