DDPG/weights/actormodel-alpine.pth (torch_old, 767283 bytes, 7 tensors)

fc1.weight f4 [300, 29]
0	0x3a81a6f1	0.0009891671
1	0xba8920a6	-0.0010462
2	0xba81a337	-0.0009890561
3	0xba9d6bc9	-0.0012010272
4	0xba84c34e	-0.0010129006
5	0xbaa74e72	-0.0012764467
6	0xba99afa9	-0.0011725324
7	0xba904bcf	-0.0011008921
8	0xba8aa117	-0.0010576573
9	0xba8e1ce6	-0.0010842353
10	0xba96d61e	-0.0011507904
11	0xbaa4e75b	-0.0012581156
12	0xba8eed31	-0.0010904429
13	0xba81f83b	-0.0009915897
14	0xba8f2b83	-0.0010923002
15	0xbaa10d2b	-0.001228725
16	0xba8d3a05	-0.0010774737
17	0xbaa7512f	-0.0012765283
18	0xba982701	-0.0011608304
19	0xbaa6289e	-0.00126769
20	0xba8f673e	-0.0010940803
21	0xbaa79eaf	-0.001278838
22	0xba69bd54	-0.0008916457
23	0x3a60ab6b	0.0008570465
24	0xba8ca86a	-0.0010731344
25	0xba884e4c	-0.0010399311
26	0xbaa5f7ad	-0.0012662314
27	0xba9ca449	-0.0011950816
28	0xba9d8f11	-0.0012020787
29	0x3ea2b0ef	0.31775615
30	0xbd1b0344	-0.03784491
31	0xbcee4264	-0.029084392
32	0x3e19a431	0.1500404
33	0x3cd43344	0.025903352
34	0xbda4f860	-0.08055186
35	0xbc7ce4f1	-0.015435443
36	0xbcd78c31	-0.026311966
37	0xbcead68d	-0.028666759
38	0x3b83f9a1	0.004027561
39	0x3d615629	0.05501381
40	0x3d63fd4f	0.055661496
41	0x3d984a5e	0.074360594
42	0x3de88808	0.11354071
43	0x3e2c8c87	0.16850482
44	0x3eb54edc	0.35411727
45	0x3f07442e	0.5283841
46	0x3df37982	0.1188841
47	0xbec0e033	-0.3767105
48	0xbd2f879b	-0.042853933
49	0x3e428e11	0.18999507
50	0x3d9b9359	0.07596464
51	0xbe8fa74b	-0.28057322
52	0xbe22db0d	-0.15903874
53	0xbcf6765d	-0.030085737
54	0x3ccc0ea2	0.024909321
55	0x3d656970	0.056008756
56	0x3d59c6c5	0.053168077
57	0x3c62338d	0.013806236
58	0xbee47cbd	-0.44626418
59	0xbe563d4a	-0.20921817
60	0xbe8effd9	-0.2792957
61	0xbeab45ee	-0.3345179
62	0xbf179418	-0.5921035
63	0x3e3f7351	0.18696333
64	0x3e65d77c	0.22445482
65	0x3e34c065	0.17651518
66	0x3da7c647	0.08192115
67	0x3da08095	0.07837025
68	0x3d1622bc	0.03665422
69	0x3d6f8c2a	0.05848328
70	0x3e02c9f9	0.12772359
71	0x3dce21f7	0.10065072
72	0x3e12b358	0.14326227
73	0x3e3cb563	0.18428569
74	0x3e501450	0.20320249
75	0x3e764853	0.24051027
76	0x3f4a7a4e	0.7909287
77	0x3df6d885	0.120530166
78	0xbdde6581	-0.10859204
79	0xbd80856f	-0.062754504
80	0x3daae86a	0.08345111
81	0xbf3d98ee	-0.7406148
82	0x3c9ea4ec	0.01936575
83	0xbda5888a	-0.080826834
84	0xbd06acab	-0.032879513
85	0xbd72afbc	-0.059249625
86	0x3caedc7e	0.021345373
87	0x3a96b91f	0.0011499262
88	0xbb6dba35	-0.0036274318
89	0xbb14b703	-0.0022692091
90	0xbb2792e2	-0.0025569727
91	0xbb2a4c88	-0.0025985558
92	0xbb2dfeb2	-0.0026549515
93	0xbb16c469	-0.0023005253
94	0xbb1f5e04	-0.0024317512
95	0xbb232cc0	-0.00248985
96	0xbb2bda13	-0.0026222512
97	0xbb22a8cf	-0.0024819856
98	0xbb268615	-0.002540951
99	0xbb220209	-0.0024720451
100	0xbb22e0dd	-0.0024853267
101	0xbb2803b6	-0.0025636978
102	0xbb2e1e8a	-0.0026568496
103	0xbb2246cf	-0.0024761443
104	0xbb276d48	-0.0025547314
105	0xbb15968a	-0.0022825324
106	0xbb2c583c	-0.002629771
107	0xbb17bedf	-0.002315454
108	0xbb32fe81	-0.002731234
109	0xba8b32cf	-0.001062
110	0xba8063fb	-0.0009795422
111	0xbb30882c	-0.0026936634
112	0xbb2152f0	-0.0024616085
113	0xbb338818	-0.002739435
114	0xbb27b920	-0.002559252
115	0xbb38541e	-0.002812631
116	0x3f98b2a2	1.1929514
117	0x3d802050	0.06256163
118	0x3e89a116	0.2688071
119	0xbd9516da	-0.07279749
120	0xbddf12f8	-0.1089229
121	0xbdcaad50	-0.09896338
122	0x3ccb0e3d	0.024787063
123	0x3901b228	0.00012368767
124	0x3c85ec08	0.0163479
125	0x3daad91f	0.08342194
126	0x3e09c480	0.13453865
127	0x3e0c7400	0.13716125
128	0x3dcd3c1a	0.10021229
129	0x3dfaf9fc	0.12254712
130	0x3e3ab26e	0.18232128
131	0x3e853c77	0.26022694
132	0x3e867594	0.2626158
133	0x3dc47339	0.095922895
134	0x3e9b9441	0.30386546
135	0xbeba98ed	-0.36444798
136	0xbe801b87	-0.25021002
137	0x3dcd5025	0.10025052
138	0x3f860d05	1.0472723
139	0xbdac1aa1	-0.084035166
140	0xbda1d320	-0.07901597
141	0x3dd9dfad	0.10638366
142	0x3d858c8d	0.065209486
143	0x3dd20e3a	0.1025662
144	0xbd1a5ec2	-0.037688024
145	0xba18b920	-0.00058259256
146	0xba31881e	-0.0006772297
147	0xba04c43d	-0.0005064642
148	0xba1d8fdf	-0.0006010513
149	0xb9eadedf	-0.0004479801
150	0xba35c76e	-0.00069343194
151	0xba4e0885	-0.0007859546
152	0xba4240c3	-0.0007410163
153	0xba2cd860	-0.00065935217
154	0xb9d0f3fb	-0.0003985463
155	0xb9e16eed	-0.0004299799
156	0xba19e769	-0.00058709696
157	0xba2ab442	-0.0006511846
158	0xb9dff9a2	-0.00042719865
159	0xba1f2364	-0.0006070642
160	0xba29d5fa	-0.00064787234
161	0xb9cb1771	-0.00038736642
162	0xb9ac8907	-0.0003290849
163	0xb9037140	-0.00012535322
164	0xb95db1f3	-0.00021142494
165	0x39fd10ef	0.00048268537
166	0xba4b1526	-0.0007746987
167	0xb9886066	-0.00026011764
168	0xb8bf55d8	-9.1235794e-05
169	0xba2ef46d	-0.00066739955
170	0xba4e3f13	-0.0007867675
171	0xb9f8452c	-0.00047353783
172	0xba5e3c4f	-0.00084776146
173	0xba56e8f8	-0.0008198167
174	0xbf167f2e	-0.5878781
175	0x3cc40e82	0.0239327
176	0x3cb3886b	0.021915635
177	0xbe259f19	-0.16173972
178	0xbe4d9f9e	-0.2008042
179	0xbe6cc287	-0.23121081
180	0xbe4f6132	-0.20251921
181	0xbe625489	-0.2210256
182	0xbe70b5cc	-0.2350685
183	0xbe5dd761	-0.21664192
184	0xbe672b61	-0.22575141
185	0xbe68b6ad	-0.22725935
186	0xbe608bc9	-0.21928324
187	0xbe2aee78	-0.16692531
188	0xbdf4ac31	-0.119469054
189	0xbd151cb3	-0.036404323
190	0x3ed34642	0.4126454
191	0x3f4f9b61	0.81096464
192	0x3e835472	0.25650364
193	0x3d1b8597	0.037969198
194	0xbd34438f	-0.04400974
195	0x3d0bdc1e	0.034145467
196	0x3f8cc7eb	1.099851
197	0xbedf55b9	-0.4362009
198	0xbd86b6a8	-0.06577808
199	0x3da6abbb	0.08138224
200	0x3c252754	0.010080177
201	0x3d338bd2	0.043834515
202	0x3d8fdd08	0.0702458
203	0x3edf718c	0.43641317
204	0xbdfb3743	-0.122664
205	0xbe95f930	-0.29291677
206	0xbe054335	-0.13013919
207	0xbe4499ae	-0.19199249
208	0xbe148c35	-0.1450661
209	0xbdc4981e	-0.095993266
210	0xbda8a7d4	-0.08235136
211	0xbd9ac8bb	-0.075578175
212	0xbd44b0fd	-0.04802035
213	0xbd69f07d	-0.057114113
214	0xbd522982	-0.051309116
215	0xbd73b64f	-0.059500035
216	0xbd977e4a	-0.073971346
217	0xbd9d15a9	-0.07670147
218	0xbd50e2b7	-0.050997462
219	0xbc18afcd	-0.009319258
220	0xbb72e483	-0.0037062473
221	0xbeeb5798	-0.45965266
222	0x3d42e9d4	0.047586277
223	0xbdb4480c	-0.08802804
224	0x3ddf1560	0.10892749
225	0x3f67613f	0.9038276
226	0xc011f926	-2.2808318
227	0x3d9bf7d9	0.076156326
228	0x3d8eda3e	0.0697522
229	0x3dc8aca9	0.09798557
230	0x3dd5f681	0.104474075
231	0xbce12965	-0.027485559
232	0x3b44f872	0.0030055312
233	0xbb3bdcdb	-0.0028665576
234	0xbb31ad36	-0.0027111298
235	0xbb421689	-0.0029615483
236	0xbb3b9cc4	-0.0028627375
237	0xbb35e799	-0.002775645
238	0xbb3f6219	-0.0029202758
239	0xbb3fd5b4	-0.0029271664
240	0xbb3ad513	-0.002850835
241	0xbb3b9f05	-0.0028628719
242	0xbb3dc138	-0.0028954279
243	0xbb400af3	-0.0029303401
244	0xbb42815c	-0.0029679155
245	0xbb4af391	-0.003096793
246	0xbb3b8d69	-0.0028618223
247	0xbb3d40ea	-0.0028877803
248	0xbb39e894	-0.0028367387
249	0xbb3da06c	-0.002893473
250	0xbb338e4d	-0.002739805
251	0xbb41e463	-0.0029585592
252	0xbb36f638	-0.0027917754
253	0xbb418a79	-0.0029532
254	0xbb223278	-0.002474932
255	0x3ab40bf8	0.0013736477

fc1.bias f4 [300]
0	0xba993894	-0.0011689835
1	0xbe0672a4	-0.1312967
2	0xbcc2de46	-0.023787629
3	0xbb36c16c	-0.0027886285
4	0xbe32b5cf	-0.17452167
5	0xba395bfb	-0.0007070896
6	0xbd855edd	-0.06512234
7	0xbe123d0b	-0.14281099
8	0xbb3dbf67	-0.0028953196
9	0x3dcdc577	0.10047429
10	0x3d8c000d	0.06835947
11	0xbd92183e	-0.0713353
12	0xb96ea677	-0.00022759462
13	0x3e7abc7a	0.2448596
14	0xbbc7c39a	-0.0060963156
15	0xba28877d	-0.0006428881
16	0xbe377626	-0.17916164
17	0x3e403e26	0.18773708
18	0xba3c31d9	-0.0007179059
19	0xb9888e73	-0.00026046074
20	0x3e0615fe	0.13094327
21	0x3daf9b1f	0.08574509
22	0xbd4ab097	-0.049484815
23	0xbb341902	-0.0027480726
24	0xba6605d2	-0.0008774671
25	0x3d3219de	0.0434817
26	0xbda6e0c6	-0.08148341
27	0xba584beb	-0.0008251059
28	0xbc09a365	-0.008400773
29	0xba072377	-0.0005155126
30	0xbe934049	-0.28759983
31	0xba210e8e	-0.00061438314
32	0xbb502deb	-0.003176565
33	0x3db65fdc	0.089050025
34	0x3d4a6fdd	0.049423087
35	0xbca8be3d	-0.020598525
36	0xba383706	-0.0007027242
37	0xb996c25a	-0.00028755033
38	0xbcf7b7ba	-0.030238975
39	0xbe4ce329	-0.2000853
40	0xba37514b	-0.00069930096
41	0xbe5e3d90	-0.21703172
42	0xbb4f1494	-0.003159796
43	0xbd84f657	-0.06492298
44	0xba993fbd	-0.0011691969
45	0xba18f92c	-0.00058354693
46	0xbc5dd65f	-0.01353988
47	0x3dfe1e56	0.1240813
48	0xba84ec1c	-0.0010141167
49	0x3d9eb36e	0.07749067
50	0xba9be529	-0.0011893857
51	0xba992bf4	-0.0011686073
52	0x3dbb4b73	0.0914525
53	0xb9a187b6	-0.00030809426
54	0xbcc2e722	-0.023791853
55	0x3cfea381	0.031083824
56	0x3dd0e88c	0.10200605
57	0x3e19fcfa	0.15037909
58	0xbe5a5da2	-0.2132478
59	0xba07ea10	-0.00051847193
60	0xbaa29417	-0.0012403753
61	0xba1fb967	-0.0006092996
62	0xbe3b7d97	-0.18309627
63	0xbe3698a9	-0.17831673
64	0xbdfd7e8d	-0.12377653
65	0xbe7c9d8f	-0.24669479
66	0xba142f39	-0.00056527887
67	0x3d63b44a	0.05559186
68	0x3ddc17a5	0.10746697
69	0x3d4bfcf5	0.049801785
70	0xbda24194	-0.07922664
71	0x3e23bac5	0.15989216
72	0xbaa233ec	-0.0012375093
73	0xb9318a87	-0.00016931641
74	0x3dbd2349	0.09235246
75	0x3e4e5406	0.2014924
76	0x3e0f665d	0.14003892
77	0x3e31749f	0.17329644
78	0xbe4d4c2c	-0.20048589
79	0xbc3e5778	-0.011617534
80	0xbb3a2eb9	-0.0028409197
81	0xbacaa63b	-0.0015460917
82	0xbb38d8e3	-0.0028205446
83	0xba0cde5d	-0.0005373711
84	0xba2e1259	-0.0006640307
85	0x3d963512	0.07334341
86	0xbbc8404c	-0.0061111804
87	0x3db899ba	0.09013696
88	0x3de5f84f	0.11229002
89	0x3e4cf6ef	0.20016073
90	0xba348a6e	-0.0006887083
91	0xbb8974b3	-0.00419482
92	0x3a89f7a5	0.0010526074
93	0xba2d476d	-0.00066100695
94	0x3c6790f0	0.014133677
95	0xbe72ab04	-0.2369805
96	0xba232073	-0.0006222792
97	0x3e112d98	0.14177549
98	0xbdebdcab	-0.115166984
99	0x3c35d761	0.011098714
100	0xbe678c0e	-0.2261202
101	0xbacbbdbb	-0.0015544215
102	0xbe99b51f	-0.30020997
103	0xbea93f0f	-0.33055922
104	0x3d5e70df	0.05430686
105	0xbc649c69	-0.013953307
106	0x3d2de4b6	0.042454444
107	0x3e367b04	0.17820364
108	0x3d175f7e	0.036956303
109	0xb97edbd1	-0.00024305216
110	0xb98934ce	-0.0002617002
111	0xbd8da289	-0.06915767
112	0xbe21ba5c	-0.15793747
113	0xba98256d	-0.0011607833
114	0xba8bee87	-0.0010675945
115	0x3ca4a822	0.020099703
116	0xbd5e6ec7	-0.054304864
117	0x3d677191	0.05650479
118	0xba11df1b	-0.00055645563
119	0xbd3ea436	-0.046543323
120	0xba31fd49	-0.00067897566
121	0x3d3e3997	0.04644164
122	0x3cc5ff6a	0.024169642
123	0x3e1e077c	0.15432543
124	0xb9773802	-0.0002357662
125	0x3d36e57b	0.044652443
126	0xbac8a255	-0.0015307168
127	0xbde95113	-0.11392417
128	0xbb5dd776	-0.0033850349
129	0xb9ab978a	-0.00032728567
130	0x3d9746d0	0.07386553
131	0xba651eaa	-0.0008740226
132	0xbc3f382a	-0.011671105
133	0xbaa94dd9	-0.0012916877
134	0xba19ae1b	-0.00058624306
135	0x3df6b267	0.12045746
136	0x3e2d95fc	0.16951746
137	0x3d8a2e9f	0.067471735
138	0x3cbfda63	0.023419565
139	0x3d05dd42	0.03268171
140	0xb9931a8b	-0.000280578
141	0xbe27b463	-0.16377406
142	0xba9a4cee	-0.0011772194
143	0xbe224fed	-0.15850802
144	0x3e55e0be	0.20886514
145	0x3d35da18	0.044397444
146	0x3d56821a	0.05237017
147	0x3d0a909f	0.033829328
148	0x3dad6632	0.08466758
149	0x3dddfaf7	0.10838883
150	0xba954eb4	-0.0011391253
151	0xba65de28	-0.00087687606
152	0xbe0798fa	-0.1324195
153	0xbda2feef	-0.07958781
154	0x3da66179	0.0812406
155	0xbae3a301	-0.0017367305
156	0x3db857f3	0.0900115
157	0xbb42bf94	-0.002971624
158	0xbc1c01f4	-0.00952195
159	0xbcaecec4	-0.021338828
160	0xba7b975b	-0.0009597444
161	0xba255511	-0.00063069264
162	0x3d984565	0.07435111
163	0x3d766bb5	0.06016131
164	0xbe1b8150	-0.15186048
165	0xbb277008	-0.0025548954
166	0xbd8bea09	-0.06831748
167	0xbce11356	-0.02747504
168	0x3e0bdecb	0.13659208
169	0x3e2ce5c0	0.16884518
170	0xba88add5	-0.0010427783
171	0xbe5e0d27	-0.21684705
172	0xb96ac3c2	-0.00022388904
173	0xbb25ed1d	-0.0025318332
174	0xba3c94d7	-0.000719381
175	0xbdedb65b	-0.11607047
176	0x3d74abc6	0.05973413
177	0xba991476	-0.0011679071
178	0x3d66bf29	0.05633465
179	0x3e80f6fb	0.2518843
180	0x3a28ff7e	0.00064467627
181	0xba977ae6	-0.0011557012
182	0xbd05b1f6	-0.03264042
183	0xbac8ebfa	-0.0015329116
184	0x3c9b7ee9	0.018981414
185	0xbd1065e4	-0.03525342
186	0xbe5e50e4	-0.21710545
187	0xba10682e	-0.0005508688
188	0x3c72d04a	0.014820168
189	0x3d95903f	0.073029034
190	0xbe611bdc	-0.21983284
191	0x3d9dbcc7	0.07702022
192	0x3e3111cc	0.17291945
193	0x3e229779	0.15878095
194	0xbba69e08	-0.0050847568
195	0xba0556ed	-0.00050865003
196	0xbe98346d	-0.29727498
197	0x3e421ca9	0.18956245
198	0xbe4c33ff	-0.1994171
199	0x3b1e205c	0.0024128174
200	0xbd220804	-0.039558426
201	0x3d9b1b3b	0.07573553
202	0xba844a57	-0.0010092956
203	0x3e872608	0.26396203
204	0xbd7ee5d6	-0.062230907
205	0xba15b1c8	-0.00057103904
206	0x3cb24d78	0.021765456
207	0xbb24d9e0	-0.0025154278
208	0xba27a2f4	-0.00063948263
209	0x3da48beb	0.080345
210	0xbdf1b407	-0.118019156
211	0xbdf842ad	-0.121220924
212	0xbe149b65	-0.14512403
213	0x3d26a96a	0.04068891
214	0xbe2cdde4	-0.1688152
215	0x3d8a54f5	0.067544855
216	0xbdc2a109	-0.09503371
217	0xba02ddbc	-0.00049921474
218	0xba986016	-0.0011625316
219	0xbacb6835	-0.0015518727
220	0x3cf40baf	0.029790727
221	0xba9851f6	-0.0011621106
222	0x3c8c0a7c	0.017094843
223	0xb961f2b2	-0.00021548083
224	0xbc73952b	-0.014867107
225	0xbcdad34e	-0.026712086
226	0xba3103c9	-0.0006752578
227	0xbd8cc2c0	-0.06873083
228	0xbd8c695d	-0.06856034
229	0x3dd5cfbd	0.104400136
230	0x3e0772d5	0.13227399
231	0x3d0340b8	0.032044142
232	0x3e18277a	0.14858809
233	0x3e0a4293	0.13501959
234	0xbd2b5d56	-0.04183706
235	0xbad505f4	-0.0016252385
236	0x3e8464ce	0.25858158
237	0x3e14b2e0	0.1452136
238	0x3da66063	0.08123853
239	0x3c98e762	0.01866502
240	0xbd1c0453	-0.03809006
241	0xba982f02	-0.0011610689
242	0x3d2180a4	0.039429322
243	0x3d28bde8	0.041196734
244	0xbd9997b6	-0.0749964
245	0x3e451c03	0.19248967
246	0x3db0d6e0	0.08634734
247	0x3e1cc7ac	0.15310544
248	0xba172336	-0.000576544
249	0xbb3bcc90	-0.0028655864
250	0x3e441039	0.19146813
251	0xba3f9070	-0.00073075946
252	0xbb4c7b29	-0.003120134
253	0x3c22529d	0.009907392
254	0xba03059c	-0.0004998089
255	0xbda77d79	-0.08178229

fc2.weight f4 [600, 300]
0	0x38a0e6c5	7.672379e-05
1	0xbe969ac2	-0.29414946
2	0x3c80e2f7	0.015733225
3	0x3b11bc9b	0.0022237662
4	0xbdb8578f	-0.090010755
5	0x38a31be8	7.7776436e-05
6	0xbe9f3a57	-0.31099197
7	0x3eb0053d	0.34378996
8	0xbb4228c5	-0.0029626351
9	0xbdad4e96	-0.08462255
10	0xbcdc4f8d	-0.026893402
11	0xbd82b635	-0.063824095
12	0xb90f8dab	-0.00013690318
13	0x3daf712e	0.08566509
14	0x3c968c5f	0.018377481
15	0x39828cf5	0.00024900553
16	0x3b790d3b	0.003800227
17	0x3bbe5d5b	0.0058094687
18	0x370eaa35	8.503489e-06
19	0x3791215b	1.730088e-05
20	0x3d469aad	0.048487354
21	0x3b50fa5a	0.0031887502
22	0xbc8bfc73	-0.01708815
23	0xbd4735eb	-0.048635405
24	0xb791fca8	-1.7403e-05
25	0xbc7da7e9	-0.015481927
26	0x3d8a5886	0.06755166
27	0xb90483fc	-0.00012637669
28	0xbda4ed9d	-0.08053134
29	0x3a143811	0.00056541065
30	0xbd9cbe17	-0.07653444
31	0x384d9388	4.9013208e-05
32	0x3b5138fa	0.003192483
33	0xbe16074f	-0.14651226
34	0x3cfd6272	0.030930731
35	0xbeab2733	-0.33428344
36	0x372f88d0	1.0462667e-05
37	0xb8155c89	-3.561055e-05
38	0xbe43c27e	-0.19117162
39	0xbed8b7dd	-0.42327777
40	0xb7230e93	-9.71895e-06
41	0xbeb0c339	-0.34523943
42	0xbd5129c8	-0.051065236
43	0xbdc2af9b	-0.0950615
44	0x389a6543	7.362154e-05
45	0xb7ee5b73	-2.8414395e-05
46	0xbd4b243f	-0.049595114
47	0x3d391d64	0.045194045
48	0xbe0eb0b6	-0.13934597
49	0xbdd0fe70	-0.1020478
50	0x37ec9ad6	2.8205493e-05
51	0xb927409b	-0.00015950428
52	0x3d684c51	0.056713406
53	0xb7ba4ba8	-2.2208158e-05
54	0x3d0741b9	0.033021662
55	0x3d9f9d57	0.07793682
56	0x3d692167	0.05691662
57	0x3d8036fa	0.06260486
58	0x3bbf63d1	0.0058407565
59	0x39235595	0.00015576773
60	0x391b7b7d	0.00014827955
61	0x38204abb	3.821657e-05
62	0xbd57c6bc	-0.052679762
63	0xbdcad7a0	-0.099044085
64	0xbe7eb668	-0.2487427
65	0x3c765461	0.015034766
66	0x38bcd0c9	9.003428e-05
67	0xbd1eb992	-0.038751192
68	0xbe15671a	-0.14590111
69	0x3dc9f3ba	0.0986094
70	0xbea16ad4	-0.31526816
71	0xbdf9ad1b	-0.121912204
72	0xb86edab0	-5.694729e-05
73	0x38aa329a	8.115657e-05
74	0x3d305c07	0.043056514
75	0xbe2a10cd	-0.16607971
76	0x3d180201	0.037111286
77	0xbd010eb9	-0.03150818
78	0xbce7a2c0	-0.028275847
79	0xbda6bd2e	-0.08141552
80	0x3cd4b4ad	0.02596506
81	0x3a093d85	0.00052353024
82	0x3b21337a	0.0024597333
83	0x384b3c1f	4.8454964e-05
84	0xb88fdbcb	-6.859711e-05
85	0x3d1746f1	0.03693289
86	0x3771c5b9	1.4410755e-05
87	0xbd1c0e4b	-0.03809957
88	0xbea65443	-0.32486162
89	0xbd9da669	-0.07697756
90	0x392a9e4c	0.00016271434
91	0x3d59a2f7	0.05313393
92	0x3ccdff48	0.025146142
93	0x38c8f161	9.5817035e-05
94	0xbce4ed18	-0.027945086
95	0xbbed5ee3	-0.0072439774
96	0xb809247b	-3.269732e-05
97	0xbc953653	-0.01821438
98	0xbeb51180	-0.35364914
99	0xbdc8b72c	-0.09800562
100	0xbef8fbee	-0.48629707
101	0x39c070bd	0.0003670509
102	0xbdfa8123	-0.12231662
103	0xbe96d240	-0.29457283
104	0xbd736f3b	-0.05943225
105	0xbe65c72b	-0.22439258
106	0x3d78a1a1	0.060701016
107	0x3d967a17	0.073475055
108	0x3d6ad2d6	0.057329975
109	0xb8464b69	-4.727711e-05
110	0xb892756b	-6.983693e-05
111	0x3c098a9b	0.0083948625
112	0xbecf0773	-0.4043537
113	0xb85e58bf	-5.3011576e-05
114	0x3a89fe62	0.0010528082
115	0x3cdd7589	0.027033584
116	0x3c073386	0.00825203
117	0x3c8deeda	0.017325807
118	0x38e77f40	0.000110386405
119	0x3df7c8dd	0.120988585
120	0xb7a0af09	-1.9154993e-05
121	0xbbee26ea	-0.0072678225
122	0x3bcd6121	0.006267682
123	0xbdc315e3	-0.09525659
124	0xb81a729e	-3.6823207e-05
125	0xbd54d0dc	-0.051956996
126	0x3913d0bf	0.00014096776
127	0x3dafe60d	0.085888006
128	0xb92940cd	-0.00016141236
129	0xb94156f6	-0.0001843831
130	0xbd5a2a9d	-0.053263295
131	0x3869b5e4	5.5720928e-05
132	0x3e21f502	0.1581612
133	0x39182985	0.00014511317
134	0xb882928d	-6.22618e-05
135	0x3d548c00	0.051891327
136	0xbdb86303	-0.0900326
137	0x3d9d3095	0.07675282
138	0xbdc5e341	-0.09662486
139	0xbd13d1a5	-0.036088604
140	0x3c27f8fd	0.0102522345
141	0xbe55399f	-0.20822762
142	0xb8855f46	-6.35968e-05
143	0xbd775f89	-0.060393844
144	0x3e06efc6	0.13177404
145	0x3d96a024	0.07354763
146	0xbd6c7243	-0.057726156
147	0xbe386d3d	-0.18010421
148	0x3dabb080	0.08383274
149	0xbdb0be0d	-0.08629999
150	0xb8b9979b	-8.849726e-05
151	0x362d3e17	2.581515e-06
152	0xbec94492	-0.39310127
153	0xbbec9b28	-0.0072206445
154	0xbd8fbc9c	-0.07018396
155	0x3aea84f5	0.0017892407
156	0xbe27c0ce	-0.16382143
157	0x3b32553c	0.0027211448
158	0xbe02f641	-0.12789251
159	0xbe47511a	-0.19464532
160	0x39175b0e	0.00014434403
161	0x39359e00	0.00017320365
162	0xbe345661	-0.17611076
163	0x3d7f3fca	0.062316693
164	0x3b647607	0.003486039
165	0x3b257e1b	0.0025252167
166	0x3b30d1d8	0.0026980545
167	0xbe488485	-0.19581802
168	0xbd592a91	-0.05301911
169	0xbe0b0514	-0.13576156
170	0xb8cfb2f6	-9.903863e-05
171	0xbd4a58f0	-0.049401224
172	0x3978a74e	0.00023713449
173	0x3b52b0cf	0.0032148843
174	0x377e4a74	1.5156915e-05
175	0xbedef426	-0.43545645
176	0xbe7e3219	-0.24823798
177	0x36bf4c68	5.7011384e-06
178	0x3b800dc4	0.003907891
179	0xbd1b0373	-0.037845086
180	0x3c060e0d	0.008182061
181	0x3a98ffe7	0.0011672945
182	0xbc318e24	-0.010837112
183	0xb81179c1	-3.4684086e-05
184	0xbdb472e1	-0.08810974
185	0xbce88e55	-0.028388182
186	0x3ab867eb	0.0014069056
187	0xb6ed8a80	-7.079274e-06
188	0xbd86da93	-0.065846585
189	0xbd4ecdf9	-0.0504894
190	0xbd511b35	-0.051051337
191	0xbd2f405c	-0.042785987
192	0xbd8da082	-0.0691538
193	0xbd8187d8	-0.06324738
194	0x3c6be859	0.014398658
195	0x38e6e6d7	0.00011010252
196	0xbf387bd9	-0.72063977
197	0x3ca7cc8a	0.020483274
198	0xbed9d7d8	-0.42547488
199	0x3d0cbc91	0.03435952
200	0xbdd0b39e	-0.10190509
201	0xbc30f51f	-0.010800629
202	0xb8f394f3	-0.00011614887
203	0x3c9465a1	0.018114867
204	0xbd3cd3c6	-0.0461004
205	0xb93b1148	-0.00017840147
206	0xbc250d3e	-0.010073958
207	0x3b1968ca	0.0023408406
208	0x38b7defc	8.767654e-05
209	0xbe9ed27f	-0.3101997
210	0xbe0399c7	-0.1285163
211	0xbeadb56e	-0.33927482
212	0xbedc147b	-0.42984375
213	0xbe31fe8a	-0.17382255
214	0xbd626e85	-0.05528118
215	0xbd960cf4	-0.07326689
216	0xbdab63c6	-0.0836864
217	0x37b3ade0	2.141943e-05
218	0x3a9ff13c	0.0012202631
219	0xbaa1742c	-0.0012317947
220	0xbdb24fe6	-0.08706646
221	0x3830e3d0	4.2173837e-05
222	0xbca53fb6	-0.020171981
223	0xb90e4c18	-0.00013570522
224	0xbd4c5127	-0.04988208
225	0xbda7cc28	-0.081932366
226	0xb746bd9f	-1.1845869e-05
227	0x3ce290af	0.027656881
228	0xbd50cec7	-0.05097845
229	0xbe30a825	-0.17251642
230	0xbdbf482d	-0.09339938
231	0xbeb80167	-0.3593857
232	0xbdc7e76c	-0.09760937
233	0xbd2a96cd	-0.04164772
234	0x3c8ca6cb	0.017169377
235	0x3aa0fe00	0.0012282729
236	0xbdc1f9e0	-0.09471488
237	0xbeb913f3	-0.36148033
238	0xbe643209	-0.22284712
239	0x3b57b156	0.0032912097
240	0x3d779919	0.06044874
241	0x38e33835	0.00010834673
242	0xba51225a	-0.0007977836
243	0xbd196f9f	-0.037459966
244	0xbe8a534c	-0.27016675
245	0x3afbe14e	0.0019216926
246	0x3da614a6	0.08109407
247	0xbca2a1e6	-0.01985259
248	0x38bee54d	9.1026166e-05
249	0xb87c40fb	-6.0142e-05
250	0xbdbedfa9	-0.093200035
251	0x37bf2cb7	2.2789796e-05
252	0xbb33e0d8	-0.002744725
253	0xbd319442	-0.04335428
254	0x38437fb7	4.6610567e-05
255	0xbdee3cf5	-0.116327204

fc2.bias f4 [600]
0	0xbd0e7e98	-0.034788698
1	0xbb35cad3	-0.00277393
2	0xbbe9fda1	-0.0071408306
3	0xbb157bd6	-0.0022809408
4	0xbb502d9a	-0.0031765462
5	0xbd997e5d	-0.07494805
6	0xbe00b362	-0.12568429
7	0xbb3154bd	-0.0027058565
8	0xbb4d84fd	-0.0031359785
9	0xbb4ff02f	-0.0031728854
10	0xbb502974	-0.003176299
11	0xba0df9ce	-0.0005415947
12	0xbb3669f9	-0.002783416
13	0xbb66f9b9	-0.003524406
14	0xbb75558b	-0.003743502
15	0xbb76495d	-0.003758035
16	0xba0559ac	-0.00050869095
17	0x3bac6ef5	0.0052622505
18	0xbc07220d	-0.008247864
19	0xbb961442	-0.0045800516
20	0xbb4a6850	-0.003088493
21	0xbae1166f	-0.0017172823
22	0xbd112bf7	-0.03544232
23	0xba53c97e	-0.0008079036
24	0xbd2c511c	-0.04206954
25	0xbd8609f8	-0.0654487
26	0xbb0d4522	-0.00215561
27	0xbb0ab0c5	-0.0021162492
28	0xba1617d9	-0.00057255995
29	0xbaf4d76b	-0.0018679922
30	0xbb2142b5	-0.002460641
31	0xbb5015c9	-0.0031751266
32	0x3dab2eb8	0.0835852
33	0xbda3ad62	-0.079920545
34	0xbb3a7c71	-0.002845552
35	0xbd86de50	-0.065853715
36	0xbb0e525a	-0.0021716566
37	0xbeb13fbe	-0.34618944
38	0xbb42da9f	-0.002973236
39	0xbdb1c184	-0.08679488
40	0x3ba17004	0.0049266834
41	0xb900ad30	-0.00012271549
42	0x3d03ca28	0.032175213
43	0x3dcb66d4	0.09931722
44	0x3db9dea5	0.09075669
45	0xbadf2f08	-0.0017027566
46	0xbb750599	-0.003738737
47	0x3d56555c	0.0523275
48	0xbd86fa75	-0.0659074
49	0xbb79206b	-0.0038013707
50	0xbb2ed2ab	-0.002667586
51	0x3b6e2226	0.0036336272
52	0x3d5437c8	0.05181101
53	0xbb672143	-0.0035267628
54	0xbb4486fb	-0.0029987681
55	0xbb6e9ace	-0.0036408189
56	0xbb2bcd50	-0.0026214905
57	0xbb9e5d13	-0.0048328727
58	0xbda994dc	-0.08280346
59	0xbd9e77c8	-0.0773769
60	0xbda09508	-0.078409255
61	0xbb5adac2	-0.003339455
62	0xbb723ed1	-0.003696371
63	0xbb2eadeb	-0.0026653956
64	0xbdd2b434	-0.10288277
65	0xbb23bfd8	-0.0024986174
66	0xbb723cba	-0.0036962465
67	0xbbb941cf	-0.005653597
68	0xb7b1f97d	-2.1216221e-05
69	0x3d230453	0.039799046
70	0xbb6782a7	-0.0035325678
71	0xbb4fff71	-0.0031737948
72	0xbb1f26ef	-0.002428468
73	0xbe20f378	-0.15717876
74	0xbb29ebd5	-0.002592792
75	0x3bf02a7e	0.007329284
76	0xbc2a5784	-0.010396842
77	0xba016d84	-0.00049372786
78	0x3e013ba6	0.1262041
79	0xbb502c2a	-0.0031764605
80	0xbae0a2ff	-0.001713842
81	0xbacc3598	-0.0015579937
82	0xbd817837	-0.06321757
83	0xbb1cb386	-0.0023910715
84	0xbb508144	-0.003181533
85	0xbb586b39	-0.0033022894
86	0xbb75e6bc	-0.0037521562
87	0xbbcb65f4	-0.006207222
88	0xbadd0c97	-0.0016864714
89	0xbb1b9fc2	-0.0023746346
90	0xbd85e89c	-0.06538507
91	0xba177974	-0.0005778291
92	0xbb3ca155	-0.0028782685
93	0xbb73e205	-0.0037213576
94	0x3d3c466e	0.045965604
95	0x3ca01d18	0.019545123
96	0xbb72b31a	-0.0037033022
97	0xbb3e468c	-0.0029033748
98	0xbd00fd83	-0.031491768
99	0xbc0c87a9	-0.008577266
100	0xbb06c58a	-0.002056452
101	0xbadfc512	-0.0017072281
102	0xbb43c6bf	-0.00298731
103	0xbb4f9f98	-0.0031680819
104	0xbdb63729	-0.0889724
105	0xbd74393a	-0.059624888
106	0xbd2144e2	-0.039372332
107	0x3dd7d5c8	0.105388224
108	0xba06611b	-0.0005126164
109	0xba07f3ab	-0.00051861507
110	0xba11bc89	-0.0005559405
111	0xbb71c737	-0.0036892423
112	0xba21e391	-0.00061755726
113	0xbb6c7c67	-0.0036084892
114	0xbc08c048	-0.008346625
115	0x3dec94c0	0.11551809
116	0xbe050e59	-0.12993754
117	0xbb0944a2	-0.002094545
118	0xbcf887d8	-0.030338213
119	0xba47544c	-0.0007603809
120	0x3e91efdc	0.2850331
121	0x3e7bdbf6	0.24595627
122	0xbafa758c	-0.0019108518
123	0xbb674322	-0.0035287817
124	0xbd20666c	-0.039160177
125	0xbd86b119	-0.065767474
126	0xbae57ae7	-0.0017507941
127	0xbd87220d	-0.065982915
128	0xbb484e2c	-0.0030564172
129	0xbaec637d	-0.0018035021
130	0xbdc04213	-0.09387603
131	0xbb11ba8b	-0.0022236432
132	0xbd85307e	-0.0650339
133	0xbd7fbd54	-0.062436417
134	0xbb765fbd	-0.0037593686
135	0x3e7483a2	0.23878339
136	0x3c98f57a	0.01867174
137	0xbb33a82f	-0.0027413478
138	0xba100c1b	-0.0005494968
139	0xbb230c61	-0.0024879205
140	0xbaf7f9c5	-0.0018919042
141	0xbb14ca2b	-0.002270351
142	0xbd86c7fa	-0.06581111
143	0xbb7557da	-0.0037436397
144	0x3ccbc7ce	0.024875548
145	0xbdd52aff	-0.104085915
146	0xbbbfa6c2	-0.0058487365
147	0x3e090aa9	0.13382973
148	0xbdb44d65	-0.08803824
149	0xbb5ca6d8	-0.0033668783
150	0x3d7cbb7c	0.061702237
151	0xbb78e522	-0.003797837
152	0xbbadf968	-0.0053092726
153	0xbb405f8f	-0.0029353832
154	0xbb2a99d9	-0.0026031642
155	0xbb9481f1	-0.004532092
156	0xbd81bbca	-0.06334646
157	0xba1567c5	-0.0005699362
158	0x3daebc2e	0.08531986
159	0xbc975cc7	-0.018476857
160	0xbb4faba6	-0.0031688004
161	0x3d87b6bd	0.066266514
162	0xbb5e4023	-0.003391274
163	0xbd8da02f	-0.06915318
164	0xbd81487d	-0.06312654
165	0xbb30c74b	-0.0026974257
166	0xbb4e59b5	-0.0031486575
167	0x3caeb211	0.021325143
168	0xbda4aa3a	-0.08040281
169	0xbb15e74e	-0.0022873464
170	0xbb458995	-0.003014182
171	0xbb84aa00	-0.004048586
172	0xbd9e8f95	-0.0774223
173	0xbb6c687b	-0.0036073017
174	0xbb1b9ef7	-0.0023745873
175	0xbb731358	-0.0037090387
176	0x3cfadfeb	0.03062435
177	0xbd72460d	-0.059148837
178	0xbb62b2f3	-0.0034591525
179	0xbabebe98	-0.0014552651
180	0xbb5020ad	-0.0031757758
181	0xbdf7a325	-0.12091664
182	0xbb220a4d	-0.0024725378
183	0x3de2b744	0.110701114
184	0xbb43f2fa	-0.0029899464
185	0xbbf382d3	-0.007431367
186	0xbd0d4e92	-0.03449876
187	0xbd943e37	-0.07238429
188	0xbb4817ba	-0.003053172
189	0xbb0853c9	-0.0020801893
190	0xbbe7229f	-0.0070536877
191	0xbb370232	-0.0027924892
192	0x3c9e67b1	0.019336553
193	0xbaf4d06d	-0.0018677838
194	0xbb00e93b	-0.0019670266
195	0xbc1f29ea	-0.009714583
196	0x3cbc0db5	0.022955755
197	0xbc17ebf5	-0.009272565
198	0xba0f7f18	-0.00054739555
199	0xbb4b07b3	-0.003097993
200	0xba17c17f	-0.0005789026
201	0xbb2072dc	-0.0024482524
202	0x3d90bb8c	0.07067022
203	0x3d332e73	0.04374547
204	0xbb008a0d	-0.0019613535
205	0x3e525a65	0.20542295
206	0x3d50b64b	0.050955098
207	0xbb05bec3	-0.0020407892
208	0xbda828bb	-0.08210894
209	0xbb6c4737	-0.003605319
210	0xbc990b53	-0.018682158
211	0xbd80f495	-0.0629665
212	0xbda1cca2	-0.07900359
213	0xbd6c4572	-0.057683416
214	0xbb39da6d	-0.0028358952
215	0xbb8af2b9	-0.0042403606
216	0xba9ccb4b	-0.0011962441
217	0xbdcc5d99	-0.0997879
218	0xbd8452d9	-0.064611144
219	0xbae8167a	-0.0017706894
220	0xbb38cc95	-0.0028198112
221	0xbbaef97d	-0.0053398
222	0x3ca2653a	0.01982366
223	0xbda70d7b	-0.08156868
224	0xbd50e137	-0.05099603
225	0xbb502cf6	-0.003176508
226	0xbb3798d6	-0.0028014681
227	0xbb024a01	-0.0019880536
228	0xbb171719	-0.0023054539
229	0xbb4f6b5e	-0.003164969
230	0xbb730a9b	-0.0037085179
231	0xbd9990d9	-0.074983306
232	0xbdaf73ca	-0.08567007
233	0xbbd202ce	-0.0064090258
234	0xbcbd6e5b	-0.02312391
235	0xbd75aecb	-0.05998115
236	0xba9cdc25	-0.0011967464
237	0xbb8c591e	-0.0042830845
238	0xbb3ea2cd	-0.0029088736
239	0xbb4519e5	-0.0030075249
240	0x3b097cc6	0.0020978912
241	0x3e113904	0.14181906
242	0xbb70db22	-0.0036751707
243	0xbb3f445d	-0.0029185035
244	0xbb4e5bd5	-0.0031487842
245	0xbb313c2a	-0.0027043917
246	0xbbfdd468	-0.007746268
247	0xbbc37079	-0.0059643355
248	0xbacf0b01	-0.0015796126
249	0x3de77473	0.11301508
250	0x3d7c47d8	0.061591953
251	0xba04f87a	-0.0005072426
252	0xbb0bc595	-0.0021327485
253	0xbb16d96d	-0.002301778
254	0xbb4fd74f	-0.0031714027
255	0x3be08040	0.006851226

steering.weight f4 [1, 600]
0	0xbe229584	-0.15877348
1	0x3b2bf12b	0.0026236277
2	0x3b9e73d8	0.004835587
3	0xbadea275	-0.0016985672
4	0x3b4f7aa2	0.0031658788
5	0x3fb87347	1.441018
6	0xbe1d128d	-0.15339108
7	0xbb4982a6	-0.0030748039
8	0x3b4aae5e	0.0030926685
9	0x3b472bae	0.0030391025
10	0x3b4865c1	0.0030578228
11	0x38f1abd4	0.00011523781
12	0xbb02f599	-0.0019982813
13	0xbb452a8c	-0.0030085174
14	0x3b4d51fb	0.0031329382
15	0x3b4ccd79	0.00312504
16	0xb9094955	-0.00013092656
17	0x3d22b070	0.039719045
18	0xbe864034	-0.26220858
19	0x3b08c782	0.002087087
20	0xbb343f87	-0.0027503686
21	0x3c68bc9e	0.014205126
22	0x3ef16634	0.47148287
23	0x3a227a72	0.00061980553
24	0x3cbb0083	0.022827392
25	0x3e4b0176	0.19824776
26	0xbb2fb6b5	-0.0026811783
27	0xbac90e3e	-0.0015339328
28	0x38ce8ad6	9.848706e-05
29	0xbac83e34	-0.0015277327
30	0xbb19d00f	-0.002346996
31	0xbb4cc0e2	-0.0031242897
32	0x3d998db7	0.07497733
33	0xbdf8f946	-0.1215692
34	0xbb398856	-0.0028310022
35	0xbd763126	-0.060105465
36	0xbad96b5f	-0.0016587785
37	0xbcca0ece	-0.024665263
38	0x3b3fb39b	0.002925134
39	0xbe8ea83e	-0.27862734
40	0x3d8ddf38	0.06927341
41	0x38c904d5	9.585327e-05
42	0xbcbfa6aa	-0.023394901
43	0xbfb7614b	-1.4326566
44	0xbe3354f1	-0.17512871
45	0xbad7584b	-0.0016429512
46	0xbae115f2	-0.0017172678
47	0x3e89cb3a	0.26912862
48	0x3e4bd443	0.1990519
49	0xbb47e2bc	-0.0030500134
50	0xbb018f61	-0.0019769298
51	0xbb0877b5	-0.0020823304
52	0x3e9d04ba	0.3066767
53	0xbb3d2da9	-0.0028866327
54	0x3b3fcd8d	0.0029266805
55	0x38bdc6df	9.049265e-05
56	0x3eeb35ce	0.45939487
57	0xb9c49f73	-0.00037502832
58	0xbd965208	-0.07339865
59	0xbdc6b460	-0.097023726
60	0xbde94c07	-0.11391454
61	0xbb28a4a5	-0.0025732901
62	0xbb46ff47	-0.003036456
63	0xbb306dfa	-0.002692102
64	0xbeb2d160	-0.34925365
65	0xbb1d0875	-0.002396134
66	0x3b7e69b1	0.0038820321
67	0x3a041016	0.00050377974
68	0x3ca995bf	0.020701287
69	0xbc62e771	-0.013849125
70	0xbb35666b	-0.0027679454
71	0x36b33a66	5.341414e-06
72	0xbb1c9346	-0.0023891493
73	0x3dda13da	0.10648318
74	0x3b152021	0.0022754746
75	0xbd83c3fe	-0.06433867
76	0xbd82711c	-0.0636923
77	0x38a21a7a	7.7296936e-05
78	0xbfcad8b7	-1.5847386
79	0x3b47b9a9	0.0030475652
80	0xbad1bd7b	-0.0016001904
81	0xbb28ad3b	-0.002573802
82	0x3e325b18	0.17417562
83	0xbb247e15	-0.0025099565
84	0x3b60bf44	0.003429369
85	0x3b2e3be8	0.0026586
86	0xbb4208f9	-0.00296074
87	0xbb33a4d8	-0.0027411487
88	0xbac628a3	-0.0015118312
89	0xbb149c54	-0.0022676187
90	0x3e466334	0.1937378
91	0xb9dbb89b	-0.00041908477
92	0xbb36c8cd	-0.0027890683
93	0x3b8391d8	0.0040151887
94	0x3b9b1d6c	0.004733732
95	0xbf4e149e	-0.8050021
96	0xb816d407	-3.5960253e-05
97	0xbb165b6a	-0.002294267
98	0x3e26b1e8	0.16278803
99	0xb9c193c4	-0.00036921923
100	0xbac72752	-0.0015194213
101	0xba8053fc	-0.0009790654
102	0xbb1fe3fa	-0.002439736
103	0x3b422399	0.0029623269
104	0xbe857ca6	-0.26071662
105	0x3ec6e443	0.38846025
106	0x3f24bd2e	0.64351165
107	0x3b4b86f8	0.003105579
108	0x38a5d91b	7.908252e-05
109	0xb8de4d72	-0.0001060021
110	0x386e77bf	5.6855144e-05
111	0xbb4c8fdb	-0.0031213674
112	0xba18e35f	-0.0005832221
113	0x3afc3b3f	0.0019243731
114	0xbc8d46ff	-0.017245768
115	0xbed32b3a	-0.41243917
116	0x3f17bdc9	0.59273964
117	0x3b6b27f6	0.0035881973
118	0xbe93ef18	-0.28893352
119	0x3a262532	0.000633794
120	0xbe87bb33	-0.2651001
121	0xbe4143d9	-0.18873538
122	0x3b07aba5	0.0020701673
123	0xbdbbfedc	-0.0917947
124	0x3f26f100	0.65211487
125	0xbe008848	-0.12551987
126	0xbad5af14	-0.0016302788
127	0x3e4e6256	0.201547
128	0xbb1afd5b	-0.0023649547
129	0xbae64dbd	-0.0017570775
130	0x3ee1c112	0.44092613
131	0xbae49b06	-0.001744122
132	0x3e4890aa	0.19586435
133	0x3e294578	0.16530406
134	0x3b28f644	0.0025781551
135	0xbd855c59	-0.065117545
136	0x3e7a1d68	0.2442528
137	0xbb3a021b	-0.0028382603
138	0xb4945290	-2.762722e-07
139	0x3b2fef73	0.0026845604
140	0xbaf52525	-0.0018703087
141	0xbb12862a	-0.00223578
142	0xbd9becd0	-0.07613528
143	0x3b4d7701	0.003135145
144	0x3b590183	0.0033112473
145	0xbe44fa9e	-0.19236228
146	0xbb317929	-0.0027080274
147	0xbd97157e	-0.07377146
148	0xbef57a98	-0.47945094
149	0x3b3a2253	0.0028401806
150	0xbed0a841	-0.40753368
151	0xbaa09f9e	-0.0012254601
152	0xbb290703	-0.0025791533
153	0x3b466623	0.003027328
154	0xbb49174f	-0.003068406
155	0xbb0f070e	-0.0021824273
156	0x3e311f33	0.17297058
157	0x390ea119	0.00013602189
158	0xbe472f4f	-0.1945164
159	0xbd6ece8f	-0.05830246
160	0xbb4e3a68	-0.0031467918
161	0x3e9983bf	0.29983327
162	0xbb34846c	-0.002754475
163	0xbe09d504	-0.13460165
164	0x3e31803d	0.17334075
165	0xbb0896e6	-0.0020841896
166	0xbb483bd3	-0.0030553236
167	0x3c88061f	0.016604481
168	0xbf272cdc	-0.65302825
169	0x3b5db384	0.0033828923
170	0xbb2037d8	-0.0024447348
171	0x3a41f92d	0.0007399496
172	0xbdd42372	-0.10358323
173	0x3b4bb467	0.003108287
174	0xbb179019	-0.002312666
175	0xbb4a3011	-0.0030851404
176	0x3fb17a0b	1.386537
177	0x3bf4e125	0.0074731284
178	0xbb4fa8b2	-0.0031686244
179	0x3a920991	0.0011141767
180	0x3b4d7eee	0.0031356174
181	0xbe8a950d	-0.27066842
182	0xbb21ede6	-0.002470845
183	0xbfa5767f	-1.2926787
184	0xbb1b513e	-0.0023699547
185	0x3ab45c2b	0.0013760378
186	0x3afc6db9	0.0019258774
187	0xbf0e0d63	-0.55489177
188	0xbb1c629d	-0.002386249
189	0xbb677741	-0.0035318884
190	0xbbd8b815	-0.006613741
191	0x3b37f7fd	0.0028071397
192	0xbe98b2bd	-0.29823866
193	0xbb010549	-0.0019686988
194	0xbac7ec2e	-0.0015252882
195	0xba909fc8	-0.0011033947
196	0xbe110dde	-0.14165446
197	0x3e9ec2e2	0.3100806
198	0xb50cb112	-5.2411735e-07
199	0xbb1e88ec	-0.0024190499
200	0x395e1c4c	0.00021182111
201	0xbae1a2fe	-0.0017214713
202	0x3e289cf0	0.16466117
203	0x3ed7c8ad	0.4214529
204	0xbae981a0	-0.001781512
205	0x3e02846c	0.12745827
206	0xbea74ac4	-0.3267423
207	0xbac4f478	-0.0015026471
208	0x3f21baf5	0.631759
209	0xbb465b26	-0.003026673
210	0xbf2e1136	-0.6799501
211	0x3e2b9366	0.16755447
212	0xbdcb0b41	-0.09914256
213	0x3e2d159d	0.16902776
214	0x3b15bb05	0.0022847068
215	0xb998aba6	-0.00029119587
216	0x3a8cd266	0.0010743856
217	0x3dd2f859	0.10301275
218	0x3e47a005	0.19494636
219	0xbada1292	-0.0016637614
220	0xbafaf582	-0.0019146653
221	0xba39e6b8	-0.000709157
222	0x3e823827	0.25433466
223	0xbdc9b1c0	-0.09848356
224	0xbe6d0756	-0.2314733
225	0x3b50dbb9	0.0031869246
226	0xbb338c27	-0.002739677
227	0xbb009491	-0.0019619802
228	0xbac798a2	-0.0015227983
229	0xbb112e99	-0.0022153019
230	0xb9b7791f	-0.00034994722
231	0xbec7a07d	-0.3898963
232	0xbe27c98c	-0.16385478
233	0x3b291204	0.0025798092
234	0xbe209210	-0.15680718
235	0xba826681	-0.0009948761
236	0x38bd67fd	9.0315916e-05
237	0xbab1ea1a	-0.0013573796
238	0x3b3a957e	0.0028470452
239	0xbb1bac5a	-0.0023753853
240	0x3ad49a23	0.0016220253
241	0x3e04b885	0.12961014
242	0x3b4c907d	0.0031214051
243	0x3b31f216	0.002715235
244	0xbb47bfaf	-0.0030479243
245	0xbb2a54b8	-0.0025990438
246	0xba33c109	-0.00068570726
247	0x39431933	0.00018606037
248	0xbac9d75c	-0.0015399265
249	0x3f8e17a2	1.1100962
250	0x3cdcf210	0.026970893
251	0xb8d90835	-0.00010348895
252	0xbb0031e2	-0.0019560982
253	0xba948c0b	-0.001133324
254	0x3b48e8bd	0.00306563
255	0xbea70d05	-0.3262712

acceleration.weight f4 [1, 600]
0	0x3f0ea150	0.55714893
1	0x3b512ff1	0.0031919444
2	0x3b225e46	0.002477543
3	0x39e3253d	0.0004332456
4	0xbb4e489b	-0.0031476382
5	0x3f27ae06	0.65499914
6	0x3f9f46b1	1.2443448
7	0x3c4702b8	0.012146644
8	0xbb4276ee	-0.0029672938
9	0xbb436695	-0.0029815782
10	0x38479f7f	4.759384e-05
11	0x37a7b4d3	1.9992154e-05
12	0xb9061015	-0.00012785227
13	0xbb5d0202	-0.003372312
14	0xb8f54321	-0.00011695014
15	0xb96c7e82	-0.00022553842
16	0xb86ba988	-5.6186254e-05
17	0x3f73ef94	0.9528744
18	0x40324a42	2.7857823
19	0xbc1586b6	-0.009126356
20	0x3acdbd24	0.0015696627
21	0x3f9819e2	1.1882899
22	0x3fef25be	1.8683393
23	0x39e729fd	0.00044091037
24	0x3faf6b88	1.3704691
25	0x3ea70aac	0.3262533
26	0x3b85c78c	0.0040826257
27	0x3aafbe5a	0.001340817
28	0x383b758a	4.469374e-05
29	0x3ac2aeb1	0.0014853087
30	0x3b21076b	0.0024571072
31	0xbb4aea9e	-0.0030962597
32	0x40703625	3.7533047
33	0x3e82f65b	0.2557858
34	0x3b502be0	0.0031764433
35	0x3f317991	0.6932612
36	0xb80e30a3	-3.3900735e-05
37	0x404bf822	3.1870198
38	0xbb1205d3	-0.0022281304
39	0x3f5a018e	0.8515862
40	0x3f571f22	0.8403188
41	0xb9844bda	-0.00025233516
42	0x3f8f387c	1.1189113
43	0x3e3eeebb	0.18645756
44	0x3eb9107b	0.36145386
45	0x3ae9d0d5	0.0017838726
46	0xb849a295	-4.807355e-05
47	0x3f82c8e0	1.0217552
48	0x3ea5db33	0.32393798
49	0x38f76f1f	0.00011798576
50	0xb902e87a	-0.0001248437
51	0x3bf4ad50	0.0074669495
52	0x40001b65	2.001672
53	0x3b31964b	0.0027097638
54	0xbb414529	-0.0029490686
55	0xbaaa8bc4	-0.0013011624
56	0x3fcfd989	1.6238261
57	0x3b7c9a89	0.0038544259
58	0x3fa7a51f	1.3097266
59	0x3e882f1a	0.26598436
60	0x3e76f11c	0.24115413
61	0xb87b3a69	-5.9897462e-05
62	0xb71e5da9	-9.439341e-06
63	0xbb5d238f	-0.0033743118
64	0x3f4846cc	0.7823303
65	0x3b23240b	0.002489331
66	0x3b69fd0a	0.0035703802
67	0xbca3f6c3	-0.020015126
68	0x3f22ba7a	0.6356579
69	0x3fb6a3c6	1.426873
70	0x3841e9f2	4.6232664e-05
71	0x38fcf9fd	0.0001206286
72	0x3b24a5d8	0.0025123265
73	0x40c23620	6.069107
74	0x38c2b4c9	9.284315e-05
75	0x4047b5b3	3.120465
76	0x3c0da804	0.008646015
77	0xb7c2f9af	-2.324287e-05
78	0xbf7c23f2	-0.9849235
79	0x3b38ec4a	0.002821701
80	0x3af08968	0.0018351497
81	0x3b4ddaf9	0.0031411035
82	0x3ec5cad9	0.38631323
83	0xbb545a89	-0.0032402596
84	0x3acd7bab	0.0015677115
85	0xbb4a95c2	-0.0030912017
86	0x385edb20	5.3133e-05
87	0xbbbf1dbf	-0.0058324034
88	0x3ace78e7	0.0015752584
89	0x3b1ec95c	0.0024228906
90	0x3eda5946	0.42646235
91	0x387bf887	6.0074522e-05
92	0x3b47c506	0.0030482425
93	0x3b103910	0.0022006668
94	0x3fd2ab20	1.6458473
95	0x3ebdb8ee	0.37055153
96	0xba2bbed3	-0.00065515673
97	0x37451548	1.174707e-05
98	0x3f3b21c0	0.73098373
99	0x3ca78e43	0.020453578
100	0x3ab71e98	0.001397091
101	0xb98a7949	-0.00026411776
102	0xbb917331	-0.0044387807
103	0x3ab7e552	0.0014030135
104	0x3f6b6750	0.9195452
105	0x3f90a2d3	1.129969
106	0xbd85ed7d	-0.06539438
107	0x40380460	2.875267
108	0xb80a6a23	-3.300061e-05
109	0x36962e6e	4.4757535e-06
110	0xb841675c	-4.6111047e-05
111	0xb91ed374	-0.00015146827
112	0x3a2d935f	0.0006621386
113	0xbb5269e5	-0.0032106575
114	0x3c5673c2	0.013089122
115	0xbfa10269	-1.257886
116	0x3fa09f2f	1.2548579
117	0x3b954a1e	0.0045559546
118	0xbf578eb9	-0.8420215
119	0x3a3ef74f	0.00072847767
120	0xbfdcab6e	-1.7239816
121	0x3c48b4ad	0.012250108
122	0xbc13a213	-0.0090108095
123	0x3f85dea0	1.0458565
124	0x3f6c1660	0.9222164
125	0x3e4c235a	0.1993536
126	0x3ac4bf01	0.0015010537
127	0x3eacecd9	0.3377445
128	0xb83da49f	-4.5214427e-05
129	0x3adac7c1	0.0016691611
130	0x3f9e4a5c	1.2366443
131	0x39c6df1d	0.00037931735
132	0x3eda266f	0.42607448
133	0x3ea5df07	0.3239672
134	0x3a5a154e	0.00083192147
135	0xbf8cfb22	-1.101414
136	0xbe01a98e	-0.12662336
137	0x3b330cc5	0.0027320844
138	0x380ce471	3.3591354e-05
139	0x3b25a413	0.0025274798
140	0x3aef13e4	0.0018240181
141	0x3b1bc6df	0.002376966
142	0x3dc6d894	0.09709278
143	0xb9147e9d	-0.00014161547
144	0x40003b95	2.0036366
145	0x3f8cb137	1.0991582
146	0x3b544e52	0.0032395315
147	0x3ffd664d	1.9796845
148	0x3f42a882	0.7603837
149	0xbb506715	-0.0031799723
150	0xbf9f2845	-1.2434164
151	0x3bc6d390	0.0060677007
152	0xbaa2d57e	-0.0012423245
153	0x3b27765c	0.0025552725
154	0x3bc2a18e	0.005939669
155	0x3b94e942	0.004544408
156	0x3ea3fe94	0.32030165
157	0xb8232aa9	-3.890196e-05
158	0x3f31f1c5	0.69509536
159	0x3c9e15f0	0.01929757
160	0x38c9c08c	9.6202915e-05
161	0x400ea211	2.2286417
162	0x3b54e3cd	0.0032484413
163	0x3e41c6f9	0.18923558
164	0x3ea7137a	0.32632047
165	0x39013ac4	0.0001232429
166	0xbb478f38	-0.0030450355
167	0x4002307a	2.0342088
168	0x3ed04820	0.40680027
169	0xbbd1daff	-0.00640428
170	0x3854924d	5.0680992e-05
171	0xbafa6575	-0.0019103723
172	0x3e83e733	0.25762329
173	0x37b3bb33	2.1425634e-05
174	0x3b154ef0	0.0022782646
175	0x37fc2826	3.0059437e-05
176	0x3e142318	0.14466512
177	0x40311f06	2.7675185
178	0x384c475a	4.870384e-05
179	0x3a79da07	0.0009531085
180	0xb80535d4	-3.1759802e-05
181	0x3f1d6970	0.6148901
182	0x3b22fa64	0.0024868483
183	0x3e9883f7	0.2978818
184	0x38792259	5.9398215e-05
185	0x3aac1ab6	0.0013130519
186	0x3f831e90	1.0243702
187	0x3e63950b	0.22224824
188	0xb9407e5c	-0.0001835762
189	0x3b91f45c	0.0044541787
190	0x3f42d1db	0.76101464
191	0x3b5438a4	0.0032382393
192	0x3f0ebffd	0.557617
193	0x3b1e9494	0.0024197446
194	0x3a8736f5	0.0010316061
195	0xbc700a21	-0.014650852
196	0x3f716420	0.94293404
197	0xbebf6243	-0.37379655
198	0xb90bbddd	-0.00013326803
199	0xb806a055	-3.209741e-05
200	0x389840c5	7.259989e-05
201	0xb7cdaa3c	-2.4517176e-05
202	0x3fae3b99	1.3611938
203	0x3ea772a7	0.3270466
204	0xbb3d9cf7	-0.002893267
205	0xc00a0e60	-2.1571274
206	0x3fda21a4	1.7041516
207	0x3ad6db3f	0.0016392245
208	0x3f3c0454	0.73444104
209	0xb913bf85	-0.00014090359
210	0x3f2c0cd9	0.67207104
211	0x3ea968b0	0.33087683
212	0x3e874088	0.2641642
213	0x3ff7e949	1.9368068
214	0xb7e896a4	-2.7726703e-05
215	0x3bedcedc	0.0072573256
216	0x3aaac611	0.0013028999
217	0x3f96efa7	1.1791886
218	0x3ed1cba0	0.40975666
219	0x3ade2b94	0.0016950243
220	0xb887d36f	-6.476684e-05
221	0x39d6d7b0	0.0004097796
222	0xbedb4698	-0.42827296
223	0x3eadf61b	0.33976826
224	0x3f5a53d6	0.85284173
225	0xbb2ac0e1	-0.0026054906
226	0x3b4cd58f	0.003125522
227	0x3b0564c0	0.002035424
228	0xb8a55adf	-7.884739e-05
229	0xb802775c	-3.1105577e-05
230	0x3b44f75f	0.0030054671
231	0x3da6819f	0.08130192
232	0x3ead547b	0.33853516
233	0x3af2d869	0.001852763
234	0x3f5287e6	0.82238615
235	0x3f1b0d1a	0.60566866
236	0xb969a7f7	-0.00022283183
237	0x3b4ef556	0.0031579337
238	0x3b3229a6	0.002718547
239	0x36c3fbc2	5.8407613e-06
240	0xbb1c3b63	-0.0023839108
241	0x3e966658	0.29374957
242	0xb899f0a9	-7.340435e-05
243	0x3b308b68	0.0026938561
244	0xbb461767	-0.0030226351
245	0x3b4672b7	0.0030280778
246	0x3be2bcde	0.0069194874
247	0xbb71274e	-0.003679711
248	0x3ac0bb30	0.0014704224
249	0xbf6e9f9e	-0.93212306
250	0x3fd7f945	1.6872946
251	0x376cf5f3	1.4123961e-05
252	0x3b0d4f3b	0.0021562118
253	0x36bb7c4a	5.5875034e-06
254	0xbb42b432	-0.0029709456
255	0x3f549f83	0.83055896

brake.weight f4 [1, 600]
0	0xbd2dfda2	-0.04247821
1	0x3b446cbd	0.002997204
2	0xba8bf12c	-0.0010676733
3	0xba554c58	-0.0008136681
4	0x3b441cf9	0.0029924496
5	0xbfcc6a47	-1.5969933
6	0xbf4df77c	-0.80455756
7	0xbc377a13	-0.011198538
8	0x3b45fd0f	0.003021065
9	0x3b4e6be1	0.0031497406
10	0x38337c16	4.279249e-05
11	0x374d5b07	1.2240146e-05
12	0x37d4e9ee	2.5381301e-05
13	0x3b53126e	0.003220703
14	0xb7b7f0e4	-2.1927473e-05
15	0xb8f729da	-0.00011785673
16	0xb9019871	-0.00012359188
17	0xbfd26f4c	-1.6440215
18	0xbff241dd	-1.892635
19	0xba164783	-0.0005732702
20	0xbb3a5245	-0.0028430384
21	0xbf1d457a	-0.6143414
22	0xbfcbc97e	-1.5920866
23	0xb9f9fa3b	-0.00047679417
24	0xc0a09047	-5.017612
25	0xbf4c5e82	-0.7983171
26	0xbb05e27c	-0.0020429185
27	0xbacf42b7	-0.0015812729
28	0xb9068463	-0.00012828554
29	0xbac2708a	-0.0014834565
30	0x3b233584	0.0024903724
31	0x3b57d3e6	0.0032932698
32	0xbff7bd54	-1.9354653
33	0xbf35d150	-0.7102251
34	0x3b4a0d2f	0.0030830612
35	0xbf53a0cb	-0.82667226
36	0x38e7f06e	0.00011059722
37	0x3f764ffa	0.96215785
38	0x3b3f560a	0.002919557
39	0xbf0276a3	-0.50962275
40	0xbfbde8e0	-1.4836693
41	0x3a8542e7	0.0010167033
42	0x3ed1f5f7	0.4100797
43	0xbf812471	-1.0089246
44	0x3f21413d	0.6299017
45	0x3acaec0e	0.0015481727
46	0xb8dc1fb3	-0.00010496322
47	0xc0677632	-3.616589
48	0xbf4cbcde	-0.7997569
49	0xbaa6b991	-0.0012720098
50	0x35a90333	1.2592412e-06
51	0x3b7dd0a7	0.0038729103
52	0xbfbabc96	-1.4588802
53	0xbb4afbc4	-0.0030972818
54	0x3b43fcf8	0.002990542
55	0xb886e8db	-6.4329906e-05
56	0xbfcca03a	-1.5986397
57	0xba0d6adf	-0.0005394648
58	0xbfaa87fa	-1.3322747
59	0xbf3097af	-0.6898145
60	0xbf2ac907	-0.66712993
61	0x37db34b3	2.6131374e-05
62	0xb9075d25	-0.00012909302
63	0x3b53ca7b	0.0032316733
64	0xbfa60047	-1.2968835
65	0x3b270971	0.0025487805
66	0x3b4b6e5e	0.0031041126
67	0xbb986176	-0.00465029
68	0x3d92af11	0.071622975
69	0xbfaa2680	-1.3292999
70	0xb8e570c7	-0.00010940577
71	0x37dc349d	2.6250544e-05
72	0x3b2131b9	0.0024596287
73	0xc0eaf2b2	-7.342126
74	0xb8eefca2	-0.00011395781
75	0xc01ced47	-2.4519823
76	0xbcf1ba33	-0.029507732
77	0x3873b538	5.8104488e-05
78	0xc0174b64	-2.3639765
79	0xbaef3e47	-0.0018252813
80	0x3aee32c7	0.0018173092
81	0xbb26bb1d	-0.0025441118
82	0xbf5e4f2c	-0.86839557
83	0x3b56098f	0.0032659506
84	0x3b92e8b4	0.004483307
85	0xbb43bc7c	-0.0029866984
86	0x3aaff64b	0.0013424841
87	0xbbe8b5a3	-0.007101731
88	0x3adfc05b	0.0017070876
89	0x3b19cb1d	0.0023467012
90	0xbf5c6139	-0.8608585
91	0xb86ddce2	-5.6710916e-05
92	0x3b486a5c	0.0030580973
93	0xbb8f659d	-0.004376127
94	0x3da870a8	0.082246125
95	0x3eae1032	0.3399673
96	0xbb4d561c	-0.0031331843
97	0x38c5b0c9	9.426621e-05
98	0xbfd9cac3	-1.7015003
99	0x3c42a829	0.011880913
100	0xbab8b411	-0.001409175
101	0xb62d8e5c	-2.5861873e-06
102	0x3b26819e	0.0025406848
103	0xbb847f35	-0.0040434846
104	0xbf02d787	-0.5111012
105	0xbfacc7b2	-1.3498442
106	0xbee03739	-0.43792132
107	0xbe7f4dad	-0.24931975
108	0xb8b308da	-8.537034e-05
109	0x394484e1	0.00018741518
110	0xb78ef67c	-1.7042497e-05
111	0xb762f03e	-1.35265855e-05
112	0xb9b8292f	-0.000351259
113	0xbad8ffdf	-0.0016555748
114	0xbcb36bbf	-0.021901963
115	0xbe2b56f7	-0.16732393
116	0xc0302dd3	-2.752797
117	0xbc0606dc	-0.008180346
118	0x3ddb46ec	0.10706887
119	0xba08a301	-0.0005212278
120	0x3c4e7b4b	0.0126026375
121	0xbe5b6e79	-0.2142886
122	0x3cae5f2e	0.02128562
123	0xbf96120d	-1.1724259
124	0xbfeb4616	-1.8380764
125	0xbeb96594	-0.3621031
126	0x3ad7a580	0.0016452521
127	0xbf511b84	-0.8168261
128	0xb912ecca	-0.00014011856
129	0x3ae0c50e	0.0017148571
130	0xbd5d76e1	-0.05406845
131	0xba3d5b8b	-0.0007223419
132	0xbf5f627a	-0.8725964
133	0xbf59f270	-0.85135555
134	0xb9ed7e40	-0.00045298226
135	0xbe8a87ce	-0.27056736
136	0x3b80d30d	0.003931409
137	0xbb2f5a0a	-0.0026756548
138	0xb9039cd3	-0.00012551555
139	0xbb3ce3aa	-0.0028822222
140	0x3ae281b1	0.0017281083
141	0x3b0dd304	0.0021640668
142	0x3d84b454	0.06479707
143	0xb88aca9c	-6.618092e-05
144	0xbf703257	-0.9382681
145	0xbfc7401a	-1.5566437
146	0x3b868626	0.004105347
147	0xc094e25c	-4.6526318
148	0xbeef4ba0	-0.46737385
149	0x3b59208d	0.0033130974
150	0xbe4a6dba	-0.1976842
151	0x3acb5bd3	0.0015515037
152	0x3a67ae12	0.0008837889
153	0x3b34e91f	0.0027604771
154	0xb9d35193	-0.00040305834
155	0x39e086b7	0.0004282498
156	0xbf536596	-0.8257688
157	0xb66849a9	-3.461357e-06
158	0xbfaa5e01	-1.3309938
159	0x3d337190	0.043809474
160	0x38f72c15	0.00011786089
161	0xbfb673b0	-1.4254055
162	0x3b44516d	0.002995576
163	0xbeb5cb3d	-0.3550662
164	0xbf559269	-0.8342653
165	0xb90e49d3	-0.00013569677
166	0x3b5524a4	0.003252306
167	0xbf54260d	-0.8287056
168	0xbf72e308	-0.9487767
169	0x3b727c73	0.0037000447
170	0xb8b45dfa	-8.600573e-05
171	0xbb47a2a3	-0.003046193
172	0xbf2ca932	-0.6744567
173	0xbac4a791	-0.0015003552
174	0x3b1fd6f3	0.0024389594
175	0xb8c64a4b	-9.455214e-05
176	0x3dbd197d	0.09233377
177	0x3f57e738	0.84337187
178	0xb84041c5	-4.583762e-05
179	0xba80fdd3	-0.000984127
180	0xb9b71a4b	-0.0003492407
181	0xbf55e597	-0.8355345
182	0x3b1e15d8	0.0024121907
183	0xc03a8a35	-2.9146855
184	0xb603f907	-1.9665474e-06
185	0x3a39ae2c	0.00070831436
186	0xbfb7cefe	-1.4360044
187	0xbf29edac	-0.66378284
188	0xb6c5b5fc	-5.8922433e-06
189	0x3b974710	0.0046166256
190	0xbf399159	-0.7248741
191	0xbb4ee225	-0.0031567898
192	0x3ea30b02	0.31844336
193	0x3b0fa845	0.0021920365
194	0xba8aa67b	-0.001057818
195	0x3b1eb825	0.0024218645
196	0xc0386ebe	-2.8817592
197	0xbe361954	-0.177831
198	0x380a2f26	3.2945674e-05
199	0xb7af7edb	-2.0920697e-05
200	0xb8d3c1d0	-0.000100973644
201	0xb7ca65c3	-2.4127663e-05
202	0xc0101cf4	-2.2517672
203	0xbff2d05d	-1.8969837
204	0xba4c6626	-0.0007797204
205	0x3e38ab59	0.18034114
206	0xbfbb6e59	-1.464305
207	0xbadf3fb1	-0.0017032531
208	0xbe290023	-0.16503958
209	0x38b93703	8.831734e-05
210	0xbf437f61	-0.7636624
211	0xbf5ad90c	-0.8548744
212	0xbf31b769	-0.69420487
213	0xbfd8d6b7	-1.6940526
214	0xb8d58bd6	-0.00010182678
215	0x3aa8be10	0.0012874026
216	0xba8c597d	-0.0010707822
217	0xbf08ba01	-0.5340882
218	0xbf595acc	-0.8490417
219	0x3af15b75	0.0018414097
220	0x381e20b8	3.7700607e-05
221	0x3bba4669	0.005684663
222	0x3e78b96e	0.24289486
223	0xbf332c21	-0.6998921
224	0xbf76f53a	-0.96467936
225	0xbb435622	-0.0029805978
226	0xbb7bfc44	-0.0038449923
227	0x3afe363b	0.0019394824
228	0xb96cc673	-0.00022580642
229	0xbb1be669	-0.0023788458
230	0xbb401cad	-0.0029313967
231	0xbf7d29b5	-0.98891765
232	0xbfaa3dd6	-1.3300121
233	0x390408f2	0.00012591833
234	0xbf3b11b1	-0.7307387
235	0xbf624e2d	-0.88400537
236	0x3b81597c	0.003947435
237	0x3b2163c9	0.0024626127
238	0x3b3faca9	0.00292472
239	0xb8afd639	-8.384552e-05
240	0xba95f996	-0.001144218
241	0xbfac5256	-1.3462627
242	0xb8bd8009	-9.036071e-05
243	0x3b3a83fd	0.0028460019
244	0x3b4c8da9	0.0031212366
245	0xbb39b6a1	-0.0028337615
246	0x3bb24c9d	0.005441262
247	0x3bde5233	0.0067847013
248	0x3ab02f98	0.0013441918
249	0xbe9d1e51	-0.30687192
250	0x3ef13869	0.4711335
251	0x3847683f	4.7542384e-05
252	0x3b08ea40	0.0020891577
253	0x38074816	3.2253643e-05
254	0x3b4c0bc1	0.0031134936
255	0xc01b2cdc	-2.424613
