DDPG/weights/actormodel-cg.pth (torch_old, 767283 bytes, 7 tensors)

fc1.weight f4 [300, 29]
0.0009891671 -0.0010462 -0.0009890561 -0.0012010272 -0.0010129006 -0.0012764467 -0.0011725324 -0.0011008921
-0.0010576573 -0.0010842353 -0.0011507904 -0.0012581156 -0.0010904429 -0.0009915897 -0.0010923002 -0.001228725
-0.0010774737 -0.0012765283 -0.0011608304 -0.00126769 -0.0010940803 -0.001278838 -0.0008916457 0.0008570465
-0.0010731344 -0.0010399311 -0.0012662314 -0.0011950816 -0.0012020787 0.5567587 -0.058242038 -0.5476005
-0.26092395 -0.0043098903 -0.028621264 -0.021984763 -0.019454153 -0.0005525427 0.010095986 0.008526058
0.023891144 0.0708663 0.104004495 0.037381005 -0.1398135 -0.22369462 -0.06432319 0.18041469
-0.06709481 -0.09217398 0.17681275 0.9203311 0.65396684 0.14751841 0.18762873 0.14212699
0.1214078 -0.01725589 -1.2239861 -0.23180054 -0.12518016 -0.018263752 0.043370858 -0.019753106
0.01582194 0.04023421 0.029845074 0.05247159 0.0895758 0.09986771 0.102309 0.10026023
0.10462848 0.09467987 0.10403529 0.1769151 0.2885109 0.18732817 0.12985575 -0.12723562
0.19027688 0.4453974 -0.008308149 -0.27073222 -0.08757751 -0.1428065 0.041289024 0.0011499262
-0.0036274318 -0.0022692091 -0.0025569727 -0.0025985558 -0.0026549515 -0.0023005253 -0.0024317512 -0.00248985
-0.0026222512 -0.0024819856 -0.002540951 -0.0024720451 -0.0024853267 -0.0025636978 -0.0026568496 -0.0024761443
-0.0025547314 -0.0022825324 -0.002629771 -0.002315454 -0.002731234 -0.001062 -0.0009795422 -0.0026936634
-0.0024616085 -0.002739435 -0.002559252 -0.002812631 0.8269661 0.22011851 0.20400015 0.1431529
-0.0071980245 -0.03406696 -0.09173971 -0.123543486 -0.13658978 -0.15949303 -0.16291195 -0.16862375
-0.17541592 -0.1686653 -0.1643943 -0.16061409 -0.11280807 -0.01468957 -0.022220358 -0.05631983
-0.07711149 -0.12199433 0.5937131 -0.56422246 -0.21023548 0.06915053 -0.09377666 -0.0020065545
0.115947016 -0.00058259256 -0.0006772297 -0.0005064642 -0.0006010513 -0.0004479801 -0.00069343194 -0.0007859546
-0.0007410163 -0.00065935217 -0.0003985463 -0.0004299799 -0.00058709696 -0.0006511846 -0.00042719865 -0.0006070642
-0.00064787234 -0.00038736642 -0.0003290849 -0.00012535322 -0.00021142494 0.00048268537 -0.0007746987 -0.00026011764
-9.1235794e-05 -0.00066739955 -0.0007867675 -0.00047353783 -0.00084776146 -0.0008198167 0.21186316 0.010509499
-0.4768689 -0.0033142732 0.09776421 -0.06808413 -0.094801426 -0.067689545 -0.062181994 -0.055051144
-0.041884113 -0.008715466 0.024793604 0.0012424447 -0.04853742 -0.13073637 -0.20204678 0.013080638
0.2140981 0.03401158 0.08399618 0.109908625 0.02960647 0.15896346 0.021788659 0.26955286
0.06029149 0.13065815 -0.017668786 0.5237336 0.09327055 -0.008364116 0.13509749 0.25871924
0.13504744 -0.07618689 -0.101081304 -0.1023088 -0.10208753 -0.12779748 -0.1520638 -0.16322474
-0.17093773 -0.17243527 -0.16676138 -0.1519154 -0.11742571 -0.16097946 -0.113290384 0.029300744
-0.016227212 0.5634009 -0.7578966 -0.13428348 0.13844877 -0.031880375 0.057795063 0.10653822
0.0030055312 -0.0028665576 -0.0027111298 -0.0029615483 -0.0028627375 -0.002775645 -0.0029202758 -0.0029271664
-0.002850835 -0.0028628719 -0.0028954279 -0.0029303401 -0.0029679155 -0.003096793 -0.0028618223 -0.0028877803
-0.0028367387 -0.002893473 -0.002739805 -0.0029585592 -0.0027917754 -0.0029532 -0.002474932 0.0013736477
00000000: f1a6 813a a620 89ba 37a3 81ba c96b 9dba
00000010: 4ec3 84ba 724e a7ba a9af 99ba cf4b 90ba
00000020: 17a1 8aba e61c 8eba 1ed6 96ba 5be7 a4ba
00000030: 31ed 8eba 3bf8 81ba 832b 8fba 2b0d a1ba
00000040: 053a 8dba 2f51 a7ba 0127 98ba 9e28 a6ba
00000050: 3e67 8fba af9e a7ba 54bd 69ba 6bab 603a
00000060: 6aa8 8cba 4c4e 88ba adf7 a5ba 49a4 9cba
00000070: 118f 9dba bd87 0e3f 348f 6ebd 8c2f 0cbf
00000080: d397 85be fb39 8dbb 2477 eabc 6419 b4bc
00000090: 515e 9fbc 83d8 10ba a269 253c e1b0 0b3c
000000a0: 5cb7 c33c 5a22 913d 4f00 d53d d31c 193d
000000b0: 452b 0fbe 3410 65be e0bb 83bd a1be 383e
000000c0: 0169 89bd b6c5 bcbd 670e 353e d29a 6b3f
000000d0: 5f6a 273f 110f 173e bf21 403e bd89 113e
000000e0: a7a4 f83d 395c 8dbc 94ab 9cbf 1f5d 6dbe
000000f0: 3a2f 00be dd9d 95bc a4a5 313d 44d1 a1bc
00000100: 039d 813c a1cc 243d a87d f43c 73ec 563d
00000110: 8473 b73d 7187 cc3d 6287 d13d 3c55 cd3d
00000120: 7547 d63d 85e7 c13d 7410 d53d 3b29 353e
00000130: b3b7 933e f5d2 3f3e e8f8 043e 0e4a 02be
00000140: f1d7 423e 210b e43e e71e 08bc 6a9d 8abe
00000150: d65b b3bd de3b 12be ae1e 293d 1fb9 963a
00000160: 35ba 6dbb 03b7 14bb e292 27bb 884c 2abb
00000170: b2fe 2dbb 69c4 16bb 045e 1fbb c02c 23bb
00000180: 13da 2bbb cfa8 22bb 1586 26bb 0902 22bb
00000190: dde0 22bb b603 28bb 8a1e 2ebb cf46 22bb
000001a0: 486d 27bb 8a96 15bb 3c58 2cbb dfbe 17bb
000001b0: 81fe 32bb cf32 8bba fb63 80ba 2c88 30bb
000001c0: f052 21bb 1888 33bb 20b9 27bb 1e54 38bb
000001d0: 0db4 533f bf66 613e 6ae5 503e ac96 123e
000001e0: 68dd ebbb cc89 0bbd 07e2 bbbd 5e04 fdbd
000001f0: 31de 0bbe 2452 23be 64d2 26be b4ab 2cbe
00000200: 3ba0 33be 99b6 2cbe fb56 28be 0578 24be
00000210: eb07 e7bd 86ac 70bc 7807 b6bc 9faf 66bd
00000220: a1ec 9dbd 2ad8 f9bd 95fd 173f e270 10bf
00000230: f847 57be cb9e 8d3d fa0d c0bd 6680 03bb
00000240: a175 ed3d 20b9 18ba 1e88 31ba 3dc4 04ba
00000250: df8f 1dba dfde eab9 6ec7 35ba 8508 4eba
00000260: c340 42ba 60d8 2cba fbf3 d0b9 ed6e e1b9
00000270: 69e7 19ba 42b4 2aba a2f9 dfb9 6423 1fba
00000280: fad5 29ba 7117 cbb9 0789 acb9 4071 03b9
00000290: f3b1 5db9 ef10 fd39 2615 4bba 6660 88b9
000002a0: d855 bfb8 6df4 2eba 133f 4eba 2c45 f8b9
000002b0: 4f3c 5eba f8e8 56ba a8f2 583e 0930 2c3c
000002c0: 2928 f4be 4734 59bb 9a38 c83d b16f 8bbd
000002d0: 4027 c2bd d1a0 8abd 8cb2 7ebd 4f7d 61bd
000002e0: ad8e 2bbd 50cb 0ebc f51b cb3c 87d9 a23a
000002f0: 2ccf 46bd c1df 05be 5ae5 4ebe 2c50 563c
00000300: 883c 5b3e ba4f 0b3d 3006 ac3d c617 e13d
00000310: 4589 f23c 51c7 223e 217e b23c d502 8a3e
00000320: 36f4 763d 40cb 053e 21be 90bc 6813 063f
00000330: a104 bf3d a509 09bc ff56 0a3e d976 843e
00000340: e049 0a3e df07 9cbd b703 cfbd 4787 d1bd
00000350: 4413 d1bd 58dd 02be 9db6 1bbe 6324 27be
00000360: 4d0a 2fbe df92 30be 7fc3 2abe b68f 1bbe
00000370: e47c f0bd cdd7 24be ca04 e8bd 1d08 f03c
00000380: eeee 84bc 0b3b 103f 8305 42bf 9c81 09be
00000390: 84c5 0d3e ff94 02bd 84ba 6c3d b630 da3d
000003a0: 72f8 443b dbdc 3bbb 36ad 31bb 8916 42bb
000003b0: c49c 3bbb 99e7 35bb 1962 3fbb b4d5 3fbb
000003c0: 13d5 3abb 059f 3bbb 38c1 3dbb f30a 40bb
000003d0: 5c81 42bb 91f3 4abb 698d 3bbb ea40 3dbb
000003e0: 94e8 39bb 6ca0 3dbb 4d8e 33bb 63e4 41bb
000003f0: 38f6 36bb 798a 41bb 7832 22bb f80b b43a

fc1.bias f4 [300]
-0.0011689835 -0.07643213 0.0077995863 -0.0027886285 0.14056064 -0.0007070896 0.02032086 0.08829191
-0.0028953196 0.046103075 -0.007832713 0.122159 -0.00022759462 0.1550341 0.13983044 -0.0006428881
0.04819032 0.11498413 -0.0007179059 -0.00026046074 0.1164275 0.00022994506 0.033639416 -0.13310523
-0.0008774671 0.28163874 0.017004592 -0.0008251059 0.19192398 0.0 0.06866329 -0.00061438314
-6.8720505e-24 0.07652424 -0.016050523 0.016431784 -0.0007027242 -0.00028755033 0.06373975 0.046031427
-0.00069930096 -0.005719484 -0.07924669 -0.12767291 -0.0011691969 -0.00058354693 0.007515181 -0.011178012
-0.005020246 0.03489543 -0.0011893857 -0.0011686073 -0.067879856 -0.00030809426 -0.023791853 0.07705857
0.19224218 0.048665587 -0.16035287 -0.00051847193 -0.0012403753 -0.0006092996 -0.0028490666 0.100059286
-0.11919312 -0.19289303 -0.00056527887 -0.031246094 0.025353363 -0.024838774 0.027958252 0.06474738
-0.0012375093 -0.0033457982 -0.066028155 -0.053416304 0.076899 0.15365104 -0.063588805 -0.15053959
0.06921276 -0.0015460917 -0.0028205446 -0.0005373711 -0.0006640307 0.05014102 -0.0011707665 0.078115694
-0.006785939 0.05232372 -0.0006887083 0.018899301 0.044485565 -0.00066100695 0.065267414 -0.1796532
-0.0006222792 0.022663837 0.085892975 0.14813527 0.017668258 -0.0015544215 -0.15134229 -0.090686694
0.05771367 -0.08581775 0.10613273 0.09783179 -0.032171994 -0.00024305216 -0.0002617002 -0.0596483
-0.044893697 -0.0011607833 -0.0010675945 0.0319229 -0.023139384 -0.0037204926 -0.00055645563 -0.0026746767
-0.00067897566 -0.052410416 -0.088203214 -0.08719762 -0.0002357662 0.012293895 -0.0015307168 -0.021955734
-0.00020845901 -0.00032728567 0.08385456 -0.0008740226 -0.0011955078 -0.0012916877 -0.00058624306 0.10132713
0.040278178 0.084584795 -0.035498414 0.12533167 -0.018532854 -0.14405283 -0.0011772194 -0.07284887
-0.060490876 -0.06139779 -0.03524323 0.012745643 0.06751126 -0.00873181 -0.0011391253 -0.00087687606
-0.15791908 -0.031664856 0.05843177 0.0920823 0.19753371 -0.0028569282 0.08977255 0.15760057
-0.0009597444 -0.00063069264 -0.046116337 -0.038070906 -0.022729544 -0.0025548954 -0.13817069 0.20345579
0.03569024 -0.052599296 -0.0010427783 -0.18181834 -0.00022388904 0.0 -0.000719381 -0.111642115
0.010643056 -0.0011679071 0.035975702 0.14220293 -0.061392937 -0.0011557012 0.07090248 -0.0015329116
-0.011346 -0.0052823615 0.04438072 -0.0005508688 -0.032130018 -0.111684345 -0.16616982 -0.045912284
0.13297975 0.057641942 0.006534961 -0.00050865003 0.006331402 0.08283705 0.12093563 0.03830327
0.10148164 -0.044803575 -0.0010092956 -0.0050857277 0.055995665 -0.0032003624 -0.00016976894 -0.0025154278
-0.00063948263 0.07246896 0.017933331 0.009010069 -0.12176314 0.06044263 -0.021626156 0.043484084
-0.013193724 -0.00049921474 -0.0031765567 -0.0015518727 0.07942771 -0.0011621106 0.10114793 -0.00021548083
0.0071782167 -0.0034056338 -0.0006752578 -0.03308212 -0.04542732 0.032373354 0.12970807 0.025388628
-0.036579397 0.07887566 -0.047817584 -0.0016252385 0.024908856 -0.038355935 0.20536011 -0.038231175
0.10946058 -0.0011610689 -0.0026241774 0.06263479 0.09500071 -0.007762411 -0.1236094 0.054625805
-0.000576544 0.0 -0.15855797 -0.00073075946 -0.0030917157 -0.09212041 -0.0004998089 0.01380035
00000000: 9438 99ba 7388 9cbd ac93 ff3b 6cc1 36bb
00000010: 21ef 0f3e fb5b 39ba ef77 a63c 64d2 b43d
00000020: 67bf 3dbb 94d6 3c3d c854 00bc 7f2e fa3d
00000030: 77a6 6eb9 42c1 1e3e b62f 0f3e 7d87 28ba
00000040: 3763 453d cd7c eb3d d931 3cba 738e 88b9
00000050: 8b71 ee3d 681d 7139 7cc9 093d bd4c 08be
00000060: d205 66ba f432 903e 374d 8b3c eb4b 58ba
00000070: b887 443e 0000 0000 579f 8c3d 8e0e 21ba
00000080: bfec 0499 beb8 9c3d 637c 83bc f39b 863c
00000090: 0637 38ba 5ac2 96b9 fc89 823d 738b 3c3d
000000a0: 4b51 37ba 826a bbbb 174c a2bd b0bc 02be
000000b0: bd3f 99ba 2cf9 18ba e841 f63b fb23 37bc
000000c0: e080 a4bb 83ee 0e3d 29e5 9bba f42b 99ba
000000d0: 9804 8bbd b687 a1b9 22e7 c2bc e2d0 9d3d
000000e0: 22db 443e 9155 473d 8b33 24be 10ea 07ba
000000f0: 1794 a2ba 67b9 1fba 68b7 3abb e2eb cc3d
00000100: 861b f4bd c085 45be 392f 14ba cff7 ffbc
00000110: dbb1 cf3c af7a cbbc b408 e53c 469a 843d
00000120: ec33 a2ba 2e45 5bbb c539 87bd 0ecb 5abd
00000130: 397d 9d3d b356 1d3e d93a 82bd 0d27 1abe
00000140: 6bbf 8d3d 3ba6 caba e3d8 38bb 5dde 0cba
00000150: 5912 2eba ac60 4d3d 6874 99ba 1ffb 9f3d
00000160: 955c debb 6651 563d 6e8a 34ba b5d2 9a3c
00000170: 7f36 363d 6d47 2dba ecaa 853d 02f7 37be
00000180: 7320 23ba 83a9 b93c a8e8 af3d c6b0 173e
00000190: 06bd 903c bbbd cbba 79f9 1abe f2b9 b9bd
000001a0: 2b65 6c3d 37c1 afbd 1e5c d93d 095c c83d
000001b0: c8c6 03bd d1db 7eb9 ce34 89b9 c751 74bd
000001c0: 74e2 37bd 6d25 98ba 87ee 8bba 96c1 023d
000001d0: ce8e bdbc 82d3 73bb 1bdf 11ba a149 2fbb
000001e0: 49fd 31ba 4eac 56bd e3a3 b4bd aa94 b2bd
000001f0: 0238 77b9 556c 493c 55a2 c8ba 83dc b3bc
00000200: ca95 5ab9 8a97 abb9 f1bb ab3d aa1e 65ba
00000210: 96b2 9cba d94d a9ba 1bae 19ba 9984 cf3d
00000220: bbfa 243d cb3a ad3d c966 11bd f256 003e
00000230: 36d2 97bc 9682 13be ee4c 9aba ca31 95bd
00000240: 48c5 77bd 407c 7bbd 355b 10bd 1ad3 503c
00000250: 5843 8a3d de0f 0fbc b44e 95ba 28de 65ba
00000260: 8ab5 21be 02b3 01bd 2756 6f3d a595 bc3d
00000270: 4746 4a3e 4d3b 3bbb acda b73d 0b62 213e
00000280: 5b97 7bba 1155 25ba 7ce4 3cbd 3df0 1bbd
00000290: 4f33 babc 0870 27bb 9e7c 0dbe b756 503e
000002a0: ee2f 123d 5c72 57bd d5ad 88ba 962e 3abe
000002b0: c2c3 6ab9 0000 0000 d794 3cba 9fa4 e4bd
000002c0: 3660 2e3c 7614 99ba 425b 133d a59d 113e
000002d0: 2977 7bbd e67a 97ba 5235 913d faeb c8ba
000002e0: 93e4 39bc a917 adbb 8fc8 353d 2e68 10ba
000002f0: c49a 03bd c3ba e4bd 6c28 2abe 850e 3cbd
00000300: d82b 083e f519 6c3d 3a23 d63b ed56 05ba
00000310: a677 cf3b 79a6 a93d 19ad f73d e4e3 1c3d
00000320: 9bd5 cf3d f483 37bd 574a 84ba 2da6 a6bb
00000330: b65b 653d 2cbd 51bb 0104 32b9 e0d9 24bb
00000340: f4a2 27ba 9b6a 943d ece8 923c f89e 133c
00000350: f45e f9bd b192 773d 5629 b1bc 5e1c 323d
00000360: 7d2a 58bc bcdd 02ba c72d 50bb 3568 cbba
00000370: ffaa a23d f651 98ba a526 cf3d b2f2 61b9
00000380: 3f37 eb3b 0e31 5fbb c903 31ba 1e81 07bd
00000390: ff11 3abd ec99 043d 31d2 043e d0fb cf3c
000003a0: 47d4 15bd 9089 a13d 5fdc 43bd f405 d5ba
000003b0: a80d cc3c 1d1b 1dbd ec49 523e 4b98 1cbd
000003c0: de2c e03d 022f 98ba 64fa 2bbb ab46 803d
000003d0: bb8f c23d d35b febb ed26 fdbd 4fbf 5f3d
000003e0: 3623 17ba 0000 0000 055d 22be 7090 3fba
000003f0: 629e 4abb a0a9 bcbd 9c05 03ba dd1a 623c

fc2.weight f4 [600, 300]
7.672379e-05 -0.06583142 0.04768874 0.0022237662 -0.060853243 7.7776436e-05 -0.07278516 -0.036630668
-0.0029626351 0.034788378 -0.0015890629 -0.014148307 -0.00013690318 -0.05731616 -0.05391192 0.00024900553
-0.23714042 -0.0024523216 8.503489e-06 1.730088e-05 -0.055891458 -0.12854329 0.021613918 0.015236552
-1.7403e-05 -0.012207835 0.00057815446 -0.00012637669 -0.17633435 5.1137904e-05 -0.17318946 4.9013208e-05
2.5351632e-05 -0.028738651 -0.22835684 -0.21943413 1.0462667e-05 -3.561055e-05 -0.02032709 0.097623475
-9.71895e-06 -0.15864904 -0.035843562 -0.16083968 7.362154e-05 -2.8414395e-05 -0.0357201 -0.009581872
-0.04485549 0.05558974 2.8205493e-05 -0.00015950428 -0.024994278 -2.2208158e-05 0.033021662 -0.121418685
-0.45266056 -0.07639362 -0.18770994 0.00015576773 0.00014827955 3.821657e-05 -1.2551527e-05 -0.026329612
-0.30324847 -0.06922678 9.003428e-05 -0.04807631 0.071665406 -0.035607804 0.008114117 -0.08444531
-5.694729e-05 -0.0030931763 0.041437987 -0.34544766 -0.011044723 -0.056311782 -0.17888248 0.02634085
-0.025550101 0.00052353024 0.0024597333 4.8454964e-05 -6.859711e-05 0.041234687 1.4410755e-05 0.021160102
-0.05017199 -0.035335176 0.00016271434 0.039340455 0.027179638 9.5817035e-05 0.08078149 -0.18489833
-3.269732e-05 -0.020260397 -0.011881488 -0.09283751 -0.08399743 0.0003670509 -0.22463132 -0.08562019
-0.06446837 0.010254211 0.039485417 -0.0064902413 -0.006520216 -4.727711e-05 -6.983693e-05 -0.019960117
-0.025735255 -5.3011576e-05 0.0010528082 0.022531088 -0.05536965 0.031237356 0.000110386405 -0.038717806
-1.9154993e-05 0.004507822 0.04928344 -0.46062234 -3.6823207e-05 0.055652328 0.00014096776 -0.057679176
-0.00016141236 -0.0001843831 -0.054101262 5.5720928e-05 -0.09214335 0.00014511317 -6.22618e-05 -0.03611807
-0.09507324 -0.07210385 0.010466101 -0.062545404 -0.013914414 -0.30556768 -6.35968e-05 -0.18221371
-0.123646945 0.00066138146 -0.07493261 -0.085217 -0.09201622 0.054848105 -8.849726e-05 2.581515e-06
-0.18774377 -0.19949357 -0.14174621 -0.032742362 0.12374746 -0.00013075581 -0.04023624 -0.121960446
0.00014434403 0.00017320365 -0.033078782 -0.16083613 -0.21583582 0.0025252167 -0.19352126 0.10920254
-0.1035627 -0.0012120403 -9.903863e-05 -0.17622723 0.00023713449 0.00017504215 1.5156915e-05 -0.014921258
0.058824394 5.7011384e-06 0.04538733 0.060961455 0.037553664 0.0011672945 -0.09767084 -3.4684086e-05
-0.056005105 0.015990585 -0.20329976 -7.079274e-06 -0.085187025 0.016722048 -0.18534197 0.06426005
0.051557958 -0.0815938 -0.016355578 0.00011010252 -0.1941989 0.07448696 -0.06189073 0.021024873
-0.078481786 -0.033739418 -0.00011614887 5.5743563e-05 -0.065213606 -0.0029949027 7.042266e-05 0.0023408406
8.767654e-05 -0.107807785 -0.0950487 -0.08861398 -0.29792863 -0.01186458 -0.22645475 0.065937884
-0.14575347 2.141943e-05 -0.0031246562 -0.0012317947 -0.028134635 4.2173837e-05 -0.1909005 -0.00013570522
0.019586453 -0.0019767717 -1.1845869e-05 0.0068472372 -0.08196779 -0.029565528 0.07658481 0.042666763
0.0076213307 -0.049540926 -0.04769999 0.0012282729 -0.101071484 -0.0141819045 -0.038718816 -0.07166057
0.0800612 0.00010834673 0.0024355897 -0.06389536 -0.052089326 -0.08374258 0.034963135 -0.4029968
9.1026166e-05 -6.0142e-05 -0.28474805 2.2789796e-05 7.3876836e-05 -0.3115408 4.6610567e-05 -0.027161831
00000000: c5e6 a038 a0d2 86bd 4555 433d 9bbc 113b
00000010: 4041 79bd e81b a338 6310 95bd 0a0a 16bd
00000020: c528 42bb 427e 0e3d 1a48 d0ba 4dce 67bc
00000030: ab8d 0fb9 5ac4 6abd bfd2 5cbd f58c 8239
00000040: f0d4 72be 21b7 20bb 35aa 0e37 5b21 9137
00000050: 71ee 64bd daa0 03be ac0f b13c bba2 793c
00000060: a8fc 91b7 5f03 48bc 4a8f 173a fc83 04b9
00000070: fe90 34be e87c 5638 9458 31be 8893 4d38
00000080: 37aa d437 526d ebbc 60d6 69be 57b3 60be
00000090: d088 2f37 895c 15b8 ff84 a6bc d1ee c73d
000000a0: 930e 23b7 e574 22be b3d0 12bd 28b3 24be
000000b0: 4365 9a38 735b eeb7 3d4f 12bd 49fd 1cbc
000000c0: 64ba 37bd 11b2 633d d69a ec37 9b40 27b9
000000d0: cdc0 ccbc a84b bab7 b941 073d 5caa f8bd
000000e0: 20c3 e7be 4274 9cbd 0937 40be 9555 2339
000000f0: 7d7b 1b39 bb4a 2038 6694 52b7 33b1 d7bc
00000100: 6243 9bbe c5c6 8dbd c9d0 bc38 aaeb 44bd
00000110: 50c5 923d 7dd9 11bd 13f1 043c aaf1 acbd
00000120: b0da 6eb8 e3b6 4abb e1ba 293d 84de b0be
00000130: edf4 34bc 2fa7 66bd f82c 37be c4c8 d73c
00000140: 724e d1bc 853d 093a 7a33 213b 1f3c 4b38
00000150: cbdb 8fb8 b4e5 283d b9c5 7137 f357 ad3c
00000160: 2581 4dbd 9ebb 10bd 4c9e 2a39 7523 213d
00000170: d5a7 de3c 61f1 c838 c470 a53d fd55 3dbe
00000180: 7b24 09b8 22f9 a5bc 93aa 42bc 9821 bebd
00000190: d806 acbd bd70 c039 c105 66be a359 afbd
000001a0: fe07 84bd 4701 283c 76bb 213d 17ac d4bb
000001b0: 89a7 d5bb 694b 46b8 6b75 92b8 6683 a3bc
000001c0: bed2 d2bc bf58 5eb8 62fe 893a 1e93 b83c
000001d0: 49cb 62bd 7ce5 ff3c 407f e738 9096 1ebd
000001e0: 09af a0b7 5ab6 933b 6fdd 493d b1d6 ebbe
000001f0: 9e72 1ab8 b2f3 633d bfd0 1339 0041 6cbd
00000200: cd40 29b9 f656 41b9 4999 5dbd e4b5 6938
00000210: a7b5 bcbd 8529 1839 8d92 82b8 8bf0 13bd
00000220: c2b5 c2bd 2fab 93bd 027a 2b3c ce17 80bd
00000230: 48f9 63bc 5e73 9cbe 465f 85b8 3b96 3abe
00000240: 9c3a fdbd 8f60 2d3a 4576 99bd 4086 aebd
00000250: 0073 bcbd 68a8 603d 9b97 b9b8 173e 2d36
00000260: e73f 40be 0b48 4cbe eb25 11be db1c 06bd
00000270: 4f6f fd3d 7f1b 09b9 c1ce 24bd 66c6 f9bd
00000280: 0e5b 1739 009e 3539 9e7d 07bd 3ab2 24be
00000290: 1104 5dbe 1b7e 253b 702a 46be 95a5 df3d
000002a0: ae18 d4bd 53dd 9eba f6b2 cfb8 e974 34be
000002b0: 4ea7 7839 858b 3739 744a 7e37 4b78 74bc
000002c0: d9f1 703d 684c bf36 11e8 393d b8b2 793d
000002d0: dfd1 193d e7ff 983a a607 c8bd c179 11b8
000002e0: 9c65 65bd b0fe 823c d02d 50be 808a edb6
000002f0: 8976 aebd adfc 883c 49ca 3dbe c69a 833d
00000300: 702e 533d a61a a7bd 22fc 85bc d7e6 e638
00000310: 14dc 46be 9f8c 983d 2281 7dbd 5b3c ac3c
00000320: 0fbb a0bd 5832 0abd f394 f3b8 32ce 6938
00000330: b68e 85bd 2146 44bb e1af 9338 ca68 193b
00000340: fcde b738 54ca dcbd e5a8 c2bd 3f7b b5bd
00000350: 1a8a 98be a863 42bc c1e3 67be 710a 873d
00000360: 6640 15be e0ad b337 08c7 4cbb 2c74 a1ba
00000370: 9b7a e6bc d0e3 3038 6c7b 43be 184c 0eb9
00000380: c573 a03c ba8c 01bb 9fbd 46b7 ca5e e03b
00000390: bbde a7bd 6833 f2bc 7fd8 9c3d 58c3 2e3d
000003a0: 5bbc f93b 6deb 4abd 1161 43bd 00fe a03a
000003b0: 91fe cebd 385b 68bc 9f97 1ebd c7c2 92bd
000003c0: 20f7 a33d 3538 e338 6a9e 1f3b 92db 82bd
000003d0: 9e5b 55bd 3b81 abbd 8135 0f3d 9955 cebe
000003e0: 4de5 be38 fb40 7cb8 7fca 91be b72c bf37
000003f0: 53ee 9a38 4782 9fbe b77f 4338 7d82 debc

fc2.bias f4 [600]
-0.08194726 -0.0031758284 -0.0071408306 -0.0022809408 -0.0027776535 0.10739931 -0.22870639 -0.0027058565
-0.0031359785 -0.0031765713 -0.004444623 -0.011442749 -0.002783416 -0.0034077803 -0.0037435228 -0.003758773
-0.0036852402 0.01704636 0.09707966 -0.028994404 -0.003088493 -0.09360678 0.12743592 -0.0008079036
0.16956799 0.060566228 -0.00215561 -0.0021162492 -0.0036730755 -0.0018679922 -0.002460641 -0.005907949
0.01259465 -0.15890357 -0.0031760233 -0.18203561 -0.0021716566 0.020804076 -0.002973236 0.1275009
0.14842488 -0.0015783655 -0.0034264233 0.08072437 -0.0028787476 -0.0017027566 -0.006938873 0.074788615
0.071275845 -0.001279772 -0.002667586 0.0036336272 0.124493465 -0.0035267628 -0.0077738827 -0.012557272
0.15041822 -0.0048328727 0.0024885403 -0.22821312 -0.2353495 -0.003339455 -0.0036972328 -0.0031756589
-0.2054293 -0.0024986174 -0.0031765553 -0.005039208 -0.0167523 0.13214867 -0.0005793069 -0.0031761092
-0.002428468 -0.044218995 -0.002592792 0.0616344 -0.0036677169 -0.0035590623 -0.025734898 -0.0028424966
-0.001713842 -0.0015579937 0.117388286 -0.0031765236 -0.0031761858 -0.00051059923 -0.0060755885 -0.0027706593
-0.0016864714 -0.0023746346 -0.099654354 -0.0005778291 -0.0028454135 -0.0037213576 -0.06277204 0.01061846
-0.0036946535 -0.0029033748 -0.09112351 -0.0031721992 -0.002056452 -0.000586571 0.057103503 -0.0031680819
-0.007599534 0.05951986 -0.012304709 0.14175984 -0.0005126164 -0.00051861507 -0.0005559405 -0.0036891224
-0.00061755726 -0.0036540467 -0.0036897236 0.026534397 0.1579058 -0.0027198042 0.13460718 -0.0007603809
0.0783979 0.03318666 -0.0031761758 -0.05499965 0.15155289 0.07842053 -0.0017507941 0.09830972
-0.0030564172 -0.0018035021 -0.040548388 -0.0022236432 -0.07205785 0.05653892 -0.0006206323 -0.0034746178
-0.0036875808 -0.0027413478 -0.0034106264 -0.0015691003 -0.0018919042 -0.002270351 -0.0037175044 -0.00056707114
0.14039345 -0.229336 -0.0035972581 0.13422842 0.019107057 -0.0032328344 0.15248092 -0.003797837
-0.00317649 -0.0029353832 -0.0026031642 -0.002834632 0.062459096 -0.0005699362 0.067031026 -0.004336575
-0.003176261 0.05897638 -0.0037080338 -0.18758574 0.055554688 -0.0026974257 -0.0031486575 0.13615759
-0.1028036 -0.0031765543 -0.003014182 -0.003176157 -0.07441634 -0.003634112 -0.0023745873 -0.003742576
-0.019978646 0.004308608 -0.0028258215 -0.0014552651 -0.00317639 -0.21796672 -0.0024725378 -0.032157786
-0.0029899464 0.04759493 -0.0012141974 0.21036895 -0.003053172 -0.0032877645 0.08546539 -0.0028214303
-0.003474084 -0.0018677838 -0.0019670266 -0.0021366847 -0.1869652 -0.0005694889 -0.00054739555 -0.003097993
-0.0005789026 -0.0024482524 0.1754414 -0.2297271 -0.008111608 0.4575117 0.017721456 -0.0020407892
-0.022287069 -0.0013981836 -0.051099017 0.060100447 -0.19458145 0.067903094 -0.0031755553 -0.0042403606
-0.0011962441 0.071124986 0.15752028 -0.0017706894 -0.0028198112 -0.0053398 0.18798572 0.08786602
0.11476605 -0.003176191 -0.0031765045 -0.0019880536 -0.0023054539 -0.003164969 -0.0037115135 0.1090337
0.047255427 -0.0064090407 0.09422994 -0.21215494 -0.0011967464 -0.0033681884 -0.0029088736 -0.0030075249
0.0020978912 0.07552494 -0.003691272 -0.0029185035 -0.0031487842 -0.0027043917 -0.007746268 0.030657824
-0.0015796126 0.16560487 0.029116444 -0.0005072426 -0.0021327485 -0.002301778 -0.0031765169 -0.008543236
00000000: f7d3 a7bd 8f21 50bb a1fd e9bb d67b 15bb
00000010: 4b09 36bb 2bf4 db3d 0232 6abe bd54 31bb
00000020: fd84 4dbb 062e 50bb 33a4 91bb 5e7a 3bbc
00000030: f969 36bb 1155 5fbb e455 75bb bf55 76bb
00000040: 1284 71bb cfa4 8b3c b3d1 c63d ac85 edbc
00000050: 5068 4abb e9b4 bfbd 907e 023e 7ec9 53ba
00000060: 3ba3 2d3e 4b14 783d 2245 0dbb c5b0 0abb
00000070: fbb7 70bb 6bd7 f4ba b542 21bb 7897 c1bb
00000080: ca59 4e3c 9eb7 22be d424 50bb 8b67 3abe
00000090: 5a52 0ebb 4f6d aa3c 9fda 42bb 998f 023e
000000a0: b1fc 173e 28e1 ceba d88d 60bb d252 a53d
000000b0: 5fa9 3cbb 082f dfba 7c5f e3bb c62a 993d
000000c0: 12f9 913d 06be a7ba abd2 2ebb 2622 6e3b
000000d0: 6ef6 fe3d 4321 67bb 0ebc febb 04bd 4dbc
000000e0: 3c07 1a3e 135d 9ebb c716 233b b3b0 69be
000000f0: 76ff 70be c2da 5abb 464d 72bb b71e 50bb
00000100: 0f5c 52be d8bf 23bb c12d 50bb f11f a5bb
00000110: 1f3c 89bc fb51 073e a1dc 17ba 4526 50bb
00000120: ef26 1fbb fa1e 35bd d5eb 29bb 5a74 7c3d
00000130: 145e 70bb 283f 69bb fed1 d2bc 2e49 3abb
00000140: ffa2 e0ba 9835 ccba 4569 f03d 392d 50bb
00000150: 8e27 50bb bcd9 05ba bb15 c7bb f393 35bb
00000160: 970c ddba c29f 1bbb 9517 ccbd 7479 17ba
00000170: 1e7a 3abb 05e2 73bb a18e 80bd 0df9 2d3c
00000180: 0022 72bb 8c46 3ebb f69e babd ace4 4fbb
00000190: 8ac5 06bb 1dc4 19ba 5de5 693d 989f 4fbb
000001a0: 8305 f9bb 19cb 733d b199 49bc 7e29 113e
000001b0: 1b61 06ba abf3 07ba 89bc 11ba 34c5 71bb
000001c0: 91e3 21ba bb78 6fbb 4acf 71bb aa5e d93c
000001d0: 0fb2 213e be3e 32bb 77d6 093e 4c54 47ba
000001e0: 148f a03d bcee 073d 6327 50bb 5047 61bd
000001f0: ae30 1b3e f19a a03d e77a e5ba 9b56 c93d
00000200: 2c4e 48bb 7d63 ecba 1116 26bd 8bba 11bb
00000210: 1193 93bd 5b95 673d eeb1 22ba 6ab6 63bb
00000220: 57ab 71bb 2fa8 33bb d184 5fbb 45aa cdba
00000230: c5f9 f7ba 2bca 14bb 60a1 73bb 80a7 14ba
00000240: 4dc3 0f3e 0ed7 6abe fabf 6bbb 2d73 093e
00000250: 6786 9c3c f6dd 53bb f523 1c3e 22e5 78bb
00000260: a92c 50bb 8f5f 40bb d999 2abb 3cc5 39bb
00000270: 1cd5 7f3d c567 15ba 9047 893d d419 8ebb
00000280: d128 50bb 3791 713d 7c02 73bb 7a16 40be
00000290: 508d 633d 4bc7 30bb b559 4ebb e56c 0b3e
000002a0: b28a d2bd bd2d 50bb 9589 45bb 1227 50bb
000002b0: 9867 98bd 482a 6ebb f79e 1bbb 0246 75bb
000002c0: 42aa a3bc 392f 8d3b 6b31 39bb 98be beba
000002d0: fb2a 50bb ab32 5fbe 4d0a 22bb e2b7 03bd
000002e0: faf2 43bb e7f2 423d b425 9fba f56a 573e
000002f0: ba17 48bb 8977 57bb 7a08 af3d bfe7 38bb
00000300: 75ad 63bb 6dd0 f4ba 3be9 00bb 9f07 0cbb
00000310: ce73 3fbe c149 15ba 187f 0fba b307 4bbb
00000320: 7fc1 17ba dc72 20bb e9a6 333e 953d 6bbe
00000330: 8de6 04bc f93e ea3e 962c 913c c3be 05bb
00000340: 5f93 b6bc 4243 b7ba 344d 51bd e32b 763d
00000350: 5c40 47be c710 8b3d fa1c 50bb b9f2 8abb
00000360: 4bcb 9cba faa9 913d ff4c 213e 7a16 e8ba
00000370: 95cc 38bb 7df9 aebb 547f 403e 1af3 b33d
00000380: 760a eb3d a427 50bb e72c 50bb 014a 02bb
00000390: 1917 17bb 5e6b 4fbb dd3c 73bb 0f4d df3d
000003a0: e88e 413d ee02 d2bb a0fb c03d 253f 59be
000003b0: 25dc 9cba d3bc 5cbb cda2 3ebb e519 45bb
000003c0: c67c 093b d2ac 9a3d 45e9 71bb 5d44 3fbb
000003d0: d55b 4ebb 2a3c 31bb 68d4 fdbb 1e26 fb3c
000003e0: 010b cfba 5394 293e 9c85 ee3c 7af8 04ba
000003f0: 95c5 0bbb 6dd9 16bb 1c2d 50bb eef8 0bbc

steering.weight f4 [1, 600]
0.09500794 0.0029321418 0.004835587 -0.0016985672 0.00288588 0.25706506 -0.17343262 -0.0030748039
0.0030926685 0.0030406816 0.004035803 0.032798905 -0.0019982813 -0.002692553 0.0031292094 0.0017545724
0.0030441175 -0.42535937 -1.159374 -0.70262843 -0.0027503686 0.85482955 0.8030172 0.00061980553
0.018289743 0.31200323 -0.0026811783 -0.0015339328 -0.0030639698 -0.0015277327 -0.002346996 -0.0027980767
0.37730497 -0.2886959 -0.0031211518 -0.12779154 -0.0016587785 0.363221 0.002925134 0.2663812
1.2265265 -0.0011219434 -0.0029429325 -0.6029826 0.0027222107 -0.0016429512 -0.0017372344 0.3669971
0.30972043 -0.000735971 -0.0019769298 -0.0020823304 1.03426 -0.0028866327 0.0031400786 -0.005681947
1.2455722 -0.00037502832 -0.8501773 -0.1335482 -0.22592463 -0.0025732901 -0.00303751 -0.0031694055
-0.25445575 -0.002396134 0.0030459925 0.0010378956 0.049539503 1.0952854 0.00017891891 0.0030943789
-0.0023891493 -0.1764299 0.0022754746 -0.2281839 -0.0021127695 -0.0029849177 0.1346838 0.0027481948
-0.0016001904 -0.002573802 0.88466483 -0.0030557998 0.0029726955 -0.00015049808 0.017702127 -0.0018987526
-0.0015118312 -0.0022676187 -0.267618 -0.00041908477 -0.002789264 0.0040151887 -0.28877097 0.36300683
0.0031368684 -0.002294267 -0.24259533 -0.0031126905 -0.0015194213 0.00014152155 -0.049009006 0.0029623269
0.7895956 0.28935602 0.110341586 1.1732041 7.908252e-05 -0.0001060021 5.6855144e-05 -0.0031225693
-0.0005832221 -0.0030444143 0.00012344433 -1.0627837 1.2755655 0.0021355848 -0.48572716 0.000633794
-0.8808479 -0.7699532 -0.003140204 -0.16154484 1.3298024 0.12790442 -0.0016302788 0.40258914
-0.0023649547 -0.0017570775 -0.11929303 -0.001744122 -0.3115231 0.3005206 -0.00055785273 0.0030773848
0.0031154354 -0.0028382603 0.0028598246 0.0022439507 -0.0018703087 -0.00223578 0.0031408733 -3.9983777e-05
1.2890699 -0.15672272 -0.0027125217 1.1388572 0.24423356 0.0027056357 -0.24037263 -0.0012254601
-0.0030606682 0.003027328 -0.003068406 -0.0027129902 0.2809694 0.00013602189 -0.14911382 -0.002180636
-0.003165031 0.3191172 -0.003066639 -0.118252285 0.28228164 -0.0020841896 -0.0030553236 1.1487308
0.04851435 0.003111141 -0.0024447348 0.0031734402 -0.087277666 0.0030663984 -0.002312666 -0.0030844538
0.068340555 0.04903057 0.0026526796 0.0011141767 0.0031476407 -0.22815786 -0.002470845 -0.2694475
-0.0023699547 0.057956316 0.23888685 -0.8474961 -0.002386249 -0.0025274167 0.48406315 0.0028380007
0.0003854173 -0.0019686988 -0.0015252882 -0.0003197798 -0.07921192 -1.438414e-05 -5.2411735e-07 -0.0024190499
0.00021182111 -0.0017214713 1.0004671 -0.10723261 -0.0014805332 0.023143152 0.20810273 -0.0015026471
0.30542123 0.00029388902 -0.40539196 0.27212742 0.11634439 0.31583697 0.0031514645 -0.00029119587
0.0010743856 -0.5985616 1.3412812 -0.0016637614 -0.0019146653 -0.000709157 -1.0075663 0.0019722634
0.93571943 -0.0031313766 -0.003051536 -0.0019619802 -0.0015227983 -0.0022153019 0.0023883227 -1.150389
0.2953304 0.0025802306 0.46068576 -0.25299072 9.0315916e-05 -0.002825472 0.0028470452 -0.0023753853
0.0016220253 0.3795729 0.003139285 0.002715235 -0.0030479243 -0.0025990438 -0.00068570726 -0.09301449
-0.0015399265 0.90567243 -0.34016895 -0.00010348895 -0.0019560982 -0.001133324 0.0030673922 -0.32175577
00000000: 8693 c23d 2d29 403b d873 9e3b 75a2 deba
00000010: 0821 3d3b 089e 833e 5298 31be a682 49bb
00000020: 5eae 4a3b 2c46 473b c53e 843b 2558 063d
00000030: 99f5 02bb 8b75 30bb 6c13 4d3b aef9 e53a
00000040: d17f 473b b4c8 d9be 5e66 94bf 75df 33bf
00000050: 873f 34bb 1cd6 5a3f 8992 4d3f 727a 223a
00000060: 5fd4 953c e3be 9f3e b5b6 2fbb 3e0e c9ba
00000070: e2cc 48bb 343e c8ba 0fd0 19bb f05f 37bb
00000080: 1e2e c13e f3cf 93be 3d8c 4cbb c9db 02be
00000090: 5f6b d9ba 1af8 b93e 9bb3 3f3b 1e63 883e
000000a0: d2fe 9c3f 2c0e 93ba 37de 40bb 115d 1abf
000000b0: 1e67 323b 4b58 d7ba eab3 e3ba 0be7 bb3e
000000c0: ad93 9e3e 2eee 40ba 618f 01bb b577 08bb
000000d0: a262 843f a92d 3dbb c7c9 4d3b a02f babb
000000e0: e96e 9f3f 739f c4b9 38a5 59bf dcc0 08be
000000f0: c958 67be a5a4 28bb f610 47bb cdb5 4fbb
00000100: 0648 82be 7508 1dbb 469f 473b ff09 883a
00000110: efe9 4a3d 5032 8c3f 2e9c 3b39 10cb 4a3b
00000120: 4693 1cbb 0aaa 34be 2120 153b 0aa9 69be
00000130: 6476 0abb 9c9e 43bb 8dea 093e 0f1b 343b
00000140: 7bbd d1ba 3bad 28bb 6579 623f d043 48bb
00000150: 8ed1 423b 05cf 1db9 0d04 913c 91df f8ba
00000160: a328 c6ba 549c 14bb 3a05 89be 9bb8 dbb9
00000170: 16cc 36bb d891 833b cad9 93be 08dc b93e
00000180: eb93 4d3b 6a5b 16bb e96a 78be 48fe 4bbb
00000190: 5227 c7ba 6765 1439 abbd 48bd 9923 423b
000001a0: f022 4a3f 7926 943e c5fa e13d 8d2b 963f
000001b0: 1bd9 a538 724d deb8 bf77 6e38 05a4 4cbb
000001c0: 5fe3 18ba cc84 47bb d670 0139 4c09 88bf
000001d0: bb45 a33f 2bf5 0b3b 3bb1 f8be 3225 263a
000001e0: 3f7f 61bf a71b 45bf e1cb 4dbb 036c 25be
000001f0: f736 aa3f 60f9 023e 14af d5ba 2a20 ce3e
00000200: 5bfd 1abb bd4d e6ba e74f f4bd 069b e4ba
00000210: f57f 9fbe d6dd 993e dd3c 12ba f3ad 493b
00000220: 552c 4c3b 1b02 3abb e56b 3b3b 3f0f 133b
00000230: 2525 f5ba 2a86 12bb 1cd7 4d3b 41b4 27b8
00000240: 3e00 a53f ec7b 20be 90c4 31bb 13c6 913f
00000250: 5d18 7a3e 0951 313b 3e24 76be 9e9f a0ba
00000260: 7e95 48bb 2366 463b 4f17 49bb 6ccc 31bb
00000270: 39db 8f3e 19a1 0e39 4bb1 18be 00e9 0ebb
00000280: 696c 4fbb 5463 a33e aaf9 48bb 412e f2bd
00000290: 3887 903e e696 08bb d33b 48bb 9c09 933f
000002a0: fcb6 463d 49e4 4b3b d837 20bb 7ef9 4f3b
000002b0: a2be b2bd a1f5 483b 1990 17bb 8c24 4abb
000002c0: 22f6 8b3d 47d4 483d 94d8 2d3b 9109 923a
000002d0: a648 4e3b 37a2 69be e6ed 21bb 06f5 89be
000002e0: 3e51 1bbb 9a63 6d3d c19e 743e 81f5 58bf
000002f0: 9d62 1cbb 04a3 25bb 20d7 f73e c0fd 393b
00000300: d611 ca39 4905 01bb 2eec c7ba 1ea8 a7b9
00000310: dc39 a2bd 6953 71b7 12b1 0cb5 ec88 1ebb
00000320: 4c1c 5e39 fea2 e1ba 4e0f 803f c59c dbbd
00000330: 730e c2ba b596 bd3c e218 553e 78f4 c4ba
00000340: 2c60 9c3e 1e15 9a39 898f cfbe 4954 8b3e
00000350: f845 ee3d 62b5 a13e cd88 4e3b a6ab 98b9
00000360: 66d2 8c3a 553b 19bf 1aaf ab3f 9212 daba
00000370: 82f5 faba b8e6 39ba eff7 80bf 1741 013b
00000380: 4f8b 6f3f c837 4dbb 47fc 47bb 9194 00bb
00000390: a298 c7ba 992e 11bb 6885 1c3b f23f 93bf
000003a0: 8c35 973e 1619 293b 01df eb3e 0088 81be
000003b0: fd67 bd38 8e2b 39bb 7e95 3a3b 5aac 1bbb
000003c0: 239a d43a 6157 c23e 76bc 4d3b 16f2 313b
000003d0: afbf 47bb b854 2abb 09c1 33ba 627e bebd
000003e0: 5cd7 c9ba 26da 673f a02a aebe 3508 d9b8
000003f0: e231 00bb 0b8c 94ba 4d06 493b 2cbd a4be

acceleration.weight f4 [1, 600]
0.12437609 0.0011809357 0.002477543 0.0004332456 0.0032021382 1.8490623 0.09343391 0.012146644
-0.0029672938 7.455787e-05 0.0068801665 0.9727134 -0.00012785227 -0.0031801856 -0.00019216843 -0.001051383
0.0001930125 3.2647617 2.863657 0.98341364 0.0015696627 1.2070762 2.025911 0.00044091037
3.7671726 1.7653743 0.0040826257 0.001340817 -0.003091289 0.0014853087 0.0024571072 0.004678689
3.0048935 1.1054097 0.0016820192 1.3243183 -3.3900735e-05 1.4713755 -0.0022281304 3.9847264
1.3568351 5.208193e-05 -0.0031229078 0.039410833 -0.008778261 0.0017838726 -0.0042394553 1.2712735
1.4691106 0.0012611084 -0.0001248437 0.0074669495 1.2552129 0.0027097638 -0.0039947685 0.0029194984
1.5882809 0.0038544259 0.7681308 0.36304128 0.21946649 -5.9897462e-05 -9.439341e-06 -0.0032159425
0.42178354 0.002489331 0.00037945597 0.008968063 1.1192598 1.3275877 4.6232664e-05 0.0001206286
0.0025123265 3.5020788 9.284315e-05 4.027006 0.002968474 -2.324287e-05 2.108411 0.0032502166
0.0018351497 0.0031411035 1.6402748 0.0006846726 2.071081e-05 2.2330718e-05 0.0015564394 7.9518315e-05
0.0015752584 0.0024228906 0.5062935 6.0074522e-05 0.0030468025 0.0022006668 0.47934672 0.34487253
-0.001468269 1.174707e-05 0.51888406 -3.2278604e-05 0.001397091 -0.00026411776 0.3954295 0.0014030135
2.509491 1.6646683 0.12318446 1.2890155 -3.300061e-05 4.4757535e-06 -4.6111047e-05 -0.00015049547
0.0006621386 3.2664062e-05 0.0030239949 0.7533646 1.3320503 -0.00013061379 0.3589454 0.00072847767
0.20129873 0.27103198 0.00019182294 3.3196564 1.3762048 3.3688712 0.0015010537 1.7093823
-4.5214427e-05 0.0016691611 0.37702873 0.00037931735 0.5764552 1.6824023 0.00083192147 0.008843613
-6.6347224e-05 0.0027320844 3.3591354e-05 0.003696161 0.0018240181 0.002376966 7.24591e-05 -0.00014161547
1.2963225 0.09824434 0.0034878089 1.2139542 1.8755472 -0.000365358 0.76665056 0.0060677007
0.0009512373 0.0025552725 0.005939669 0.00295262 1.63018 -3.890196e-05 3.35978 0.008818262
0.00024622804 1.820807 0.0030825483 0.37942272 1.6554794 0.0001232429 -0.0030450355 1.1907622
0.4027575 0.0018659837 5.0680992e-05 0.0030970294 0.9326279 -0.0011635785 0.0022782646 3.0059437e-05
0.15052964 1.8704811 0.0030829147 0.0009531085 -3.005031e-05 0.43936148 0.0024868483 1.9742513
5.9398215e-05 -0.16040349 2.2841704 0.38076922 -0.0001835762 -0.00013374953 1.3625551 0.0032772482
-0.0030572775 0.0024197446 0.0010316061 -8.1417296e-05 1.0709331 7.079828e-07 -0.00013326803 -3.209741e-05
7.259989e-05 -2.4517176e-05 1.909197 0.7444846 -0.005566115 -1.8589803 1.7959234 0.0016392245
1.0624838 0.004563941 0.7614319 1.6740144 0.2842131 1.6132169 -2.7726703e-05 0.0072573256
0.0013028999 1.7466823 1.3723857 0.0016950243 -6.476684e-05 0.0004097796 -0.0635732 6.5261707
1.2949152 -0.0013052195 0.0032037594 0.002035424 -7.884739e-05 -3.1105577e-05 0.0031171155 0.9455409
1.7780645 0.001852763 1.4036089 0.43261966 -0.00022283183 -0.0032059385 0.002718547 5.8407613e-06
-0.0023839108 1.2604618 -2.4261371e-05 0.0026938561 -0.0030226351 0.0030280778 0.0069194874 -0.06935968
0.0014704224 0.63134664 0.044960123 1.4123961e-05 0.0021562118 5.5875034e-06 -0.003075073 2.2687514
00000000: e4b8 fe3d a0c9 9a3a 465e 223b 3d25 e339
00000010: f7da 513b 13ae ec3f 475a bf3d b802 473c
00000020: ee76 42bb f45b 9c38 0573 e13b bf03 793f
00000030: 1510 06b9 a96a 50bb d280 49b9 8fce 89ba
00000040: 6663 4a39 dbf1 5040 2846 3740 ffc0 7b3f
00000050: 24bd cd3a 7981 9a3f 87a8 0140 fd29 e739
00000060: 5b19 7140 c9f7 e13f 8cc7 853b 5abe af3a
00000070: 3997 4abb b1ae c23a 6b07 213b b04f 993b
00000080: 2d50 4040 117e 8d3f 3377 dc3a 4383 a93f
00000090: a330 0eb8 0856 bc3f d305 12bb c205 7f40
000000a0: c6ac ad3f 8c72 5a38 b3a9 4cbb 416d 213d
000000b0: b2d2 0fbc d5d0 e93a 21eb 8abb 17b9 a23f
000000c0: d10b bc3f c74b a53a 7ae8 02b9 50ad f43b
000000d0: d1aa a03f 4b96 313b 8ce6 82bb 0e55 3f3b
000000e0: ca4c cb3f 899a 7c3b 38a4 443f 8ce0 b93e
000000f0: d3bb 603e 693a 7bb8 a95d 1eb7 90c2 52bb
00000100: 03f4 d73e 0b24 233b b8f1 c639 c8ee 123c
00000110: e843 8f3f 65ee a93f f2e9 4138 fdf9 fc38
00000120: d8a5 243b 0f22 6040 c9b4 c238 3cdd 8040
00000130: bb8a 423b aff9 c2b7 35f0 0640 9601 553b
00000140: 6889 f03a f9da 4d3b 86f4 d13f 9a7b 333a
00000150: 20bc ad37 da52 bb37 7101 cc3a 12c3 a638
00000160: e778 ce3a 5cc9 1e3b 739c 013f 87f8 7b38
00000170: ddac 473b 1039 103b ef6c f53e 2293 b03e
00000180: ef72 c0ba 4815 4537 96d5 043f e362 07b8
00000190: 981e b73a 4979 8ab9 bc75 ca3e 52e5 b73a
000001a0: 809b 2040 da13 d53f 2248 fc3d 76fe a43f
000001b0: 236a 0ab8 6e2e 9636 5c67 41b8 52ce 1db9
000001c0: 5f93 2d3a c500 0938 372e 463b 81dc 403f
000001d0: a080 aa3f 5ff5 08b9 b1c7 b73e 4ff7 3e3a
000001e0: 4121 4e3e b4c4 8a3e 1424 4939 4075 5440
000001f0: 7b27 b03f 969b 5740 01bf c43a 0acd da3f
00000200: 9fa4 3db8 c1c7 da3a e909 c13e 1ddf c639
00000210: 9192 133f f558 d73f 4e15 5a3a cde4 103c
00000220: e523 8bb8 c50c 333b 71e4 0c38 4b3b 723b
00000230: e413 ef3a dfc6 1b3b 2ff5 9738 9d7e 14b9
00000240: e5ed a53f 5434 c93d b993 643b da62 9b3f
00000250: ee11 f03f 858d bfb9 3643 443f 90d3 c63b
00000260: 745c 793a 5c76 273b 8ea1 c23b be80 413b
00000270: bda9 d03f a92a 23b8 a306 5740 797a 103c
00000280: 2b18 8139 3410 e93f 9404 4a3b b243 c23e
00000290: c0e6 d33f c43a 0139 388f 47bb e56a 983f
000002a0: 3b36 ce3e 0694 f43a 4d92 5438 88f7 4a3b
000002b0: b4c0 6e3f 3783 98ba f04e 153b 2628 fc37
000002c0: 7124 1a3e ed6b ef3f ba0a 4a3b 07da 793a
000002d0: 8d14 fcb7 fdf3 e03e 64fa 223b 44b4 fc3f
000002e0: 5922 7938 d040 24be d92f 1240 2ff4 c23e
000002f0: 5c7e 40b9 1e3f 0cb9 3568 ae3f 1ac7 563b
00000300: 9b5c 48bb 9494 1e3b f536 873a 94be aab8
00000310: 5614 893f 350c 3e35 ddbd 0bb9 55a0 06b8
00000320: c540 9838 3caa cdb7 9160 f43f 8b96 3e3f
00000330: f563 b6bb 11f3 edbf d1e0 e53f 3fdb d63a
00000340: 78ff 873f 1d8d 953b 33ed 423f 1b46 d63f
00000350: 6184 913e e47d ce3f a496 e8b7 dcce ed3b
00000360: 11c6 aa3a 4993 df3f 56aa af3f 942b de3a
00000370: 6fd3 87b8 b0d7 d639 aa32 82bd 64d6 d040
00000380: c8bf a53f e613 abba 2af6 513b c064 053b
00000390: df5a a5b8 5c77 02b8 8548 4c3b f80e 723f
000003a0: 9e97 e33f 69d8 f23a 75a9 b33f 5380 dd3e
000003b0: f7a7 69b9 b91a 52bb a629 323b c2fb c336
000003c0: 633b 1cbb d056 a13f e684 cbb7 688b 303b
000003d0: 6717 46bb b772 463b debc e23b 730c 8ebd
000003e0: 30bb c03a ef9f 213f 1b28 383d f3f5 6c37
000003f0: 3b4f 0d3b 4a7c bb36 2a87 49bb 3933 1140

brake.weight f4 [1, 600]
-1.5357413 -0.0001822176 -0.0010676733 -0.0008136681 0.0028323885 -0.45765606 -0.33861107 -0.011198538
0.003021065 -4.801693e-06 -0.008989378 -0.78774816 2.5381301e-05 0.0032200352 -2.094104e-05 0.0030569523
-0.00012359188 -2.6548736 -5.708781 0.19546717 -0.0028430384 -2.083386 -2.3589022 -0.00047679417
-5.954097 -0.7063892 -0.0020429185 -0.0015812729 -0.0033063618 -0.0014834565 0.0024903724 0.0060950997
-2.88782 -0.6337642 -9.274129e-05 0.24388504 0.00011059722 -1.9840194 0.002919557 -5.749894
-1.0239955 1.4963771e-07 0.0031937854 -2.2222812 -0.008682106 0.0015481727 -0.0046051946 -1.2131405
-0.7790574 -0.054494366 1.2592412e-06 0.0038729103 -0.9998382 -0.0030972818 -0.007837868 -0.00015254188
-1.6864558 -0.0005394648 -1.2334536 -0.17735 -0.30276763 2.6131374e-05 -0.00012909302 -6.8506764e-05
-0.0061129453 0.0025487805 -5.151513e-05 -0.0019062132 -1.1824929 -1.0177064 -0.00010940501 2.6250544e-05
0.0024596287 -1.8547863 -0.00011395781 -4.4681907 8.1374325e-05 5.8104488e-05 -2.6278126 0.0028793765
0.0018173092 -0.0025441118 -1.0108707 0.00010857988 -8.556668e-05 0.00012688321 -0.0041534477 3.767587e-05
0.0017070876 0.0023467012 -0.33279166 -5.6710916e-05 -0.0023306848 -0.004376127 -1.520718 -2.1253664
0.003182201 9.426621e-05 -0.3615982 -5.8621383e-05 -0.001409175 -2.5861873e-06 -0.8442159 -0.0040434846
-2.6371136 -0.7233449 -0.116550215 -0.3726177 -8.537034e-05 0.00018741518 -1.7042497e-05 0.0001407143
-0.000351259 -4.310698e-05 0.003055281 -1.136458 -0.65943307 -0.00010193226 -2.0254786 -0.0005212278
-0.9036836 -1.0376642 0.00012409007 -2.1570535 -0.8156582 -3.765213 0.0016452521 -0.9433849
-0.00014011856 0.0017148571 -3.283593 -0.0007223419 -0.35170916 -0.75884396 -0.00045298226 -0.0018725878
-7.817311e-05 -0.0026756548 -0.00012551555 -0.0043956 0.0017281083 0.0021640668 -0.0033392655 -6.618092e-05
-1.1507715 -0.010998364 -0.0030119657 -1.0896217 -1.5582685 -0.00049836055 -0.3773604 0.0015515037
-0.00016152514 0.0027604771 -0.00040305834 -0.0022102334 -0.74379593 -3.461357e-06 -2.0510848 0.009039333
0.00011799488 -1.2872434 0.0029941257 -0.19903184 -0.7272892 -0.00013569677 0.003252306 -1.0441839
-0.77286 -0.0029455645 -8.600573e-05 0.0003593337 -4.40811 0.0029308973 0.0024389594 -8.886543e-05
-0.13496463 -1.4326833 -0.002860545 -0.000984127 -0.00019779071 0.14847994 0.0024121907 -1.5643139
-1.9665474e-06 0.13711873 -2.5812192 -2.9856343 -5.8922433e-06 7.420466e-05 -1.3533614 0.0004629831
7.783607e-06 0.0021920365 -0.001057818 9.3467264e-05 0.4415965 -0.00017034553 3.2945674e-05 -2.0920697e-05
-0.000100973644 -2.4127663e-05 -1.9796196 -0.04764109 -0.004804002 -0.62808853 -2.235435 -0.0017032531
-2.387937 -0.012234081 -1.5823351 -0.7496649 -2.0394542 -0.72360504 -0.00010182678 0.0012874026
-0.0010707822 -4.2619967 -0.6729116 0.0018414097 3.7700607e-05 0.005684663 -2.4672794 -0.7523158
-1.0379113 0.00018288456 2.2842203e-05 0.0019394824 -0.00022580642 -0.0023788458 0.0026100532 -1.6847944
-1.4688762 0.00012573018 -1.3959017 -0.046938192 0.003947435 0.0030895502 0.00292472 -8.384552e-05
-0.001144218 -1.0754652 -9.376595e-05 0.0028460019 0.0031212366 -0.0028337615 0.005441262 0.1371228
0.0013441918 -0.06340891 -1.8005927 4.7542384e-05 0.0020891577 3.2253643e-05 -4.1678635e-05 -1.5750934
00000000: 2c93 c4bf aa11 3fb9 2cf1 8bba 584c 55ba
00000010: 989f 393b e551 eabe 6e5e adbe 137a 37bc
00000020: 0ffd 453b 3b1e a1b6 2f48 13bc dda9 49bf
00000030: eee9 d437 3a07 533b 8aaa afb7 2657 483b
00000040: 7198 01b9 73e9 29c0 55ae b6c0 8c28 483e
00000050: 4552 3abb 3256 05c0 41f8 16c0 3bfa f9b9
00000060: f687 bec0 ecd5 34bf 7ce2 05bb b742 cfba
00000070: 8caf 58bb 8a70 c2ba 8435 233b 67b9 c73b
00000080: 0bd2 38c0 5f3e 22bf 1a7e c2b8 00bd 793e
00000090: 6ef0 e738 59f4 fdbf 0a56 3f3b 22ff b7c0
000000a0: 4912 83bf 1aac 2034 d44e 513b db39 0ec0
000000b0: 643f 0ebc 0eec ca3a 2ce7 96bb 3048 9bbf
000000c0: 4e70 47bf 7c35 5fbd 3303 a935 a7d0 7d3b
000000d0: 65f5 7fbf c4fb 4abb 676a 00bc a6f3 1fb9
000000e0: c9dd d7bf df6a 0dba cfe1 9dbf 3d9b 35be
000000f0: 5c04 9bbe b334 db37 255d 07b9 4aab 8fb8
00000100: 1a4f c8bb 7109 273b f311 58b8 e7d9 f9ba
00000110: ed5b 97bf 3444 82bf 5e70 e5b8 9d34 dc37
00000120: b931 213b a369 edbf a2fc eeb8 6bfb 8ec0
00000130: 82a7 aa38 38b5 7338 152e 28c0 ecb3 3c3b
00000140: c732 ee3a 1dbb 26bb 3664 81bf 61b5 e338
00000150: 4372 b3b8 f40b 0539 a519 88bb 2806 1e38
00000160: 5bc0 df3a 1dcb 193b ab63 aabe e2dc 6db8
00000170: 67be 18bb 9d65 8fbb e3a6 c2bf 0106 08c0
00000180: 798c 503b c9b0 c538 6623 b9be 3be0 75b8
00000190: 11b4 b8ba 5c8e 2db6 891e 58bf 357f 84bb
000001a0: 78c6 28c0 222d 39bf e1b1 eebd bfc7 bebe
000001b0: da08 b3b8 e184 4439 7cf6 8eb7 b58c 1339
000001c0: 2f29 b8b9 c4cd 34b8 1c3b 483b 7577 91bf
000001d0: 9bd0 28bf 77c4 d5b8 71a1 01c0 01a3 08ba
000001e0: cf57 67bf 2ed2 84bf 2d1e 0239 2a0d 0ac0
000001f0: face 50bf 40f9 70c0 80a5 d73a ac81 71bf
00000200: caec 12b9 0ec5 e03a 6326 52c0 8b5b 3dba
00000210: 3913 b4be 9943 42bf 407e edb9 9f71 f5ba
00000220: def0 a3b8 0a5a 2fbb d39c 03b9 f708 90bb
00000230: b181 e23a 04d3 0d3b 94d7 5abb 9cca 8ab8
00000240: 7b4c 93bf 7b32 34bc 6664 45bb b978 8bbf
00000250: 5875 c7bf 69a4 02ba 6235 c1be d35b cb3a
00000260: 135f 29b9 1fe9 343b 9351 d3b9 90d9 10bb
00000270: 6969 3ebf a949 68b6 f944 03c0 b619 143c
00000280: 0574 f738 64c4 a4bf 1839 443b 01cf 4bbe
00000290: a02f 3abf d349 0eb9 a424 553b d1a7 85bf
000002a0: 27da 45bf 5f0a 41bb fa5d b4b8 f464 bc39
000002b0: 3d0f 8dc0 4c14 403b f3d6 1f3b 445d bab8
000002c0: 2b34 0abe 2b62 b7bf fb77 3bbb d3fd 80ba
000002d0: 0a66 4fb9 200b 183e d815 1e3b 703b c8bf
000002e0: 07f9 03b6 da68 0c3e b232 25c0 a214 3fc0
000002f0: fcb5 c5b6 539e 9b38 f23a adbf 8abc f239
00000300: 5696 0237 45a8 0f3b 7ba6 8aba db03 c438
00000310: f018 e23e c89e 32b9 262f 0a38 db7e afb7
00000320: d0c1 d3b8 c365 cab7 2d64 fdbf 4e23 43bd
00000330: e46a 9dbb 69ca 20bf 5e11 0fc0 b13f dfba
00000340: f6d3 18c0 7471 48bc f589 cabf 0aea 3fbf
00000350: 6b86 02c0 2e3e 39bf d68b d5b8 10be a83a
00000360: 7d59 8cba 4762 88c0 ef43 2cbf 755b f13a
00000370: b820 1e38 6946 ba3b e8e7 1dc0 c597 40bf
00000380: 47da 84bf b3c4 3f39 429d bf37 3b36 fe3a
00000390: 73c6 6cb9 69e6 1bbb 6d0d 2b3b 58a7 d7bf
000003a0: 2304 bcbf 70d6 0339 e8ac b2bf 4342 40bd
000003b0: 7c59 813b 0d7a 4a3b a9ac 3f3b 39d6 afb8
000003c0: 96f9 95ba d8a8 89bf 36a4 c4b8 fd83 3a3b
000003d0: a98d 4c3b a1b6 39bb 9d4c b23b eb69 0c3e
000003e0: 982f b03a 88dc 81bd d279 e6bf 3f68 4738
000003f0: 40ea 083b 1648 0738 18d0 2eb8 a99c c9bf
